{"format": "graph-model", "generatedBy": "1.15.0", "convertedBy": "TensorFlow.js Converter v1.4.0", "userDefinedMetadata": {"signature": {"inputs": {"Placeholder:0": {"name": "Placeholder:0", "dtype": "DT_FLOAT", "tensorShape": {"dim": [{"size": "-1"}, {"size": "299"}, {"size": "299"}, {"size": "3"}]}}}, "outputs": {"final_result:0": {"name": "final_result:0", "dtype": "DT_FLOAT", "tensorShape": {"dim": [{"size": "-1"}, {"size": "2"}]}}}}}, "modelTopology": {"node": [{"name": "Placeholder", "op": "Placeholder", "attr": {"dtype": {"type": "DT_FLOAT"}, "shape": {"shape": {"dim": [{"size": "-1"}, {"size": "299"}, {"size": "299"}, {"size": "3"}]}}}}, {"name": "module_apply_default/hub_input/Mul/y", "op": "Const", "attr": {"dtype": {"type": "DT_FLOAT"}, "value": {"tensor": {"dtype": "DT_FLOAT", "tensorShape": {}}}}}, {"name": "module_apply_default/hub_input/Sub/y", "op": "Const", "attr": {"dtype": {"type": "DT_FLOAT"}, "value": {"tensor": {"dtype": "DT_FLOAT", "tensorShape": {}}}}}, {"name": "module_apply_default/InceptionV3/InceptionV3/Mixed_5b/concat/axis", "op": "Const", "attr": {"dtype": {"type": "DT_INT32"}, "value": {"tensor": {"dtype": "DT_INT32", "tensorShape": {}}}}}, {"name": "final_retrain_ops/weights/final_weights", "op": "Const", "attr": {"value": {"tensor": {"dtype": "DT_FLOAT", "tensorShape": {"dim": [{"size": "2048"}, {"size": "2"}]}}}, "dtype": {"type": "DT_FLOAT"}}}, {"name": "final_retrain_ops/biases/final_biases", "op": "Const", "attr": {"value": {"tensor": {"dtype": "DT_FLOAT", "tensorShape": {"dim": [{"size": "2"}]}}}, "dtype": {"type": "DT_FLOAT"}}}, {"name": "module_apply_default/InceptionV3/Logits/GlobalPool/reduction_indices", "op": "Const", "attr": {"value": {"tensor": {"dtype": "DT_INT32", "tensorShape": {"dim": [{"size": "2"}]}}}, "dtype": {"type": "DT_INT32"}}}, {"name": "module_apply_default/InceptionV3/InceptionV3/Conv2d_1a_3x3/Conv2D_weights", "op": "Const", "attr": {"value": {"tensor": {"dtype": "DT_FLOAT", "tensorShape": {"dim": [{"size": "3"}, {"size": "3"}, {"size": "3"}, {"size": "32"}]}}}, "dtype": {"type": "DT_FLOAT"}}}, {"name": "module_apply_default/InceptionV3/InceptionV3/Conv2d_1a_3x3/Conv2D_bn_offset", "op": "Const", "attr": {"value": {"tensor": {"dtype": "DT_FLOAT", "tensorShape": {"dim": [{"size": "32"}]}}}, "dtype": {"type": "DT_FLOAT"}}}, {"name": "module_apply_default/InceptionV3/InceptionV3/Mixed_6e/Branch_2/Conv2d_0b_7x1/Conv2D_bn_offset", "op": "Const", "attr": {"value": {"tensor": {"dtype": "DT_FLOAT", "tensorShape": {"dim": [{"size": "192"}]}}}, "dtype": {"type": "DT_FLOAT"}}}, {"name": "module_apply_default/InceptionV3/InceptionV3/Conv2d_2a_3x3/Conv2D_weights", "op": "Const", "attr": {"value": {"tensor": {"dtype": "DT_FLOAT", "tensorShape": {"dim": [{"size": "3"}, {"size": "3"}, {"size": "32"}, {"size": "32"}]}}}, "dtype": {"type": "DT_FLOAT"}}}, {"name": "module_apply_default/InceptionV3/InceptionV3/Conv2d_2a_3x3/Conv2D_bn_offset", "op": "Const", "attr": {"value": {"tensor": {"dtype": "DT_FLOAT", "tensorShape": {"dim": [{"size": "32"}]}}}, "dtype": {"type": "DT_FLOAT"}}}, {"name": "module_apply_default/InceptionV3/InceptionV3/Conv2d_2b_3x3/Conv2D_weights", "op": "Const", "attr": {"value": {"tensor": {"dtype": "DT_FLOAT", "tensorShape": {"dim": [{"size": "3"}, {"size": "3"}, {"size": "32"}, {"size": "64"}]}}}, "dtype": {"type": "DT_FLOAT"}}}, {"name": "module_apply_default/InceptionV3/InceptionV3/Mixed_6e/Branch_1/Conv2d_0c_7x1/Conv2D_weights", "op": "Const", "attr": {"dtype": {"type": "DT_FLOAT"}, "value": {"tensor": {"dtype": "DT_FLOAT", "tensorShape": {"dim": [{"size": "7"}, {"size": "1"}, {"size": "192"}, {"size": "192"}]}}}}}, {"name": "module_apply_default/InceptionV3/InceptionV3/Conv2d_2b_3x3/Conv2D_bn_offset", "op": "Const", "attr": {"dtype": {"type": "DT_FLOAT"}, "value": {"tensor": {"dtype": "DT_FLOAT", "tensorShape": {"dim": [{"size": "64"}]}}}}}, {"name": "module_apply_default/InceptionV3/InceptionV3/Conv2d_3b_1x1/Conv2D_weights", "op": "Const", "attr": {"dtype": {"type": "DT_FLOAT"}, "value": {"tensor": {"dtype": "DT_FLOAT", "tensorShape": {"dim": [{"size": "1"}, {"size": "1"}, {"size": "64"}, {"size": "80"}]}}}}}, {"name": "module_apply_default/InceptionV3/InceptionV3/Mixed_7c/Branch_2/Conv2d_0a_1x1/Conv2D_weights", "op": "Const", "attr": {"value": {"tensor": {"dtype": "DT_FLOAT", "tensorShape": {"dim": [{"size": "1"}, {"size": "1"}, {"size": "2048"}, {"size": "448"}]}}}, "dtype": {"type": "DT_FLOAT"}}}, {"name": "module_apply_default/InceptionV3/InceptionV3/Conv2d_3b_1x1/Conv2D_bn_offset", "op": "Const", "attr": {"value": {"tensor": {"dtype": "DT_FLOAT", "tensorShape": {"dim": [{"size": "80"}]}}}, "dtype": {"type": "DT_FLOAT"}}}, {"name": "module_apply_default/InceptionV3/InceptionV3/Mixed_6e/Branch_1/Conv2d_0c_7x1/Conv2D_bn_offset", "op": "Const", "attr": {"value": {"tensor": {"dtype": "DT_FLOAT", "tensorShape": {"dim": [{"size": "192"}]}}}, "dtype": {"type": "DT_FLOAT"}}}, {"name": "module_apply_default/InceptionV3/InceptionV3/Conv2d_4a_3x3/Conv2D_weights", "op": "Const", "attr": {"value": {"tensor": {"dtype": "DT_FLOAT", "tensorShape": {"dim": [{"size": "3"}, {"size": "3"}, {"size": "80"}, {"size": "192"}]}}}, "dtype": {"type": "DT_FLOAT"}}}, {"name": "module_apply_default/InceptionV3/InceptionV3/Conv2d_4a_3x3/Conv2D_bn_offset", "op": "Const", "attr": {"value": {"tensor": {"dtype": "DT_FLOAT", "tensorShape": {"dim": [{"size": "192"}]}}}, "dtype": {"type": "DT_FLOAT"}}}, {"name": "module_apply_default/InceptionV3/InceptionV3/Mixed_5b/Branch_0/Conv2d_0a_1x1/Conv2D_weights", "op": "Const", "attr": {"value": {"tensor": {"dtype": "DT_FLOAT", "tensorShape": {"dim": [{"size": "1"}, {"size": "1"}, {"size": "192"}, {"size": "64"}]}}}, "dtype": {"type": "DT_FLOAT"}}}, {"name": "module_apply_default/InceptionV3/InceptionV3/Mixed_6e/Branch_2/Conv2d_0c_1x7/Conv2D_weights", "op": "Const", "attr": {"value": {"tensor": {"dtype": "DT_FLOAT", "tensorShape": {"dim": [{"size": "1"}, {"size": "7"}, {"size": "192"}, {"size": "192"}]}}}, "dtype": {"type": "DT_FLOAT"}}}, {"name": "module_apply_default/InceptionV3/InceptionV3/Mixed_5b/Branch_0/Conv2d_0a_1x1/Conv2D_bn_offset", "op": "Const", "attr": {"value": {"tensor": {"dtype": "DT_FLOAT", "tensorShape": {"dim": [{"size": "64"}]}}}, "dtype": {"type": "DT_FLOAT"}}}, {"name": "module_apply_default/InceptionV3/InceptionV3/Mixed_5b/Branch_1/Conv2d_0a_1x1/Conv2D_weights", "op": "Const", "attr": {"value": {"tensor": {"dtype": "DT_FLOAT", "tensorShape": {"dim": [{"size": "1"}, {"size": "1"}, {"size": "192"}, {"size": "48"}]}}}, "dtype": {"type": "DT_FLOAT"}}}, {"name": "module_apply_default/InceptionV3/InceptionV3/Mixed_7c/Branch_2/Conv2d_0d_3x1/Conv2D_bn_offset", "op": "Const", "attr": {"value": {"tensor": {"dtype": "DT_FLOAT", "tensorShape": {"dim": [{"size": "384"}]}}}, "dtype": {"type": "DT_FLOAT"}}}, {"name": "module_apply_default/InceptionV3/InceptionV3/Mixed_5b/Branch_1/Conv2d_0a_1x1/Conv2D_bn_offset", "op": "Const", "attr": {"value": {"tensor": {"dtype": "DT_FLOAT", "tensorShape": {"dim": [{"size": "48"}]}}}, "dtype": {"type": "DT_FLOAT"}}}, {"name": "module_apply_default/InceptionV3/InceptionV3/Mixed_6e/Branch_2/Conv2d_0c_1x7/Conv2D_bn_offset", "op": "Const", "attr": {"value": {"tensor": {"dtype": "DT_FLOAT", "tensorShape": {"dim": [{"size": "192"}]}}}, "dtype": {"type": "DT_FLOAT"}}}, {"name": "module_apply_default/InceptionV3/InceptionV3/Mixed_5b/Branch_2/Conv2d_0a_1x1/Conv2D_weights", "op": "Const", "attr": {"value": {"tensor": {"dtype": "DT_FLOAT", "tensorShape": {"dim": [{"size": "1"}, {"size": "1"}, {"size": "192"}, {"size": "64"}]}}}, "dtype": {"type": "DT_FLOAT"}}}, {"name": "module_apply_default/InceptionV3/InceptionV3/Mixed_7c/Branch_2/Conv2d_0a_1x1/Conv2D_bn_offset", "op": "Const", "attr": {"dtype": {"type": "DT_FLOAT"}, "value": {"tensor": {"dtype": "DT_FLOAT", "tensorShape": {"dim": [{"size": "448"}]}}}}}, {"name": "module_apply_default/InceptionV3/InceptionV3/Mixed_5b/Branch_2/Conv2d_0a_1x1/Conv2D_bn_offset", "op": "Const", "attr": {"value": {"tensor": {"dtype": "DT_FLOAT", "tensorShape": {"dim": [{"size": "64"}]}}}, "dtype": {"type": "DT_FLOAT"}}}, {"name": "module_apply_default/InceptionV3/InceptionV3/Mixed_5b/Branch_3/Conv2d_0b_1x1/Conv2D_weights", "op": "Const", "attr": {"value": {"tensor": {"dtype": "DT_FLOAT", "tensorShape": {"dim": [{"size": "1"}, {"size": "1"}, {"size": "192"}, {"size": "32"}]}}}, "dtype": {"type": "DT_FLOAT"}}}, {"name": "module_apply_default/InceptionV3/InceptionV3/Mixed_6e/Branch_2/Conv2d_0d_7x1/Conv2D_weights", "op": "Const", "attr": {"value": {"tensor": {"dtype": "DT_FLOAT", "tensorShape": {"dim": [{"size": "7"}, {"size": "1"}, {"size": "192"}, {"size": "192"}]}}}, "dtype": {"type": "DT_FLOAT"}}}, {"name": "module_apply_default/InceptionV3/InceptionV3/Mixed_5b/Branch_3/Conv2d_0b_1x1/Conv2D_bn_offset", "op": "Const", "attr": {"value": {"tensor": {"dtype": "DT_FLOAT", "tensorShape": {"dim": [{"size": "32"}]}}}, "dtype": {"type": "DT_FLOAT"}}}, {"name": "module_apply_default/InceptionV3/InceptionV3/Mixed_5b/Branch_1/Conv2d_0b_5x5/Conv2D_weights", "op": "Const", "attr": {"dtype": {"type": "DT_FLOAT"}, "value": {"tensor": {"dtype": "DT_FLOAT", "tensorShape": {"dim": [{"size": "5"}, {"size": "5"}, {"size": "48"}, {"size": "64"}]}}}}}, {"name": "module_apply_default/InceptionV3/InceptionV3/Mixed_5b/Branch_1/Conv2d_0b_5x5/Conv2D_bn_offset", "op": "Const", "attr": {"dtype": {"type": "DT_FLOAT"}, "value": {"tensor": {"dtype": "DT_FLOAT", "tensorShape": {"dim": [{"size": "64"}]}}}}}, {"name": "module_apply_default/InceptionV3/InceptionV3/Mixed_5b/Branch_2/Conv2d_0b_3x3/Conv2D_weights", "op": "Const", "attr": {"value": {"tensor": {"dtype": "DT_FLOAT", "tensorShape": {"dim": [{"size": "3"}, {"size": "3"}, {"size": "64"}, {"size": "96"}]}}}, "dtype": {"type": "DT_FLOAT"}}}, {"name": "module_apply_default/InceptionV3/InceptionV3/Mixed_6e/Branch_2/Conv2d_0d_7x1/Conv2D_bn_offset", "op": "Const", "attr": {"value": {"tensor": {"dtype": "DT_FLOAT", "tensorShape": {"dim": [{"size": "192"}]}}}, "dtype": {"type": "DT_FLOAT"}}}, {"name": "module_apply_default/InceptionV3/InceptionV3/Mixed_5b/Branch_2/Conv2d_0b_3x3/Conv2D_bn_offset", "op": "Const", "attr": {"value": {"tensor": {"dtype": "DT_FLOAT", "tensorShape": {"dim": [{"size": "96"}]}}}, "dtype": {"type": "DT_FLOAT"}}}, {"name": "module_apply_default/InceptionV3/InceptionV3/Mixed_5b/Branch_2/Conv2d_0c_3x3/Conv2D_weights", "op": "Const", "attr": {"value": {"tensor": {"dtype": "DT_FLOAT", "tensorShape": {"dim": [{"size": "3"}, {"size": "3"}, {"size": "96"}, {"size": "96"}]}}}, "dtype": {"type": "DT_FLOAT"}}}, {"name": "module_apply_default/InceptionV3/InceptionV3/Mixed_5b/Branch_2/Conv2d_0c_3x3/Conv2D_bn_offset", "op": "Const", "attr": {"value": {"tensor": {"dtype": "DT_FLOAT", "tensorShape": {"dim": [{"size": "96"}]}}}, "dtype": {"type": "DT_FLOAT"}}}, {"name": "module_apply_default/InceptionV3/InceptionV3/Mixed_5c/Branch_0/Conv2d_0a_1x1/Conv2D_weights", "op": "Const", "attr": {"value": {"tensor": {"dtype": "DT_FLOAT", "tensorShape": {"dim": [{"size": "1"}, {"size": "1"}, {"size": "256"}, {"size": "64"}]}}}, "dtype": {"type": "DT_FLOAT"}}}, {"name": "module_apply_default/InceptionV3/InceptionV3/Mixed_6e/Branch_2/Conv2d_0e_1x7/Conv2D_weights", "op": "Const", "attr": {"value": {"tensor": {"dtype": "DT_FLOAT", "tensorShape": {"dim": [{"size": "1"}, {"size": "7"}, {"size": "192"}, {"size": "192"}]}}}, "dtype": {"type": "DT_FLOAT"}}}, {"name": "module_apply_default/InceptionV3/InceptionV3/Mixed_5c/Branch_0/Conv2d_0a_1x1/Conv2D_bn_offset", "op": "Const", "attr": {"value": {"tensor": {"dtype": "DT_FLOAT", "tensorShape": {"dim": [{"size": "64"}]}}}, "dtype": {"type": "DT_FLOAT"}}}, {"name": "module_apply_default/InceptionV3/InceptionV3/Mixed_5c/Branch_1/Conv2d_0b_1x1/Conv2D_weights", "op": "Const", "attr": {"dtype": {"type": "DT_FLOAT"}, "value": {"tensor": {"dtype": "DT_FLOAT", "tensorShape": {"dim": [{"size": "1"}, {"size": "1"}, {"size": "256"}, {"size": "48"}]}}}}}, {"name": "module_apply_default/InceptionV3/InceptionV3/Mixed_7c/Branch_0/Conv2d_0a_1x1/Conv2D_weights", "op": "Const", "attr": {"value": {"tensor": {"dtype": "DT_FLOAT", "tensorShape": {"dim": [{"size": "1"}, {"size": "1"}, {"size": "2048"}, {"size": "320"}]}}}, "dtype": {"type": "DT_FLOAT"}}}, {"name": "module_apply_default/InceptionV3/InceptionV3/Mixed_5c/Branch_1/Conv2d_0b_1x1/Conv2D_bn_offset", "op": "Const", "attr": {"dtype": {"type": "DT_FLOAT"}, "value": {"tensor": {"dtype": "DT_FLOAT", "tensorShape": {"dim": [{"size": "48"}]}}}}}, {"name": "module_apply_default/InceptionV3/InceptionV3/Mixed_6e/Branch_2/Conv2d_0e_1x7/Conv2D_bn_offset", "op": "Const", "attr": {"dtype": {"type": "DT_FLOAT"}, "value": {"tensor": {"dtype": "DT_FLOAT", "tensorShape": {"dim": [{"size": "192"}]}}}}}, {"name": "module_apply_default/InceptionV3/InceptionV3/Mixed_5c/Branch_2/Conv2d_0a_1x1/Conv2D_weights", "op": "Const", "attr": {"dtype": {"type": "DT_FLOAT"}, "value": {"tensor": {"dtype": "DT_FLOAT", "tensorShape": {"dim": [{"size": "1"}, {"size": "1"}, {"size": "256"}, {"size": "64"}]}}}}}, {"name": "module_apply_default/InceptionV3/InceptionV3/Mixed_5c/Branch_2/Conv2d_0a_1x1/Conv2D_bn_offset", "op": "Const", "attr": {"dtype": {"type": "DT_FLOAT"}, "value": {"tensor": {"dtype": "DT_FLOAT", "tensorShape": {"dim": [{"size": "64"}]}}}}}, {"name": "module_apply_default/InceptionV3/InceptionV3/Mixed_5c/Branch_3/Conv2d_0b_1x1/Conv2D_weights", "op": "Const", "attr": {"value": {"tensor": {"dtype": "DT_FLOAT", "tensorShape": {"dim": [{"size": "1"}, {"size": "1"}, {"size": "256"}, {"size": "64"}]}}}, "dtype": {"type": "DT_FLOAT"}}}, {"name": "module_apply_default/InceptionV3/InceptionV3/Mixed_5c/Branch_3/Conv2d_0b_1x1/Conv2D_bn_offset", "op": "Const", "attr": {"value": {"tensor": {"dtype": "DT_FLOAT", "tensorShape": {"dim": [{"size": "64"}]}}}, "dtype": {"type": "DT_FLOAT"}}}, {"name": "module_apply_default/InceptionV3/InceptionV3/Mixed_5c/Branch_1/Conv_1_0c_5x5/Conv2D_weights", "op": "Const", "attr": {"value": {"tensor": {"dtype": "DT_FLOAT", "tensorShape": {"dim": [{"size": "5"}, {"size": "5"}, {"size": "48"}, {"size": "64"}]}}}, "dtype": {"type": "DT_FLOAT"}}}, {"name": "module_apply_default/InceptionV3/InceptionV3/Mixed_5c/Branch_1/Conv_1_0c_5x5/Conv2D_bn_offset", "op": "Const", "attr": {"value": {"tensor": {"dtype": "DT_FLOAT", "tensorShape": {"dim": [{"size": "64"}]}}}, "dtype": {"type": "DT_FLOAT"}}}, {"name": "module_apply_default/InceptionV3/InceptionV3/Mixed_5c/Branch_2/Conv2d_0b_3x3/Conv2D_weights", "op": "Const", "attr": {"dtype": {"type": "DT_FLOAT"}, "value": {"tensor": {"dtype": "DT_FLOAT", "tensorShape": {"dim": [{"size": "3"}, {"size": "3"}, {"size": "64"}, {"size": "96"}]}}}}}, {"name": "module_apply_default/InceptionV3/InceptionV3/Mixed_7a/Branch_0/Conv2d_0a_1x1/Conv2D_weights", "op": "Const", "attr": {"value": {"tensor": {"dtype": "DT_FLOAT", "tensorShape": {"dim": [{"size": "1"}, {"size": "1"}, {"size": "768"}, {"size": "192"}]}}}, "dtype": {"type": "DT_FLOAT"}}}, {"name": "module_apply_default/InceptionV3/InceptionV3/Mixed_5c/Branch_2/Conv2d_0b_3x3/Conv2D_bn_offset", "op": "Const", "attr": {"dtype": {"type": "DT_FLOAT"}, "value": {"tensor": {"dtype": "DT_FLOAT", "tensorShape": {"dim": [{"size": "96"}]}}}}}, {"name": "module_apply_default/InceptionV3/InceptionV3/Mixed_5c/Branch_2/Conv2d_0c_3x3/Conv2D_weights", "op": "Const", "attr": {"dtype": {"type": "DT_FLOAT"}, "value": {"tensor": {"dtype": "DT_FLOAT", "tensorShape": {"dim": [{"size": "3"}, {"size": "3"}, {"size": "96"}, {"size": "96"}]}}}}}, {"name": "module_apply_default/InceptionV3/InceptionV3/Mixed_7a/Branch_0/Conv2d_0a_1x1/Conv2D_bn_offset", "op": "Const", "attr": {"dtype": {"type": "DT_FLOAT"}, "value": {"tensor": {"dtype": "DT_FLOAT", "tensorShape": {"dim": [{"size": "192"}]}}}}}, {"name": "module_apply_default/InceptionV3/InceptionV3/Mixed_5c/Branch_2/Conv2d_0c_3x3/Conv2D_bn_offset", "op": "Const", "attr": {"value": {"tensor": {"dtype": "DT_FLOAT", "tensorShape": {"dim": [{"size": "96"}]}}}, "dtype": {"type": "DT_FLOAT"}}}, {"name": "module_apply_default/InceptionV3/InceptionV3/Mixed_5d/Branch_0/Conv2d_0a_1x1/Conv2D_weights", "op": "Const", "attr": {"dtype": {"type": "DT_FLOAT"}, "value": {"tensor": {"dtype": "DT_FLOAT", "tensorShape": {"dim": [{"size": "1"}, {"size": "1"}, {"size": "288"}, {"size": "64"}]}}}}}, {"name": "module_apply_default/InceptionV3/InceptionV3/Mixed_7c/Branch_0/Conv2d_0a_1x1/Conv2D_bn_offset", "op": "Const", "attr": {"value": {"tensor": {"dtype": "DT_FLOAT", "tensorShape": {"dim": [{"size": "320"}]}}}, "dtype": {"type": "DT_FLOAT"}}}, {"name": "module_apply_default/InceptionV3/InceptionV3/Mixed_5d/Branch_0/Conv2d_0a_1x1/Conv2D_bn_offset", "op": "Const", "attr": {"value": {"tensor": {"dtype": "DT_FLOAT", "tensorShape": {"dim": [{"size": "64"}]}}}, "dtype": {"type": "DT_FLOAT"}}}, {"name": "module_apply_default/InceptionV3/InceptionV3/Mixed_5d/Branch_1/Conv2d_0a_1x1/Conv2D_weights", "op": "Const", "attr": {"value": {"tensor": {"dtype": "DT_FLOAT", "tensorShape": {"dim": [{"size": "1"}, {"size": "1"}, {"size": "288"}, {"size": "48"}]}}}, "dtype": {"type": "DT_FLOAT"}}}, {"name": "module_apply_default/InceptionV3/InceptionV3/Mixed_5d/Branch_1/Conv2d_0a_1x1/Conv2D_bn_offset", "op": "Const", "attr": {"value": {"tensor": {"dtype": "DT_FLOAT", "tensorShape": {"dim": [{"size": "48"}]}}}, "dtype": {"type": "DT_FLOAT"}}}, {"name": "module_apply_default/InceptionV3/InceptionV3/Mixed_7a/Branch_1/Conv2d_0a_1x1/Conv2D_weights", "op": "Const", "attr": {"value": {"tensor": {"dtype": "DT_FLOAT", "tensorShape": {"dim": [{"size": "1"}, {"size": "1"}, {"size": "768"}, {"size": "192"}]}}}, "dtype": {"type": "DT_FLOAT"}}}, {"name": "module_apply_default/InceptionV3/InceptionV3/Mixed_5d/Branch_2/Conv2d_0a_1x1/Conv2D_weights", "op": "Const", "attr": {"dtype": {"type": "DT_FLOAT"}, "value": {"tensor": {"dtype": "DT_FLOAT", "tensorShape": {"dim": [{"size": "1"}, {"size": "1"}, {"size": "288"}, {"size": "64"}]}}}}}, {"name": "module_apply_default/InceptionV3/InceptionV3/Mixed_5d/Branch_2/Conv2d_0a_1x1/Conv2D_bn_offset", "op": "Const", "attr": {"value": {"tensor": {"dtype": "DT_FLOAT", "tensorShape": {"dim": [{"size": "64"}]}}}, "dtype": {"type": "DT_FLOAT"}}}, {"name": "module_apply_default/InceptionV3/InceptionV3/Mixed_7a/Branch_1/Conv2d_0a_1x1/Conv2D_bn_offset", "op": "Const", "attr": {"dtype": {"type": "DT_FLOAT"}, "value": {"tensor": {"dtype": "DT_FLOAT", "tensorShape": {"dim": [{"size": "192"}]}}}}}, {"name": "module_apply_default/InceptionV3/InceptionV3/Mixed_5d/Branch_3/Conv2d_0b_1x1/Conv2D_weights", "op": "Const", "attr": {"value": {"tensor": {"dtype": "DT_FLOAT", "tensorShape": {"dim": [{"size": "1"}, {"size": "1"}, {"size": "288"}, {"size": "64"}]}}}, "dtype": {"type": "DT_FLOAT"}}}, {"name": "module_apply_default/InceptionV3/InceptionV3/Mixed_7c/Branch_3/Conv2d_0b_1x1/Conv2D_weights", "op": "Const", "attr": {"value": {"tensor": {"dtype": "DT_FLOAT", "tensorShape": {"dim": [{"size": "1"}, {"size": "1"}, {"size": "2048"}, {"size": "192"}]}}}, "dtype": {"type": "DT_FLOAT"}}}, {"name": "module_apply_default/InceptionV3/InceptionV3/Mixed_5d/Branch_3/Conv2d_0b_1x1/Conv2D_bn_offset", "op": "Const", "attr": {"value": {"tensor": {"dtype": "DT_FLOAT", "tensorShape": {"dim": [{"size": "64"}]}}}, "dtype": {"type": "DT_FLOAT"}}}, {"name": "module_apply_default/InceptionV3/InceptionV3/Mixed_5d/Branch_1/Conv2d_0b_5x5/Conv2D_weights", "op": "Const", "attr": {"dtype": {"type": "DT_FLOAT"}, "value": {"tensor": {"dtype": "DT_FLOAT", "tensorShape": {"dim": [{"size": "5"}, {"size": "5"}, {"size": "48"}, {"size": "64"}]}}}}}, {"name": "module_apply_default/InceptionV3/InceptionV3/Mixed_5d/Branch_1/Conv2d_0b_5x5/Conv2D_bn_offset", "op": "Const", "attr": {"value": {"tensor": {"dtype": "DT_FLOAT", "tensorShape": {"dim": [{"size": "64"}]}}}, "dtype": {"type": "DT_FLOAT"}}}, {"name": "module_apply_default/InceptionV3/InceptionV3/Mixed_5d/Branch_2/Conv2d_0b_3x3/Conv2D_weights", "op": "Const", "attr": {"value": {"tensor": {"dtype": "DT_FLOAT", "tensorShape": {"dim": [{"size": "3"}, {"size": "3"}, {"size": "64"}, {"size": "96"}]}}}, "dtype": {"type": "DT_FLOAT"}}}, {"name": "module_apply_default/InceptionV3/InceptionV3/Mixed_7a/Branch_0/Conv2d_1a_3x3/Conv2D_weights", "op": "Const", "attr": {"value": {"tensor": {"dtype": "DT_FLOAT", "tensorShape": {"dim": [{"size": "3"}, {"size": "3"}, {"size": "192"}, {"size": "320"}]}}}, "dtype": {"type": "DT_FLOAT"}}}, {"name": "module_apply_default/InceptionV3/InceptionV3/Mixed_5d/Branch_2/Conv2d_0b_3x3/Conv2D_bn_offset", "op": "Const", "attr": {"value": {"tensor": {"dtype": "DT_FLOAT", "tensorShape": {"dim": [{"size": "96"}]}}}, "dtype": {"type": "DT_FLOAT"}}}, {"name": "module_apply_default/InceptionV3/InceptionV3/Mixed_5d/Branch_2/Conv2d_0c_3x3/Conv2D_weights", "op": "Const", "attr": {"dtype": {"type": "DT_FLOAT"}, "value": {"tensor": {"dtype": "DT_FLOAT", "tensorShape": {"dim": [{"size": "3"}, {"size": "3"}, {"size": "96"}, {"size": "96"}]}}}}}, {"name": "module_apply_default/InceptionV3/InceptionV3/Mixed_7a/Branch_0/Conv2d_1a_3x3/Conv2D_bn_offset", "op": "Const", "attr": {"value": {"tensor": {"dtype": "DT_FLOAT", "tensorShape": {"dim": [{"size": "320"}]}}}, "dtype": {"type": "DT_FLOAT"}}}, {"name": "module_apply_default/InceptionV3/InceptionV3/Mixed_5d/Branch_2/Conv2d_0c_3x3/Conv2D_bn_offset", "op": "Const", "attr": {"value": {"tensor": {"dtype": "DT_FLOAT", "tensorShape": {"dim": [{"size": "96"}]}}}, "dtype": {"type": "DT_FLOAT"}}}, {"name": "module_apply_default/InceptionV3/InceptionV3/Mixed_6a/Branch_0/Conv2d_1a_1x1/Conv2D_weights", "op": "Const", "attr": {"dtype": {"type": "DT_FLOAT"}, "value": {"tensor": {"dtype": "DT_FLOAT", "tensorShape": {"dim": [{"size": "3"}, {"size": "3"}, {"size": "288"}, {"size": "384"}]}}}}}, {"name": "module_apply_default/InceptionV3/InceptionV3/Mixed_7c/Branch_3/Conv2d_0b_1x1/Conv2D_bn_offset", "op": "Const", "attr": {"value": {"tensor": {"dtype": "DT_FLOAT", "tensorShape": {"dim": [{"size": "192"}]}}}, "dtype": {"type": "DT_FLOAT"}}}, {"name": "module_apply_default/InceptionV3/InceptionV3/Mixed_6a/Branch_0/Conv2d_1a_1x1/Conv2D_bn_offset", "op": "Const", "attr": {"value": {"tensor": {"dtype": "DT_FLOAT", "tensorShape": {"dim": [{"size": "384"}]}}}, "dtype": {"type": "DT_FLOAT"}}}, {"name": "module_apply_default/InceptionV3/InceptionV3/Mixed_6a/Branch_1/Conv2d_0a_1x1/Conv2D_weights", "op": "Const", "attr": {"value": {"tensor": {"dtype": "DT_FLOAT", "tensorShape": {"dim": [{"size": "1"}, {"size": "1"}, {"size": "288"}, {"size": "64"}]}}}, "dtype": {"type": "DT_FLOAT"}}}, {"name": "module_apply_default/InceptionV3/InceptionV3/Mixed_7a/Branch_1/Conv2d_0b_1x7/Conv2D_weights", "op": "Const", "attr": {"value": {"tensor": {"dtype": "DT_FLOAT", "tensorShape": {"dim": [{"size": "1"}, {"size": "7"}, {"size": "192"}, {"size": "192"}]}}}, "dtype": {"type": "DT_FLOAT"}}}, {"name": "module_apply_default/InceptionV3/InceptionV3/Mixed_6a/Branch_1/Conv2d_0a_1x1/Conv2D_bn_offset", "op": "Const", "attr": {"value": {"tensor": {"dtype": "DT_FLOAT", "tensorShape": {"dim": [{"size": "64"}]}}}, "dtype": {"type": "DT_FLOAT"}}}, {"name": "module_apply_default/InceptionV3/InceptionV3/Mixed_6a/Branch_1/Conv2d_0b_3x3/Conv2D_weights", "op": "Const", "attr": {"value": {"tensor": {"dtype": "DT_FLOAT", "tensorShape": {"dim": [{"size": "3"}, {"size": "3"}, {"size": "64"}, {"size": "96"}]}}}, "dtype": {"type": "DT_FLOAT"}}}, {"name": "module_apply_default/InceptionV3/InceptionV3/Mixed_7a/Branch_1/Conv2d_0b_1x7/Conv2D_bn_offset", "op": "Const", "attr": {"value": {"tensor": {"dtype": "DT_FLOAT", "tensorShape": {"dim": [{"size": "192"}]}}}, "dtype": {"type": "DT_FLOAT"}}}, {"name": "module_apply_default/InceptionV3/InceptionV3/Mixed_6a/Branch_1/Conv2d_0b_3x3/Conv2D_bn_offset", "op": "Const", "attr": {"value": {"tensor": {"dtype": "DT_FLOAT", "tensorShape": {"dim": [{"size": "96"}]}}}, "dtype": {"type": "DT_FLOAT"}}}, {"name": "module_apply_default/InceptionV3/InceptionV3/Mixed_7c/Branch_1/Conv2d_0b_1x3/Conv2D_weights", "op": "Const", "attr": {"dtype": {"type": "DT_FLOAT"}, "value": {"tensor": {"dtype": "DT_FLOAT", "tensorShape": {"dim": [{"size": "1"}, {"size": "3"}, {"size": "384"}, {"size": "384"}]}}}}}, {"name": "module_apply_default/InceptionV3/InceptionV3/Mixed_6a/Branch_1/Conv2d_1a_1x1/Conv2D_weights", "op": "Const", "attr": {"value": {"tensor": {"dtype": "DT_FLOAT", "tensorShape": {"dim": [{"size": "3"}, {"size": "3"}, {"size": "96"}, {"size": "96"}]}}}, "dtype": {"type": "DT_FLOAT"}}}, {"name": "module_apply_default/InceptionV3/InceptionV3/Mixed_6a/Branch_1/Conv2d_1a_1x1/Conv2D_bn_offset", "op": "Const", "attr": {"value": {"tensor": {"dtype": "DT_FLOAT", "tensorShape": {"dim": [{"size": "96"}]}}}, "dtype": {"type": "DT_FLOAT"}}}, {"name": "module_apply_default/InceptionV3/InceptionV3/Mixed_7a/Branch_1/Conv2d_0c_7x1/Conv2D_weights", "op": "Const", "attr": {"value": {"tensor": {"dtype": "DT_FLOAT", "tensorShape": {"dim": [{"size": "7"}, {"size": "1"}, {"size": "192"}, {"size": "192"}]}}}, "dtype": {"type": "DT_FLOAT"}}}, {"name": "module_apply_default/InceptionV3/InceptionV3/Mixed_6b/Branch_0/Conv2d_0a_1x1/Conv2D_weights", "op": "Const", "attr": {"value": {"tensor": {"dtype": "DT_FLOAT", "tensorShape": {"dim": [{"size": "1"}, {"size": "1"}, {"size": "768"}, {"size": "192"}]}}}, "dtype": {"type": "DT_FLOAT"}}}, {"name": "module_apply_default/InceptionV3/InceptionV3/Mixed_6b/Branch_0/Conv2d_0a_1x1/Conv2D_bn_offset", "op": "Const", "attr": {"dtype": {"type": "DT_FLOAT"}, "value": {"tensor": {"dtype": "DT_FLOAT", "tensorShape": {"dim": [{"size": "192"}]}}}}}, {"name": "module_apply_default/InceptionV3/InceptionV3/Mixed_6b/Branch_1/Conv2d_0a_1x1/Conv2D_weights", "op": "Const", "attr": {"value": {"tensor": {"dtype": "DT_FLOAT", "tensorShape": {"dim": [{"size": "1"}, {"size": "1"}, {"size": "768"}, {"size": "128"}]}}}, "dtype": {"type": "DT_FLOAT"}}}, {"name": "module_apply_default/InceptionV3/InceptionV3/Mixed_7a/Branch_1/Conv2d_0c_7x1/Conv2D_bn_offset", "op": "Const", "attr": {"value": {"tensor": {"dtype": "DT_FLOAT", "tensorShape": {"dim": [{"size": "192"}]}}}, "dtype": {"type": "DT_FLOAT"}}}, {"name": "module_apply_default/InceptionV3/InceptionV3/Mixed_6b/Branch_1/Conv2d_0a_1x1/Conv2D_bn_offset", "op": "Const", "attr": {"value": {"tensor": {"dtype": "DT_FLOAT", "tensorShape": {"dim": [{"size": "128"}]}}}, "dtype": {"type": "DT_FLOAT"}}}, {"name": "module_apply_default/InceptionV3/InceptionV3/Mixed_7c/Branch_1/Conv2d_0b_1x3/Conv2D_bn_offset", "op": "Const", "attr": {"value": {"tensor": {"dtype": "DT_FLOAT", "tensorShape": {"dim": [{"size": "384"}]}}}, "dtype": {"type": "DT_FLOAT"}}}, {"name": "module_apply_default/InceptionV3/InceptionV3/Mixed_6b/Branch_2/Conv2d_0a_1x1/Conv2D_weights", "op": "Const", "attr": {"dtype": {"type": "DT_FLOAT"}, "value": {"tensor": {"dtype": "DT_FLOAT", "tensorShape": {"dim": [{"size": "1"}, {"size": "1"}, {"size": "768"}, {"size": "128"}]}}}}}, {"name": "module_apply_default/InceptionV3/InceptionV3/Mixed_6b/Branch_2/Conv2d_0a_1x1/Conv2D_bn_offset", "op": "Const", "attr": {"value": {"tensor": {"dtype": "DT_FLOAT", "tensorShape": {"dim": [{"size": "128"}]}}}, "dtype": {"type": "DT_FLOAT"}}}, {"name": "module_apply_default/InceptionV3/InceptionV3/Mixed_7a/Branch_1/Conv2d_1a_3x3/Conv2D_weights", "op": "Const", "attr": {"value": {"tensor": {"dtype": "DT_FLOAT", "tensorShape": {"dim": [{"size": "3"}, {"size": "3"}, {"size": "192"}, {"size": "192"}]}}}, "dtype": {"type": "DT_FLOAT"}}}, {"name": "module_apply_default/InceptionV3/InceptionV3/Mixed_6b/Branch_3/Conv2d_0b_1x1/Conv2D_weights", "op": "Const", "attr": {"value": {"tensor": {"dtype": "DT_FLOAT", "tensorShape": {"dim": [{"size": "1"}, {"size": "1"}, {"size": "768"}, {"size": "192"}]}}}, "dtype": {"type": "DT_FLOAT"}}}, {"name": "module_apply_default/InceptionV3/InceptionV3/Mixed_6b/Branch_3/Conv2d_0b_1x1/Conv2D_bn_offset", "op": "Const", "attr": {"value": {"tensor": {"dtype": "DT_FLOAT", "tensorShape": {"dim": [{"size": "192"}]}}}, "dtype": {"type": "DT_FLOAT"}}}, {"name": "module_apply_default/InceptionV3/InceptionV3/Mixed_6b/Branch_1/Conv2d_0b_1x7/Conv2D_weights", "op": "Const", "attr": {"value": {"tensor": {"dtype": "DT_FLOAT", "tensorShape": {"dim": [{"size": "1"}, {"size": "7"}, {"size": "128"}, {"size": "128"}]}}}, "dtype": {"type": "DT_FLOAT"}}}, {"name": "module_apply_default/InceptionV3/InceptionV3/Mixed_7a/Branch_1/Conv2d_1a_3x3/Conv2D_bn_offset", "op": "Const", "attr": {"value": {"tensor": {"dtype": "DT_FLOAT", "tensorShape": {"dim": [{"size": "192"}]}}}, "dtype": {"type": "DT_FLOAT"}}}, {"name": "module_apply_default/InceptionV3/InceptionV3/Mixed_6b/Branch_1/Conv2d_0b_1x7/Conv2D_bn_offset", "op": "Const", "attr": {"dtype": {"type": "DT_FLOAT"}, "value": {"tensor": {"dtype": "DT_FLOAT", "tensorShape": {"dim": [{"size": "128"}]}}}}}, {"name": "module_apply_default/InceptionV3/InceptionV3/Mixed_7c/Branch_1/Conv2d_0c_3x1/Conv2D_weights", "op": "Const", "attr": {"value": {"tensor": {"dtype": "DT_FLOAT", "tensorShape": {"dim": [{"size": "3"}, {"size": "1"}, {"size": "384"}, {"size": "384"}]}}}, "dtype": {"type": "DT_FLOAT"}}}, {"name": "module_apply_default/InceptionV3/InceptionV3/Mixed_6b/Branch_2/Conv2d_0b_7x1/Conv2D_weights", "op": "Const", "attr": {"value": {"tensor": {"dtype": "DT_FLOAT", "tensorShape": {"dim": [{"size": "7"}, {"size": "1"}, {"size": "128"}, {"size": "128"}]}}}, "dtype": {"type": "DT_FLOAT"}}}, {"name": "module_apply_default/InceptionV3/InceptionV3/Mixed_6b/Branch_2/Conv2d_0b_7x1/Conv2D_bn_offset", "op": "Const", "attr": {"value": {"tensor": {"dtype": "DT_FLOAT", "tensorShape": {"dim": [{"size": "128"}]}}}, "dtype": {"type": "DT_FLOAT"}}}, {"name": "module_apply_default/InceptionV3/InceptionV3/Mixed_6b/Branch_1/Conv2d_0c_7x1/Conv2D_weights", "op": "Const", "attr": {"value": {"tensor": {"dtype": "DT_FLOAT", "tensorShape": {"dim": [{"size": "7"}, {"size": "1"}, {"size": "128"}, {"size": "192"}]}}}, "dtype": {"type": "DT_FLOAT"}}}, {"name": "module_apply_default/InceptionV3/InceptionV3/Mixed_6b/Branch_1/Conv2d_0c_7x1/Conv2D_bn_offset", "op": "Const", "attr": {"dtype": {"type": "DT_FLOAT"}, "value": {"tensor": {"dtype": "DT_FLOAT", "tensorShape": {"dim": [{"size": "192"}]}}}}}, {"name": "module_apply_default/InceptionV3/InceptionV3/Mixed_6b/Branch_2/Conv2d_0c_1x7/Conv2D_weights", "op": "Const", "attr": {"value": {"tensor": {"dtype": "DT_FLOAT", "tensorShape": {"dim": [{"size": "1"}, {"size": "7"}, {"size": "128"}, {"size": "128"}]}}}, "dtype": {"type": "DT_FLOAT"}}}, {"name": "module_apply_default/InceptionV3/InceptionV3/Mixed_7b/Branch_0/Conv2d_0a_1x1/Conv2D_weights", "op": "Const", "attr": {"value": {"tensor": {"dtype": "DT_FLOAT", "tensorShape": {"dim": [{"size": "1"}, {"size": "1"}, {"size": "1280"}, {"size": "320"}]}}}, "dtype": {"type": "DT_FLOAT"}}}, {"name": "module_apply_default/InceptionV3/InceptionV3/Mixed_6b/Branch_2/Conv2d_0c_1x7/Conv2D_bn_offset", "op": "Const", "attr": {"value": {"tensor": {"dtype": "DT_FLOAT", "tensorShape": {"dim": [{"size": "128"}]}}}, "dtype": {"type": "DT_FLOAT"}}}, {"name": "module_apply_default/InceptionV3/InceptionV3/Mixed_6b/Branch_2/Conv2d_0d_7x1/Conv2D_weights", "op": "Const", "attr": {"value": {"tensor": {"dtype": "DT_FLOAT", "tensorShape": {"dim": [{"size": "7"}, {"size": "1"}, {"size": "128"}, {"size": "128"}]}}}, "dtype": {"type": "DT_FLOAT"}}}, {"name": "module_apply_default/InceptionV3/InceptionV3/Mixed_7b/Branch_0/Conv2d_0a_1x1/Conv2D_bn_offset", "op": "Const", "attr": {"dtype": {"type": "DT_FLOAT"}, "value": {"tensor": {"dtype": "DT_FLOAT", "tensorShape": {"dim": [{"size": "320"}]}}}}}, {"name": "module_apply_default/InceptionV3/InceptionV3/Mixed_6b/Branch_2/Conv2d_0d_7x1/Conv2D_bn_offset", "op": "Const", "attr": {"value": {"tensor": {"dtype": "DT_FLOAT", "tensorShape": {"dim": [{"size": "128"}]}}}, "dtype": {"type": "DT_FLOAT"}}}, {"name": "module_apply_default/InceptionV3/InceptionV3/Mixed_6b/Branch_2/Conv2d_0e_1x7/Conv2D_weights", "op": "Const", "attr": {"value": {"tensor": {"dtype": "DT_FLOAT", "tensorShape": {"dim": [{"size": "1"}, {"size": "7"}, {"size": "128"}, {"size": "192"}]}}}, "dtype": {"type": "DT_FLOAT"}}}, {"name": "module_apply_default/InceptionV3/InceptionV3/Mixed_7b/Branch_1/Conv2d_0a_1x1/Conv2D_weights", "op": "Const", "attr": {"value": {"tensor": {"dtype": "DT_FLOAT", "tensorShape": {"dim": [{"size": "1"}, {"size": "1"}, {"size": "1280"}, {"size": "384"}]}}}, "dtype": {"type": "DT_FLOAT"}}}, {"name": "module_apply_default/InceptionV3/InceptionV3/Mixed_6b/Branch_2/Conv2d_0e_1x7/Conv2D_bn_offset", "op": "Const", "attr": {"value": {"tensor": {"dtype": "DT_FLOAT", "tensorShape": {"dim": [{"size": "192"}]}}}, "dtype": {"type": "DT_FLOAT"}}}, {"name": "module_apply_default/InceptionV3/InceptionV3/Mixed_6c/Branch_0/Conv2d_0a_1x1/Conv2D_weights", "op": "Const", "attr": {"value": {"tensor": {"dtype": "DT_FLOAT", "tensorShape": {"dim": [{"size": "1"}, {"size": "1"}, {"size": "768"}, {"size": "192"}]}}}, "dtype": {"type": "DT_FLOAT"}}}, {"name": "module_apply_default/InceptionV3/InceptionV3/Mixed_7c/Branch_1/Conv2d_0c_3x1/Conv2D_bn_offset", "op": "Const", "attr": {"value": {"tensor": {"dtype": "DT_FLOAT", "tensorShape": {"dim": [{"size": "384"}]}}}, "dtype": {"type": "DT_FLOAT"}}}, {"name": "module_apply_default/InceptionV3/InceptionV3/Mixed_6c/Branch_0/Conv2d_0a_1x1/Conv2D_bn_offset", "op": "Const", "attr": {"value": {"tensor": {"dtype": "DT_FLOAT", "tensorShape": {"dim": [{"size": "192"}]}}}, "dtype": {"type": "DT_FLOAT"}}}, {"name": "module_apply_default/InceptionV3/InceptionV3/Mixed_6c/Branch_1/Conv2d_0a_1x1/Conv2D_weights", "op": "Const", "attr": {"dtype": {"type": "DT_FLOAT"}, "value": {"tensor": {"dtype": "DT_FLOAT", "tensorShape": {"dim": [{"size": "1"}, {"size": "1"}, {"size": "768"}, {"size": "160"}]}}}}}, {"name": "module_apply_default/InceptionV3/InceptionV3/Mixed_7b/Branch_1/Conv2d_0a_1x1/Conv2D_bn_offset", "op": "Const", "attr": {"value": {"tensor": {"dtype": "DT_FLOAT", "tensorShape": {"dim": [{"size": "384"}]}}}, "dtype": {"type": "DT_FLOAT"}}}, {"name": "module_apply_default/InceptionV3/InceptionV3/Mixed_6c/Branch_1/Conv2d_0a_1x1/Conv2D_bn_offset", "op": "Const", "attr": {"value": {"tensor": {"dtype": "DT_FLOAT", "tensorShape": {"dim": [{"size": "160"}]}}}, "dtype": {"type": "DT_FLOAT"}}}, {"name": "module_apply_default/InceptionV3/InceptionV3/Mixed_6c/Branch_2/Conv2d_0a_1x1/Conv2D_weights", "op": "Const", "attr": {"value": {"tensor": {"dtype": "DT_FLOAT", "tensorShape": {"dim": [{"size": "1"}, {"size": "1"}, {"size": "768"}, {"size": "160"}]}}}, "dtype": {"type": "DT_FLOAT"}}}, {"name": "module_apply_default/InceptionV3/InceptionV3/Mixed_6c/Branch_2/Conv2d_0a_1x1/Conv2D_bn_offset", "op": "Const", "attr": {"value": {"tensor": {"dtype": "DT_FLOAT", "tensorShape": {"dim": [{"size": "160"}]}}}, "dtype": {"type": "DT_FLOAT"}}}, {"name": "module_apply_default/InceptionV3/InceptionV3/Mixed_7b/Branch_2/Conv2d_0a_1x1/Conv2D_weights", "op": "Const", "attr": {"value": {"tensor": {"dtype": "DT_FLOAT", "tensorShape": {"dim": [{"size": "1"}, {"size": "1"}, {"size": "1280"}, {"size": "448"}]}}}, "dtype": {"type": "DT_FLOAT"}}}, {"name": "module_apply_default/InceptionV3/InceptionV3/Mixed_6c/Branch_3/Conv2d_0b_1x1/Conv2D_weights", "op": "Const", "attr": {"value": {"tensor": {"dtype": "DT_FLOAT", "tensorShape": {"dim": [{"size": "1"}, {"size": "1"}, {"size": "768"}, {"size": "192"}]}}}, "dtype": {"type": "DT_FLOAT"}}}, {"name": "module_apply_default/InceptionV3/InceptionV3/Mixed_7c/Branch_2/Conv2d_0b_3x3/Conv2D_weights", "op": "Const", "attr": {"dtype": {"type": "DT_FLOAT"}, "value": {"tensor": {"dtype": "DT_FLOAT", "tensorShape": {"dim": [{"size": "3"}, {"size": "3"}, {"size": "448"}, {"size": "384"}]}}}}}, {"name": "module_apply_default/InceptionV3/InceptionV3/Mixed_6c/Branch_3/Conv2d_0b_1x1/Conv2D_bn_offset", "op": "Const", "attr": {"value": {"tensor": {"dtype": "DT_FLOAT", "tensorShape": {"dim": [{"size": "192"}]}}}, "dtype": {"type": "DT_FLOAT"}}}, {"name": "module_apply_default/InceptionV3/InceptionV3/Mixed_6c/Branch_1/Conv2d_0b_1x7/Conv2D_weights", "op": "Const", "attr": {"dtype": {"type": "DT_FLOAT"}, "value": {"tensor": {"dtype": "DT_FLOAT", "tensorShape": {"dim": [{"size": "1"}, {"size": "7"}, {"size": "160"}, {"size": "160"}]}}}}}, {"name": "module_apply_default/InceptionV3/InceptionV3/Mixed_7b/Branch_2/Conv2d_0a_1x1/Conv2D_bn_offset", "op": "Const", "attr": {"dtype": {"type": "DT_FLOAT"}, "value": {"tensor": {"dtype": "DT_FLOAT", "tensorShape": {"dim": [{"size": "448"}]}}}}}, {"name": "module_apply_default/InceptionV3/InceptionV3/Mixed_6c/Branch_1/Conv2d_0b_1x7/Conv2D_bn_offset", "op": "Const", "attr": {"dtype": {"type": "DT_FLOAT"}, "value": {"tensor": {"dtype": "DT_FLOAT", "tensorShape": {"dim": [{"size": "160"}]}}}}}, {"name": "module_apply_default/InceptionV3/InceptionV3/Mixed_6c/Branch_2/Conv2d_0b_7x1/Conv2D_weights", "op": "Const", "attr": {"value": {"tensor": {"dtype": "DT_FLOAT", "tensorShape": {"dim": [{"size": "7"}, {"size": "1"}, {"size": "160"}, {"size": "160"}]}}}, "dtype": {"type": "DT_FLOAT"}}}, {"name": "module_apply_default/InceptionV3/InceptionV3/Mixed_6c/Branch_2/Conv2d_0b_7x1/Conv2D_bn_offset", "op": "Const", "attr": {"value": {"tensor": {"dtype": "DT_FLOAT", "tensorShape": {"dim": [{"size": "160"}]}}}, "dtype": {"type": "DT_FLOAT"}}}, {"name": "module_apply_default/InceptionV3/InceptionV3/Mixed_7b/Branch_3/Conv2d_0b_1x1/Conv2D_weights", "op": "Const", "attr": {"dtype": {"type": "DT_FLOAT"}, "value": {"tensor": {"dtype": "DT_FLOAT", "tensorShape": {"dim": [{"size": "1"}, {"size": "1"}, {"size": "1280"}, {"size": "192"}]}}}}}, {"name": "module_apply_default/InceptionV3/InceptionV3/Mixed_6c/Branch_1/Conv2d_0c_7x1/Conv2D_weights", "op": "Const", "attr": {"dtype": {"type": "DT_FLOAT"}, "value": {"tensor": {"dtype": "DT_FLOAT", "tensorShape": {"dim": [{"size": "7"}, {"size": "1"}, {"size": "160"}, {"size": "192"}]}}}}}, {"name": "module_apply_default/InceptionV3/InceptionV3/Mixed_7c/Branch_2/Conv2d_0b_3x3/Conv2D_bn_offset", "op": "Const", "attr": {"value": {"tensor": {"dtype": "DT_FLOAT", "tensorShape": {"dim": [{"size": "384"}]}}}, "dtype": {"type": "DT_FLOAT"}}}, {"name": "module_apply_default/InceptionV3/InceptionV3/Mixed_6c/Branch_1/Conv2d_0c_7x1/Conv2D_bn_offset", "op": "Const", "attr": {"dtype": {"type": "DT_FLOAT"}, "value": {"tensor": {"dtype": "DT_FLOAT", "tensorShape": {"dim": [{"size": "192"}]}}}}}, {"name": "module_apply_default/InceptionV3/InceptionV3/Mixed_6c/Branch_2/Conv2d_0c_1x7/Conv2D_weights", "op": "Const", "attr": {"dtype": {"type": "DT_FLOAT"}, "value": {"tensor": {"dtype": "DT_FLOAT", "tensorShape": {"dim": [{"size": "1"}, {"size": "7"}, {"size": "160"}, {"size": "160"}]}}}}}, {"name": "module_apply_default/InceptionV3/InceptionV3/Mixed_7b/Branch_3/Conv2d_0b_1x1/Conv2D_bn_offset", "op": "Const", "attr": {"value": {"tensor": {"dtype": "DT_FLOAT", "tensorShape": {"dim": [{"size": "192"}]}}}, "dtype": {"type": "DT_FLOAT"}}}, {"name": "module_apply_default/InceptionV3/InceptionV3/Mixed_6c/Branch_2/Conv2d_0c_1x7/Conv2D_bn_offset", "op": "Const", "attr": {"value": {"tensor": {"dtype": "DT_FLOAT", "tensorShape": {"dim": [{"size": "160"}]}}}, "dtype": {"type": "DT_FLOAT"}}}, {"name": "module_apply_default/InceptionV3/InceptionV3/Mixed_6c/Branch_2/Conv2d_0d_7x1/Conv2D_weights", "op": "Const", "attr": {"value": {"tensor": {"dtype": "DT_FLOAT", "tensorShape": {"dim": [{"size": "7"}, {"size": "1"}, {"size": "160"}, {"size": "160"}]}}}, "dtype": {"type": "DT_FLOAT"}}}, {"name": "module_apply_default/InceptionV3/InceptionV3/Mixed_7b/Branch_1/Conv2d_0b_1x3/Conv2D_weights", "op": "Const", "attr": {"value": {"tensor": {"dtype": "DT_FLOAT", "tensorShape": {"dim": [{"size": "1"}, {"size": "3"}, {"size": "384"}, {"size": "384"}]}}}, "dtype": {"type": "DT_FLOAT"}}}, {"name": "module_apply_default/InceptionV3/InceptionV3/Mixed_6c/Branch_2/Conv2d_0d_7x1/Conv2D_bn_offset", "op": "Const", "attr": {"value": {"tensor": {"dtype": "DT_FLOAT", "tensorShape": {"dim": [{"size": "160"}]}}}, "dtype": {"type": "DT_FLOAT"}}}, {"name": "module_apply_default/InceptionV3/InceptionV3/Mixed_6c/Branch_2/Conv2d_0e_1x7/Conv2D_weights", "op": "Const", "attr": {"value": {"tensor": {"dtype": "DT_FLOAT", "tensorShape": {"dim": [{"size": "1"}, {"size": "7"}, {"size": "160"}, {"size": "192"}]}}}, "dtype": {"type": "DT_FLOAT"}}}, {"name": "module_apply_default/InceptionV3/InceptionV3/Mixed_7b/Branch_1/Conv2d_0b_1x3/Conv2D_bn_offset", "op": "Const", "attr": {"value": {"tensor": {"dtype": "DT_FLOAT", "tensorShape": {"dim": [{"size": "384"}]}}}, "dtype": {"type": "DT_FLOAT"}}}, {"name": "module_apply_default/InceptionV3/InceptionV3/Mixed_6c/Branch_2/Conv2d_0e_1x7/Conv2D_bn_offset", "op": "Const", "attr": {"dtype": {"type": "DT_FLOAT"}, "value": {"tensor": {"dtype": "DT_FLOAT", "tensorShape": {"dim": [{"size": "192"}]}}}}}, {"name": "module_apply_default/InceptionV3/InceptionV3/Mixed_6d/Branch_0/Conv2d_0a_1x1/Conv2D_weights", "op": "Const", "attr": {"value": {"tensor": {"dtype": "DT_FLOAT", "tensorShape": {"dim": [{"size": "1"}, {"size": "1"}, {"size": "768"}, {"size": "192"}]}}}, "dtype": {"type": "DT_FLOAT"}}}, {"name": "module_apply_default/InceptionV3/InceptionV3/Mixed_6d/Branch_0/Conv2d_0a_1x1/Conv2D_bn_offset", "op": "Const", "attr": {"value": {"tensor": {"dtype": "DT_FLOAT", "tensorShape": {"dim": [{"size": "192"}]}}}, "dtype": {"type": "DT_FLOAT"}}}, {"name": "module_apply_default/InceptionV3/InceptionV3/Mixed_6d/Branch_1/Conv2d_0a_1x1/Conv2D_weights", "op": "Const", "attr": {"value": {"tensor": {"dtype": "DT_FLOAT", "tensorShape": {"dim": [{"size": "1"}, {"size": "1"}, {"size": "768"}, {"size": "160"}]}}}, "dtype": {"type": "DT_FLOAT"}}}, {"name": "module_apply_default/InceptionV3/InceptionV3/Mixed_7b/Branch_1/Conv2d_0b_3x1/Conv2D_weights", "op": "Const", "attr": {"dtype": {"type": "DT_FLOAT"}, "value": {"tensor": {"dtype": "DT_FLOAT", "tensorShape": {"dim": [{"size": "3"}, {"size": "1"}, {"size": "384"}, {"size": "384"}]}}}}}, {"name": "module_apply_default/InceptionV3/InceptionV3/Mixed_6d/Branch_1/Conv2d_0a_1x1/Conv2D_bn_offset", "op": "Const", "attr": {"dtype": {"type": "DT_FLOAT"}, "value": {"tensor": {"dtype": "DT_FLOAT", "tensorShape": {"dim": [{"size": "160"}]}}}}}, {"name": "module_apply_default/InceptionV3/InceptionV3/Mixed_6d/Branch_2/Conv2d_0a_1x1/Conv2D_weights", "op": "Const", "attr": {"value": {"tensor": {"dtype": "DT_FLOAT", "tensorShape": {"dim": [{"size": "1"}, {"size": "1"}, {"size": "768"}, {"size": "160"}]}}}, "dtype": {"type": "DT_FLOAT"}}}, {"name": "module_apply_default/InceptionV3/InceptionV3/Mixed_7b/Branch_1/Conv2d_0b_3x1/Conv2D_bn_offset", "op": "Const", "attr": {"dtype": {"type": "DT_FLOAT"}, "value": {"tensor": {"dtype": "DT_FLOAT", "tensorShape": {"dim": [{"size": "384"}]}}}}}, {"name": "module_apply_default/InceptionV3/InceptionV3/Mixed_6d/Branch_2/Conv2d_0a_1x1/Conv2D_bn_offset", "op": "Const", "attr": {"value": {"tensor": {"dtype": "DT_FLOAT", "tensorShape": {"dim": [{"size": "160"}]}}}, "dtype": {"type": "DT_FLOAT"}}}, {"name": "module_apply_default/InceptionV3/InceptionV3/Mixed_6d/Branch_3/Conv2d_0b_1x1/Conv2D_weights", "op": "Const", "attr": {"value": {"tensor": {"dtype": "DT_FLOAT", "tensorShape": {"dim": [{"size": "1"}, {"size": "1"}, {"size": "768"}, {"size": "192"}]}}}, "dtype": {"type": "DT_FLOAT"}}}, {"name": "module_apply_default/InceptionV3/InceptionV3/Mixed_7b/Branch_2/Conv2d_0b_3x3/Conv2D_weights", "op": "Const", "attr": {"dtype": {"type": "DT_FLOAT"}, "value": {"tensor": {"dtype": "DT_FLOAT", "tensorShape": {"dim": [{"size": "3"}, {"size": "3"}, {"size": "448"}, {"size": "384"}]}}}}}, {"name": "module_apply_default/InceptionV3/InceptionV3/Mixed_6d/Branch_3/Conv2d_0b_1x1/Conv2D_bn_offset", "op": "Const", "attr": {"value": {"tensor": {"dtype": "DT_FLOAT", "tensorShape": {"dim": [{"size": "192"}]}}}, "dtype": {"type": "DT_FLOAT"}}}, {"name": "module_apply_default/InceptionV3/InceptionV3/Mixed_6d/Branch_1/Conv2d_0b_1x7/Conv2D_weights", "op": "Const", "attr": {"value": {"tensor": {"dtype": "DT_FLOAT", "tensorShape": {"dim": [{"size": "1"}, {"size": "7"}, {"size": "160"}, {"size": "160"}]}}}, "dtype": {"type": "DT_FLOAT"}}}, {"name": "module_apply_default/InceptionV3/InceptionV3/Mixed_7c/Branch_2/Conv2d_0c_1x3/Conv2D_weights", "op": "Const", "attr": {"value": {"tensor": {"dtype": "DT_FLOAT", "tensorShape": {"dim": [{"size": "1"}, {"size": "3"}, {"size": "384"}, {"size": "384"}]}}}, "dtype": {"type": "DT_FLOAT"}}}, {"name": "module_apply_default/InceptionV3/InceptionV3/Mixed_6d/Branch_1/Conv2d_0b_1x7/Conv2D_bn_offset", "op": "Const", "attr": {"value": {"tensor": {"dtype": "DT_FLOAT", "tensorShape": {"dim": [{"size": "160"}]}}}, "dtype": {"type": "DT_FLOAT"}}}, {"name": "module_apply_default/InceptionV3/InceptionV3/Mixed_7b/Branch_2/Conv2d_0b_3x3/Conv2D_bn_offset", "op": "Const", "attr": {"value": {"tensor": {"dtype": "DT_FLOAT", "tensorShape": {"dim": [{"size": "384"}]}}}, "dtype": {"type": "DT_FLOAT"}}}, {"name": "module_apply_default/InceptionV3/InceptionV3/Mixed_6d/Branch_2/Conv2d_0b_7x1/Conv2D_weights", "op": "Const", "attr": {"value": {"tensor": {"dtype": "DT_FLOAT", "tensorShape": {"dim": [{"size": "7"}, {"size": "1"}, {"size": "160"}, {"size": "160"}]}}}, "dtype": {"type": "DT_FLOAT"}}}, {"name": "module_apply_default/InceptionV3/InceptionV3/Mixed_6d/Branch_2/Conv2d_0b_7x1/Conv2D_bn_offset", "op": "Const", "attr": {"dtype": {"type": "DT_FLOAT"}, "value": {"tensor": {"dtype": "DT_FLOAT", "tensorShape": {"dim": [{"size": "160"}]}}}}}, {"name": "module_apply_default/InceptionV3/InceptionV3/Mixed_6d/Branch_1/Conv2d_0c_7x1/Conv2D_weights", "op": "Const", "attr": {"value": {"tensor": {"dtype": "DT_FLOAT", "tensorShape": {"dim": [{"size": "7"}, {"size": "1"}, {"size": "160"}, {"size": "192"}]}}}, "dtype": {"type": "DT_FLOAT"}}}, {"name": "module_apply_default/InceptionV3/InceptionV3/Mixed_7b/Branch_2/Conv2d_0c_1x3/Conv2D_weights", "op": "Const", "attr": {"value": {"tensor": {"dtype": "DT_FLOAT", "tensorShape": {"dim": [{"size": "1"}, {"size": "3"}, {"size": "384"}, {"size": "384"}]}}}, "dtype": {"type": "DT_FLOAT"}}}, {"name": "module_apply_default/InceptionV3/InceptionV3/Mixed_6d/Branch_1/Conv2d_0c_7x1/Conv2D_bn_offset", "op": "Const", "attr": {"value": {"tensor": {"dtype": "DT_FLOAT", "tensorShape": {"dim": [{"size": "192"}]}}}, "dtype": {"type": "DT_FLOAT"}}}, {"name": "module_apply_default/InceptionV3/InceptionV3/Mixed_6d/Branch_2/Conv2d_0c_1x7/Conv2D_weights", "op": "Const", "attr": {"dtype": {"type": "DT_FLOAT"}, "value": {"tensor": {"dtype": "DT_FLOAT", "tensorShape": {"dim": [{"size": "1"}, {"size": "7"}, {"size": "160"}, {"size": "160"}]}}}}}, {"name": "module_apply_default/InceptionV3/InceptionV3/Mixed_7c/Branch_2/Conv2d_0c_1x3/Conv2D_bn_offset", "op": "Const", "attr": {"value": {"tensor": {"dtype": "DT_FLOAT", "tensorShape": {"dim": [{"size": "384"}]}}}, "dtype": {"type": "DT_FLOAT"}}}, {"name": "module_apply_default/InceptionV3/InceptionV3/Mixed_6d/Branch_2/Conv2d_0c_1x7/Conv2D_bn_offset", "op": "Const", "attr": {"value": {"tensor": {"dtype": "DT_FLOAT", "tensorShape": {"dim": [{"size": "160"}]}}}, "dtype": {"type": "DT_FLOAT"}}}, {"name": "module_apply_default/InceptionV3/InceptionV3/Mixed_7b/Branch_2/Conv2d_0c_1x3/Conv2D_bn_offset", "op": "Const", "attr": {"value": {"tensor": {"dtype": "DT_FLOAT", "tensorShape": {"dim": [{"size": "384"}]}}}, "dtype": {"type": "DT_FLOAT"}}}, {"name": "module_apply_default/InceptionV3/InceptionV3/Mixed_6d/Branch_2/Conv2d_0d_7x1/Conv2D_weights", "op": "Const", "attr": {"value": {"tensor": {"dtype": "DT_FLOAT", "tensorShape": {"dim": [{"size": "7"}, {"size": "1"}, {"size": "160"}, {"size": "160"}]}}}, "dtype": {"type": "DT_FLOAT"}}}, {"name": "module_apply_default/InceptionV3/InceptionV3/Mixed_6d/Branch_2/Conv2d_0d_7x1/Conv2D_bn_offset", "op": "Const", "attr": {"value": {"tensor": {"dtype": "DT_FLOAT", "tensorShape": {"dim": [{"size": "160"}]}}}, "dtype": {"type": "DT_FLOAT"}}}, {"name": "module_apply_default/InceptionV3/InceptionV3/Mixed_7b/Branch_2/Conv2d_0d_3x1/Conv2D_weights", "op": "Const", "attr": {"value": {"tensor": {"dtype": "DT_FLOAT", "tensorShape": {"dim": [{"size": "3"}, {"size": "1"}, {"size": "384"}, {"size": "384"}]}}}, "dtype": {"type": "DT_FLOAT"}}}, {"name": "module_apply_default/InceptionV3/InceptionV3/Mixed_6d/Branch_2/Conv2d_0e_1x7/Conv2D_weights", "op": "Const", "attr": {"value": {"tensor": {"dtype": "DT_FLOAT", "tensorShape": {"dim": [{"size": "1"}, {"size": "7"}, {"size": "160"}, {"size": "192"}]}}}, "dtype": {"type": "DT_FLOAT"}}}, {"name": "module_apply_default/InceptionV3/InceptionV3/Mixed_6d/Branch_2/Conv2d_0e_1x7/Conv2D_bn_offset", "op": "Const", "attr": {"value": {"tensor": {"dtype": "DT_FLOAT", "tensorShape": {"dim": [{"size": "192"}]}}}, "dtype": {"type": "DT_FLOAT"}}}, {"name": "module_apply_default/InceptionV3/InceptionV3/Mixed_6e/Branch_0/Conv2d_0a_1x1/Conv2D_weights", "op": "Const", "attr": {"value": {"tensor": {"dtype": "DT_FLOAT", "tensorShape": {"dim": [{"size": "1"}, {"size": "1"}, {"size": "768"}, {"size": "192"}]}}}, "dtype": {"type": "DT_FLOAT"}}}, {"name": "module_apply_default/InceptionV3/InceptionV3/Mixed_7b/Branch_2/Conv2d_0d_3x1/Conv2D_bn_offset", "op": "Const", "attr": {"dtype": {"type": "DT_FLOAT"}, "value": {"tensor": {"dtype": "DT_FLOAT", "tensorShape": {"dim": [{"size": "384"}]}}}}}, {"name": "module_apply_default/InceptionV3/InceptionV3/Mixed_6e/Branch_0/Conv2d_0a_1x1/Conv2D_bn_offset", "op": "Const", "attr": {"value": {"tensor": {"dtype": "DT_FLOAT", "tensorShape": {"dim": [{"size": "192"}]}}}, "dtype": {"type": "DT_FLOAT"}}}, {"name": "module_apply_default/InceptionV3/InceptionV3/Mixed_6e/Branch_1/Conv2d_0a_1x1/Conv2D_weights", "op": "Const", "attr": {"value": {"tensor": {"dtype": "DT_FLOAT", "tensorShape": {"dim": [{"size": "1"}, {"size": "1"}, {"size": "768"}, {"size": "192"}]}}}, "dtype": {"type": "DT_FLOAT"}}}, {"name": "module_apply_default/InceptionV3/InceptionV3/Mixed_6e/Branch_1/Conv2d_0a_1x1/Conv2D_bn_offset", "op": "Const", "attr": {"dtype": {"type": "DT_FLOAT"}, "value": {"tensor": {"dtype": "DT_FLOAT", "tensorShape": {"dim": [{"size": "192"}]}}}}}, {"name": "module_apply_default/InceptionV3/InceptionV3/Mixed_6e/Branch_2/Conv2d_0a_1x1/Conv2D_weights", "op": "Const", "attr": {"dtype": {"type": "DT_FLOAT"}, "value": {"tensor": {"dtype": "DT_FLOAT", "tensorShape": {"dim": [{"size": "1"}, {"size": "1"}, {"size": "768"}, {"size": "192"}]}}}}}, {"name": "module_apply_default/InceptionV3/InceptionV3/Mixed_6e/Branch_2/Conv2d_0a_1x1/Conv2D_bn_offset", "op": "Const", "attr": {"value": {"tensor": {"dtype": "DT_FLOAT", "tensorShape": {"dim": [{"size": "192"}]}}}, "dtype": {"type": "DT_FLOAT"}}}, {"name": "module_apply_default/InceptionV3/InceptionV3/Mixed_6e/Branch_3/Conv2d_0b_1x1/Conv2D_weights", "op": "Const", "attr": {"value": {"tensor": {"dtype": "DT_FLOAT", "tensorShape": {"dim": [{"size": "1"}, {"size": "1"}, {"size": "768"}, {"size": "192"}]}}}, "dtype": {"type": "DT_FLOAT"}}}, {"name": "module_apply_default/InceptionV3/InceptionV3/Mixed_7c/Branch_1/Conv2d_0a_1x1/Conv2D_weights", "op": "Const", "attr": {"value": {"tensor": {"dtype": "DT_FLOAT", "tensorShape": {"dim": [{"size": "1"}, {"size": "1"}, {"size": "2048"}, {"size": "384"}]}}}, "dtype": {"type": "DT_FLOAT"}}}, {"name": "module_apply_default/InceptionV3/InceptionV3/Mixed_6e/Branch_3/Conv2d_0b_1x1/Conv2D_bn_offset", "op": "Const", "attr": {"value": {"tensor": {"dtype": "DT_FLOAT", "tensorShape": {"dim": [{"size": "192"}]}}}, "dtype": {"type": "DT_FLOAT"}}}, {"name": "module_apply_default/InceptionV3/InceptionV3/Mixed_6e/Branch_1/Conv2d_0b_1x7/Conv2D_weights", "op": "Const", "attr": {"dtype": {"type": "DT_FLOAT"}, "value": {"tensor": {"dtype": "DT_FLOAT", "tensorShape": {"dim": [{"size": "1"}, {"size": "7"}, {"size": "192"}, {"size": "192"}]}}}}}, {"name": "module_apply_default/InceptionV3/InceptionV3/Mixed_7c/Branch_2/Conv2d_0d_3x1/Conv2D_weights", "op": "Const", "attr": {"value": {"tensor": {"dtype": "DT_FLOAT", "tensorShape": {"dim": [{"size": "3"}, {"size": "1"}, {"size": "384"}, {"size": "384"}]}}}, "dtype": {"type": "DT_FLOAT"}}}, {"name": "module_apply_default/InceptionV3/InceptionV3/Mixed_6e/Branch_1/Conv2d_0b_1x7/Conv2D_bn_offset", "op": "Const", "attr": {"value": {"tensor": {"dtype": "DT_FLOAT", "tensorShape": {"dim": [{"size": "192"}]}}}, "dtype": {"type": "DT_FLOAT"}}}, {"name": "module_apply_default/InceptionV3/InceptionV3/Mixed_7c/Branch_1/Conv2d_0a_1x1/Conv2D_bn_offset", "op": "Const", "attr": {"dtype": {"type": "DT_FLOAT"}, "value": {"tensor": {"dtype": "DT_FLOAT", "tensorShape": {"dim": [{"size": "384"}]}}}}}, {"name": "module_apply_default/InceptionV3/InceptionV3/Mixed_6e/Branch_2/Conv2d_0b_7x1/Conv2D_weights", "op": "Const", "attr": {"dtype": {"type": "DT_FLOAT"}, "value": {"tensor": {"dtype": "DT_FLOAT", "tensorShape": {"dim": [{"size": "7"}, {"size": "1"}, {"size": "192"}, {"size": "192"}]}}}}}, {"name": "module_apply_default/hub_input/Mul", "op": "Mul", "input": ["Placeholder", "module_apply_default/hub_input/Mul/y"], "attr": {"T": {"type": "DT_FLOAT"}}}, {"name": "module_apply_default/hub_input/Sub", "op": "Sub", "input": ["module_apply_default/hub_input/Mul", "module_apply_default/hub_input/Sub/y"], "attr": {"T": {"type": "DT_FLOAT"}}}, {"name": "module_apply_default/InceptionV3/InceptionV3/Conv2d_1a_3x3/Relu", "op": "_FusedConv2D", "input": ["module_apply_default/hub_input/Sub", "module_apply_default/InceptionV3/InceptionV3/Conv2d_1a_3x3/Conv2D_weights", "module_apply_default/InceptionV3/InceptionV3/Conv2d_1a_3x3/Conv2D_bn_offset"], "device": "/device:CPU:0", "attr": {"dilations": {"list": {"i": ["1", "1", "1", "1"]}}, "T": {"type": "DT_FLOAT"}, "strides": {"list": {"i": ["1", "2", "2", "1"]}}, "data_format": {"s": "TkhXQw=="}, "explicit_paddings": {"list": {}}, "use_cudnn_on_gpu": {"b": true}, "num_args": {"i": "1"}, "epsilon": {"f": 0.0}, "padding": {"s": "VkFMSUQ="}, "fused_ops": {"list": {"s": ["Qmlhc0FkZA==", "UmVsdQ=="]}}}}, {"name": "module_apply_default/InceptionV3/InceptionV3/Conv2d_2a_3x3/Relu", "op": "_FusedConv2D", "input": ["module_apply_default/InceptionV3/InceptionV3/Conv2d_1a_3x3/Relu", "module_apply_default/InceptionV3/InceptionV3/Conv2d_2a_3x3/Conv2D_weights", "module_apply_default/InceptionV3/InceptionV3/Conv2d_2a_3x3/Conv2D_bn_offset"], "device": "/device:CPU:0", "attr": {"epsilon": {"f": 0.0}, "padding": {"s": "VkFMSUQ="}, "fused_ops": {"list": {"s": ["Qmlhc0FkZA==", "UmVsdQ=="]}}, "dilations": {"list": {"i": ["1", "1", "1", "1"]}}, "T": {"type": "DT_FLOAT"}, "strides": {"list": {"i": ["1", "1", "1", "1"]}}, "data_format": {"s": "TkhXQw=="}, "explicit_paddings": {"list": {}}, "use_cudnn_on_gpu": {"b": true}, "num_args": {"i": "1"}}}, {"name": "module_apply_default/InceptionV3/InceptionV3/Conv2d_2b_3x3/BatchNorm/FusedBatchNorm", "op": "_FusedConv2D", "input": ["module_apply_default/InceptionV3/InceptionV3/Conv2d_2a_3x3/Relu", "module_apply_default/InceptionV3/InceptionV3/Conv2d_2b_3x3/Conv2D_weights", "module_apply_default/InceptionV3/InceptionV3/Conv2d_2b_3x3/Conv2D_bn_offset"], "device": "/device:CPU:0", "attr": {"dilations": {"list": {"i": ["1", "1", "1", "1"]}}, "T": {"type": "DT_FLOAT"}, "data_format": {"s": "TkhXQw=="}, "strides": {"list": {"i": ["1", "1", "1", "1"]}}, "use_cudnn_on_gpu": {"b": true}, "explicit_paddings": {"list": {}}, "num_args": {"i": "1"}, "epsilon": {"f": 0.0}, "padding": {"s": "U0FNRQ=="}, "fused_ops": {"list": {"s": ["Qmlhc0FkZA=="]}}}}, {"name": "module_apply_default/InceptionV3/InceptionV3/MaxPool_3a_3x3/MaxPool", "op": "MaxPool", "input": ["module_apply_default/InceptionV3/InceptionV3/Conv2d_2b_3x3/BatchNorm/FusedBatchNorm"], "attr": {"data_format": {"s": "TkhXQw=="}, "strides": {"list": {"i": ["1", "2", "2", "1"]}}, "ksize": {"list": {"i": ["1", "3", "3", "1"]}}, "padding": {"s": "VkFMSUQ="}, "T": {"type": "DT_FLOAT"}}}, {"name": "module_apply_default/InceptionV3/InceptionV3/Conv2d_2b_3x3/Relu", "op": "Relu", "input": ["module_apply_default/InceptionV3/InceptionV3/MaxPool_3a_3x3/MaxPool"], "attr": {"T": {"type": "DT_FLOAT"}}}, {"name": "module_apply_default/InceptionV3/InceptionV3/Conv2d_3b_1x1/Relu", "op": "_FusedConv2D", "input": ["module_apply_default/InceptionV3/InceptionV3/Conv2d_2b_3x3/Relu", "module_apply_default/InceptionV3/InceptionV3/Conv2d_3b_1x1/Conv2D_weights", "module_apply_default/InceptionV3/InceptionV3/Conv2d_3b_1x1/Conv2D_bn_offset"], "device": "/device:CPU:0", "attr": {"data_format": {"s": "TkhXQw=="}, "strides": {"list": {"i": ["1", "1", "1", "1"]}}, "explicit_paddings": {"list": {}}, "use_cudnn_on_gpu": {"b": true}, "num_args": {"i": "1"}, "epsilon": {"f": 0.0}, "padding": {"s": "VkFMSUQ="}, "fused_ops": {"list": {"s": ["Qmlhc0FkZA==", "UmVsdQ=="]}}, "dilations": {"list": {"i": ["1", "1", "1", "1"]}}, "T": {"type": "DT_FLOAT"}}}, {"name": "module_apply_default/InceptionV3/InceptionV3/Conv2d_4a_3x3/BatchNorm/FusedBatchNorm", "op": "_FusedConv2D", "input": ["module_apply_default/InceptionV3/InceptionV3/Conv2d_3b_1x1/Relu", "module_apply_default/InceptionV3/InceptionV3/Conv2d_4a_3x3/Conv2D_weights", "module_apply_default/InceptionV3/InceptionV3/Conv2d_4a_3x3/Conv2D_bn_offset"], "device": "/device:CPU:0", "attr": {"epsilon": {"f": 0.0}, "padding": {"s": "VkFMSUQ="}, "fused_ops": {"list": {"s": ["Qmlhc0FkZA=="]}}, "dilations": {"list": {"i": ["1", "1", "1", "1"]}}, "T": {"type": "DT_FLOAT"}, "strides": {"list": {"i": ["1", "1", "1", "1"]}}, "data_format": {"s": "TkhXQw=="}, "use_cudnn_on_gpu": {"b": true}, "explicit_paddings": {"list": {}}, "num_args": {"i": "1"}}}, {"name": "module_apply_default/InceptionV3/InceptionV3/MaxPool_5a_3x3/MaxPool", "op": "MaxPool", "input": ["module_apply_default/InceptionV3/InceptionV3/Conv2d_4a_3x3/BatchNorm/FusedBatchNorm"], "attr": {"ksize": {"list": {"i": ["1", "3", "3", "1"]}}, "padding": {"s": "VkFMSUQ="}, "T": {"type": "DT_FLOAT"}, "data_format": {"s": "TkhXQw=="}, "strides": {"list": {"i": ["1", "2", "2", "1"]}}}}, {"name": "module_apply_default/InceptionV3/InceptionV3/Conv2d_4a_3x3/Relu", "op": "Relu", "input": ["module_apply_default/InceptionV3/InceptionV3/MaxPool_5a_3x3/MaxPool"], "attr": {"T": {"type": "DT_FLOAT"}}}, {"name": "module_apply_default/InceptionV3/InceptionV3/Mixed_5b/Branch_3/AvgPool_0a_3x3/AvgPool", "op": "AvgPool", "input": ["module_apply_default/InceptionV3/InceptionV3/Conv2d_4a_3x3/Relu"], "attr": {"strides": {"list": {"i": ["1", "1", "1", "1"]}}, "data_format": {"s": "TkhXQw=="}, "ksize": {"list": {"i": ["1", "3", "3", "1"]}}, "padding": {"s": "U0FNRQ=="}, "T": {"type": "DT_FLOAT"}}}, {"name": "module_apply_default/InceptionV3/InceptionV3/Mixed_5b/Branch_0/Conv2d_0a_1x1/BatchNorm/FusedBatchNorm", "op": "_FusedConv2D", "input": ["module_apply_default/InceptionV3/InceptionV3/Conv2d_4a_3x3/Relu", "module_apply_default/InceptionV3/InceptionV3/Mixed_5b/Branch_0/Conv2d_0a_1x1/Conv2D_weights", "module_apply_default/InceptionV3/InceptionV3/Mixed_5b/Branch_0/Conv2d_0a_1x1/Conv2D_bn_offset"], "device": "/device:CPU:0", "attr": {"dilations": {"list": {"i": ["1", "1", "1", "1"]}}, "T": {"type": "DT_FLOAT"}, "data_format": {"s": "TkhXQw=="}, "strides": {"list": {"i": ["1", "1", "1", "1"]}}, "use_cudnn_on_gpu": {"b": true}, "explicit_paddings": {"list": {}}, "num_args": {"i": "1"}, "epsilon": {"f": 0.0}, "padding": {"s": "U0FNRQ=="}, "fused_ops": {"list": {"s": ["Qmlhc0FkZA=="]}}}}, {"name": "module_apply_default/InceptionV3/InceptionV3/Mixed_5b/Branch_1/Conv2d_0a_1x1/Relu", "op": "_FusedConv2D", "input": ["module_apply_default/InceptionV3/InceptionV3/Conv2d_4a_3x3/Relu", "module_apply_default/InceptionV3/InceptionV3/Mixed_5b/Branch_1/Conv2d_0a_1x1/Conv2D_weights", "module_apply_default/InceptionV3/InceptionV3/Mixed_5b/Branch_1/Conv2d_0a_1x1/Conv2D_bn_offset"], "device": "/device:CPU:0", "attr": {"dilations": {"list": {"i": ["1", "1", "1", "1"]}}, "T": {"type": "DT_FLOAT"}, "strides": {"list": {"i": ["1", "1", "1", "1"]}}, "data_format": {"s": "TkhXQw=="}, "use_cudnn_on_gpu": {"b": true}, "explicit_paddings": {"list": {}}, "num_args": {"i": "1"}, "epsilon": {"f": 0.0}, "padding": {"s": "U0FNRQ=="}, "fused_ops": {"list": {"s": ["Qmlhc0FkZA==", "UmVsdQ=="]}}}}, {"name": "module_apply_default/InceptionV3/InceptionV3/Mixed_5b/Branch_2/Conv2d_0a_1x1/Relu", "op": "_FusedConv2D", "input": ["module_apply_default/InceptionV3/InceptionV3/Conv2d_4a_3x3/Relu", "module_apply_default/InceptionV3/InceptionV3/Mixed_5b/Branch_2/Conv2d_0a_1x1/Conv2D_weights", "module_apply_default/InceptionV3/InceptionV3/Mixed_5b/Branch_2/Conv2d_0a_1x1/Conv2D_bn_offset"], "device": "/device:CPU:0", "attr": {"strides": {"list": {"i": ["1", "1", "1", "1"]}}, "data_format": {"s": "TkhXQw=="}, "explicit_paddings": {"list": {}}, "use_cudnn_on_gpu": {"b": true}, "num_args": {"i": "1"}, "epsilon": {"f": 0.0}, "padding": {"s": "U0FNRQ=="}, "fused_ops": {"list": {"s": ["Qmlhc0FkZA==", "UmVsdQ=="]}}, "dilations": {"list": {"i": ["1", "1", "1", "1"]}}, "T": {"type": "DT_FLOAT"}}}, {"name": "module_apply_default/InceptionV3/InceptionV3/Mixed_5b/Branch_3/Conv2d_0b_1x1/BatchNorm/FusedBatchNorm", "op": "_FusedConv2D", "input": ["module_apply_default/InceptionV3/InceptionV3/Mixed_5b/Branch_3/AvgPool_0a_3x3/AvgPool", "module_apply_default/InceptionV3/InceptionV3/Mixed_5b/Branch_3/Conv2d_0b_1x1/Conv2D_weights", "module_apply_default/InceptionV3/InceptionV3/Mixed_5b/Branch_3/Conv2d_0b_1x1/Conv2D_bn_offset"], "device": "/device:CPU:0", "attr": {"dilations": {"list": {"i": ["1", "1", "1", "1"]}}, "T": {"type": "DT_FLOAT"}, "data_format": {"s": "TkhXQw=="}, "strides": {"list": {"i": ["1", "1", "1", "1"]}}, "explicit_paddings": {"list": {}}, "use_cudnn_on_gpu": {"b": true}, "num_args": {"i": "1"}, "epsilon": {"f": 0.0}, "padding": {"s": "U0FNRQ=="}, "fused_ops": {"list": {"s": ["Qmlhc0FkZA=="]}}}}, {"name": "module_apply_default/InceptionV3/InceptionV3/Mixed_5b/Branch_1/Conv2d_0b_5x5/BatchNorm/FusedBatchNorm", "op": "_FusedConv2D", "input": ["module_apply_default/InceptionV3/InceptionV3/Mixed_5b/Branch_1/Conv2d_0a_1x1/Relu", "module_apply_default/InceptionV3/InceptionV3/Mixed_5b/Branch_1/Conv2d_0b_5x5/Conv2D_weights", "module_apply_default/InceptionV3/InceptionV3/Mixed_5b/Branch_1/Conv2d_0b_5x5/Conv2D_bn_offset"], "device": "/device:CPU:0", "attr": {"dilations": {"list": {"i": ["1", "1", "1", "1"]}}, "T": {"type": "DT_FLOAT"}, "data_format": {"s": "TkhXQw=="}, "strides": {"list": {"i": ["1", "1", "1", "1"]}}, "explicit_paddings": {"list": {}}, "use_cudnn_on_gpu": {"b": true}, "num_args": {"i": "1"}, "epsilon": {"f": 0.0}, "padding": {"s": "U0FNRQ=="}, "fused_ops": {"list": {"s": ["Qmlhc0FkZA=="]}}}}, {"name": "module_apply_default/InceptionV3/InceptionV3/Mixed_5b/Branch_2/Conv2d_0b_3x3/Relu", "op": "_FusedConv2D", "input": ["module_apply_default/InceptionV3/InceptionV3/Mixed_5b/Branch_2/Conv2d_0a_1x1/Relu", "module_apply_default/InceptionV3/InceptionV3/Mixed_5b/Branch_2/Conv2d_0b_3x3/Conv2D_weights", "module_apply_default/InceptionV3/InceptionV3/Mixed_5b/Branch_2/Conv2d_0b_3x3/Conv2D_bn_offset"], "device": "/device:CPU:0", "attr": {"epsilon": {"f": 0.0}, "padding": {"s": "U0FNRQ=="}, "fused_ops": {"list": {"s": ["Qmlhc0FkZA==", "UmVsdQ=="]}}, "dilations": {"list": {"i": ["1", "1", "1", "1"]}}, "T": {"type": "DT_FLOAT"}, "data_format": {"s": "TkhXQw=="}, "strides": {"list": {"i": ["1", "1", "1", "1"]}}, "use_cudnn_on_gpu": {"b": true}, "explicit_paddings": {"list": {}}, "num_args": {"i": "1"}}}, {"name": "module_apply_default/InceptionV3/InceptionV3/Mixed_5b/Branch_2/Conv2d_0c_3x3/BatchNorm/FusedBatchNorm", "op": "_FusedConv2D", "input": ["module_apply_default/InceptionV3/InceptionV3/Mixed_5b/Branch_2/Conv2d_0b_3x3/Relu", "module_apply_default/InceptionV3/InceptionV3/Mixed_5b/Branch_2/Conv2d_0c_3x3/Conv2D_weights", "module_apply_default/InceptionV3/InceptionV3/Mixed_5b/Branch_2/Conv2d_0c_3x3/Conv2D_bn_offset"], "device": "/device:CPU:0", "attr": {"dilations": {"list": {"i": ["1", "1", "1", "1"]}}, "T": {"type": "DT_FLOAT"}, "data_format": {"s": "TkhXQw=="}, "strides": {"list": {"i": ["1", "1", "1", "1"]}}, "use_cudnn_on_gpu": {"b": true}, "explicit_paddings": {"list": {}}, "num_args": {"i": "1"}, "epsilon": {"f": 0.0}, "padding": {"s": "U0FNRQ=="}, "fused_ops": {"list": {"s": ["Qmlhc0FkZA=="]}}}}, {"name": "module_apply_default/InceptionV3/InceptionV3/Mixed_5b/concat", "op": "ConcatV2", "input": ["module_apply_default/InceptionV3/InceptionV3/Mixed_5b/Branch_0/Conv2d_0a_1x1/BatchNorm/FusedBatchNorm", "module_apply_default/InceptionV3/InceptionV3/Mixed_5b/Branch_1/Conv2d_0b_5x5/BatchNorm/FusedBatchNorm", "module_apply_default/InceptionV3/InceptionV3/Mixed_5b/Branch_2/Conv2d_0c_3x3/BatchNorm/FusedBatchNorm", "module_apply_default/InceptionV3/InceptionV3/Mixed_5b/Branch_3/Conv2d_0b_1x1/BatchNorm/FusedBatchNorm", "module_apply_default/InceptionV3/InceptionV3/Mixed_5b/concat/axis"], "attr": {"N": {"i": "4"}, "Tidx": {"type": "DT_INT32"}, "T": {"type": "DT_FLOAT"}}}, {"name": "module_apply_default/InceptionV3/InceptionV3/Mixed_5b/Branch_0/Conv2d_0a_1x1/Relu", "op": "Relu", "input": ["module_apply_default/InceptionV3/InceptionV3/Mixed_5b/concat"], "attr": {"T": {"type": "DT_FLOAT"}}}, {"name": "module_apply_default/InceptionV3/InceptionV3/Mixed_5c/Branch_3/AvgPool_0a_3x3/AvgPool", "op": "AvgPool", "input": ["module_apply_default/InceptionV3/InceptionV3/Mixed_5b/Branch_0/Conv2d_0a_1x1/Relu"], "attr": {"ksize": {"list": {"i": ["1", "3", "3", "1"]}}, "padding": {"s": "U0FNRQ=="}, "T": {"type": "DT_FLOAT"}, "data_format": {"s": "TkhXQw=="}, "strides": {"list": {"i": ["1", "1", "1", "1"]}}}}, {"name": "module_apply_default/InceptionV3/InceptionV3/Mixed_5c/Branch_0/Conv2d_0a_1x1/BatchNorm/FusedBatchNorm", "op": "_FusedConv2D", "input": ["module_apply_default/InceptionV3/InceptionV3/Mixed_5b/Branch_0/Conv2d_0a_1x1/Relu", "module_apply_default/InceptionV3/InceptionV3/Mixed_5c/Branch_0/Conv2d_0a_1x1/Conv2D_weights", "module_apply_default/InceptionV3/InceptionV3/Mixed_5c/Branch_0/Conv2d_0a_1x1/Conv2D_bn_offset"], "device": "/device:CPU:0", "attr": {"epsilon": {"f": 0.0}, "padding": {"s": "U0FNRQ=="}, "fused_ops": {"list": {"s": ["Qmlhc0FkZA=="]}}, "dilations": {"list": {"i": ["1", "1", "1", "1"]}}, "T": {"type": "DT_FLOAT"}, "data_format": {"s": "TkhXQw=="}, "strides": {"list": {"i": ["1", "1", "1", "1"]}}, "use_cudnn_on_gpu": {"b": true}, "explicit_paddings": {"list": {}}, "num_args": {"i": "1"}}}, {"name": "module_apply_default/InceptionV3/InceptionV3/Mixed_5c/Branch_1/Conv2d_0b_1x1/Relu", "op": "_FusedConv2D", "input": ["module_apply_default/InceptionV3/InceptionV3/Mixed_5b/Branch_0/Conv2d_0a_1x1/Relu", "module_apply_default/InceptionV3/InceptionV3/Mixed_5c/Branch_1/Conv2d_0b_1x1/Conv2D_weights", "module_apply_default/InceptionV3/InceptionV3/Mixed_5c/Branch_1/Conv2d_0b_1x1/Conv2D_bn_offset"], "device": "/device:CPU:0", "attr": {"dilations": {"list": {"i": ["1", "1", "1", "1"]}}, "T": {"type": "DT_FLOAT"}, "data_format": {"s": "TkhXQw=="}, "strides": {"list": {"i": ["1", "1", "1", "1"]}}, "explicit_paddings": {"list": {}}, "use_cudnn_on_gpu": {"b": true}, "num_args": {"i": "1"}, "epsilon": {"f": 0.0}, "padding": {"s": "U0FNRQ=="}, "fused_ops": {"list": {"s": ["Qmlhc0FkZA==", "UmVsdQ=="]}}}}, {"name": "module_apply_default/InceptionV3/InceptionV3/Mixed_5c/Branch_2/Conv2d_0a_1x1/Relu", "op": "_FusedConv2D", "input": ["module_apply_default/InceptionV3/InceptionV3/Mixed_5b/Branch_0/Conv2d_0a_1x1/Relu", "module_apply_default/InceptionV3/InceptionV3/Mixed_5c/Branch_2/Conv2d_0a_1x1/Conv2D_weights", "module_apply_default/InceptionV3/InceptionV3/Mixed_5c/Branch_2/Conv2d_0a_1x1/Conv2D_bn_offset"], "device": "/device:CPU:0", "attr": {"dilations": {"list": {"i": ["1", "1", "1", "1"]}}, "T": {"type": "DT_FLOAT"}, "strides": {"list": {"i": ["1", "1", "1", "1"]}}, "data_format": {"s": "TkhXQw=="}, "explicit_paddings": {"list": {}}, "use_cudnn_on_gpu": {"b": true}, "num_args": {"i": "1"}, "epsilon": {"f": 0.0}, "padding": {"s": "U0FNRQ=="}, "fused_ops": {"list": {"s": ["Qmlhc0FkZA==", "UmVsdQ=="]}}}}, {"name": "module_apply_default/InceptionV3/InceptionV3/Mixed_5c/Branch_3/Conv2d_0b_1x1/BatchNorm/FusedBatchNorm", "op": "_FusedConv2D", "input": ["module_apply_default/InceptionV3/InceptionV3/Mixed_5c/Branch_3/AvgPool_0a_3x3/AvgPool", "module_apply_default/InceptionV3/InceptionV3/Mixed_5c/Branch_3/Conv2d_0b_1x1/Conv2D_weights", "module_apply_default/InceptionV3/InceptionV3/Mixed_5c/Branch_3/Conv2d_0b_1x1/Conv2D_bn_offset"], "device": "/device:CPU:0", "attr": {"fused_ops": {"list": {"s": ["Qmlhc0FkZA=="]}}, "dilations": {"list": {"i": ["1", "1", "1", "1"]}}, "T": {"type": "DT_FLOAT"}, "data_format": {"s": "TkhXQw=="}, "strides": {"list": {"i": ["1", "1", "1", "1"]}}, "explicit_paddings": {"list": {}}, "use_cudnn_on_gpu": {"b": true}, "num_args": {"i": "1"}, "epsilon": {"f": 0.0}, "padding": {"s": "U0FNRQ=="}}}, {"name": "module_apply_default/InceptionV3/InceptionV3/Mixed_5c/Branch_1/Conv_1_0c_5x5/BatchNorm/FusedBatchNorm", "op": "_FusedConv2D", "input": ["module_apply_default/InceptionV3/InceptionV3/Mixed_5c/Branch_1/Conv2d_0b_1x1/Relu", "module_apply_default/InceptionV3/InceptionV3/Mixed_5c/Branch_1/Conv_1_0c_5x5/Conv2D_weights", "module_apply_default/InceptionV3/InceptionV3/Mixed_5c/Branch_1/Conv_1_0c_5x5/Conv2D_bn_offset"], "device": "/device:CPU:0", "attr": {"dilations": {"list": {"i": ["1", "1", "1", "1"]}}, "T": {"type": "DT_FLOAT"}, "data_format": {"s": "TkhXQw=="}, "strides": {"list": {"i": ["1", "1", "1", "1"]}}, "use_cudnn_on_gpu": {"b": true}, "explicit_paddings": {"list": {}}, "num_args": {"i": "1"}, "epsilon": {"f": 0.0}, "padding": {"s": "U0FNRQ=="}, "fused_ops": {"list": {"s": ["Qmlhc0FkZA=="]}}}}, {"name": "module_apply_default/InceptionV3/InceptionV3/Mixed_5c/Branch_2/Conv2d_0b_3x3/Relu", "op": "_FusedConv2D", "input": ["module_apply_default/InceptionV3/InceptionV3/Mixed_5c/Branch_2/Conv2d_0a_1x1/Relu", "module_apply_default/InceptionV3/InceptionV3/Mixed_5c/Branch_2/Conv2d_0b_3x3/Conv2D_weights", "module_apply_default/InceptionV3/InceptionV3/Mixed_5c/Branch_2/Conv2d_0b_3x3/Conv2D_bn_offset"], "device": "/device:CPU:0", "attr": {"fused_ops": {"list": {"s": ["Qmlhc0FkZA==", "UmVsdQ=="]}}, "dilations": {"list": {"i": ["1", "1", "1", "1"]}}, "T": {"type": "DT_FLOAT"}, "data_format": {"s": "TkhXQw=="}, "strides": {"list": {"i": ["1", "1", "1", "1"]}}, "explicit_paddings": {"list": {}}, "use_cudnn_on_gpu": {"b": true}, "num_args": {"i": "1"}, "epsilon": {"f": 0.0}, "padding": {"s": "U0FNRQ=="}}}, {"name": "module_apply_default/InceptionV3/InceptionV3/Mixed_5c/Branch_2/Conv2d_0c_3x3/BatchNorm/FusedBatchNorm", "op": "_FusedConv2D", "input": ["module_apply_default/InceptionV3/InceptionV3/Mixed_5c/Branch_2/Conv2d_0b_3x3/Relu", "module_apply_default/InceptionV3/InceptionV3/Mixed_5c/Branch_2/Conv2d_0c_3x3/Conv2D_weights", "module_apply_default/InceptionV3/InceptionV3/Mixed_5c/Branch_2/Conv2d_0c_3x3/Conv2D_bn_offset"], "device": "/device:CPU:0", "attr": {"strides": {"list": {"i": ["1", "1", "1", "1"]}}, "data_format": {"s": "TkhXQw=="}, "explicit_paddings": {"list": {}}, "use_cudnn_on_gpu": {"b": true}, "num_args": {"i": "1"}, "epsilon": {"f": 0.0}, "padding": {"s": "U0FNRQ=="}, "fused_ops": {"list": {"s": ["Qmlhc0FkZA=="]}}, "dilations": {"list": {"i": ["1", "1", "1", "1"]}}, "T": {"type": "DT_FLOAT"}}}, {"name": "module_apply_default/InceptionV3/InceptionV3/Mixed_5c/concat", "op": "ConcatV2", "input": ["module_apply_default/InceptionV3/InceptionV3/Mixed_5c/Branch_0/Conv2d_0a_1x1/BatchNorm/FusedBatchNorm", "module_apply_default/InceptionV3/InceptionV3/Mixed_5c/Branch_1/Conv_1_0c_5x5/BatchNorm/FusedBatchNorm", "module_apply_default/InceptionV3/InceptionV3/Mixed_5c/Branch_2/Conv2d_0c_3x3/BatchNorm/FusedBatchNorm", "module_apply_default/InceptionV3/InceptionV3/Mixed_5c/Branch_3/Conv2d_0b_1x1/BatchNorm/FusedBatchNorm", "module_apply_default/InceptionV3/InceptionV3/Mixed_5b/concat/axis"], "attr": {"Tidx": {"type": "DT_INT32"}, "T": {"type": "DT_FLOAT"}, "N": {"i": "4"}}}, {"name": "module_apply_default/InceptionV3/InceptionV3/Mixed_5c/Branch_0/Conv2d_0a_1x1/Relu", "op": "Relu", "input": ["module_apply_default/InceptionV3/InceptionV3/Mixed_5c/concat"], "attr": {"T": {"type": "DT_FLOAT"}}}, {"name": "module_apply_default/InceptionV3/InceptionV3/Mixed_5d/Branch_3/AvgPool_0a_3x3/AvgPool", "op": "AvgPool", "input": ["module_apply_default/InceptionV3/InceptionV3/Mixed_5c/Branch_0/Conv2d_0a_1x1/Relu"], "attr": {"ksize": {"list": {"i": ["1", "3", "3", "1"]}}, "padding": {"s": "U0FNRQ=="}, "T": {"type": "DT_FLOAT"}, "strides": {"list": {"i": ["1", "1", "1", "1"]}}, "data_format": {"s": "TkhXQw=="}}}, {"name": "module_apply_default/InceptionV3/InceptionV3/Mixed_5d/Branch_0/Conv2d_0a_1x1/BatchNorm/FusedBatchNorm", "op": "_FusedConv2D", "input": ["module_apply_default/InceptionV3/InceptionV3/Mixed_5c/Branch_0/Conv2d_0a_1x1/Relu", "module_apply_default/InceptionV3/InceptionV3/Mixed_5d/Branch_0/Conv2d_0a_1x1/Conv2D_weights", "module_apply_default/InceptionV3/InceptionV3/Mixed_5d/Branch_0/Conv2d_0a_1x1/Conv2D_bn_offset"], "device": "/device:CPU:0", "attr": {"dilations": {"list": {"i": ["1", "1", "1", "1"]}}, "T": {"type": "DT_FLOAT"}, "strides": {"list": {"i": ["1", "1", "1", "1"]}}, "data_format": {"s": "TkhXQw=="}, "explicit_paddings": {"list": {}}, "use_cudnn_on_gpu": {"b": true}, "num_args": {"i": "1"}, "epsilon": {"f": 0.0}, "padding": {"s": "U0FNRQ=="}, "fused_ops": {"list": {"s": ["Qmlhc0FkZA=="]}}}}, {"name": "module_apply_default/InceptionV3/InceptionV3/Mixed_5d/Branch_1/Conv2d_0a_1x1/Relu", "op": "_FusedConv2D", "input": ["module_apply_default/InceptionV3/InceptionV3/Mixed_5c/Branch_0/Conv2d_0a_1x1/Relu", "module_apply_default/InceptionV3/InceptionV3/Mixed_5d/Branch_1/Conv2d_0a_1x1/Conv2D_weights", "module_apply_default/InceptionV3/InceptionV3/Mixed_5d/Branch_1/Conv2d_0a_1x1/Conv2D_bn_offset"], "device": "/device:CPU:0", "attr": {"dilations": {"list": {"i": ["1", "1", "1", "1"]}}, "T": {"type": "DT_FLOAT"}, "strides": {"list": {"i": ["1", "1", "1", "1"]}}, "data_format": {"s": "TkhXQw=="}, "explicit_paddings": {"list": {}}, "use_cudnn_on_gpu": {"b": true}, "num_args": {"i": "1"}, "epsilon": {"f": 0.0}, "padding": {"s": "U0FNRQ=="}, "fused_ops": {"list": {"s": ["Qmlhc0FkZA==", "UmVsdQ=="]}}}}, {"name": "module_apply_default/InceptionV3/InceptionV3/Mixed_5d/Branch_2/Conv2d_0a_1x1/Relu", "op": "_FusedConv2D", "input": ["module_apply_default/InceptionV3/InceptionV3/Mixed_5c/Branch_0/Conv2d_0a_1x1/Relu", "module_apply_default/InceptionV3/InceptionV3/Mixed_5d/Branch_2/Conv2d_0a_1x1/Conv2D_weights", "module_apply_default/InceptionV3/InceptionV3/Mixed_5d/Branch_2/Conv2d_0a_1x1/Conv2D_bn_offset"], "device": "/device:CPU:0", "attr": {"epsilon": {"f": 0.0}, "padding": {"s": "U0FNRQ=="}, "fused_ops": {"list": {"s": ["Qmlhc0FkZA==", "UmVsdQ=="]}}, "dilations": {"list": {"i": ["1", "1", "1", "1"]}}, "T": {"type": "DT_FLOAT"}, "data_format": {"s": "TkhXQw=="}, "strides": {"list": {"i": ["1", "1", "1", "1"]}}, "explicit_paddings": {"list": {}}, "use_cudnn_on_gpu": {"b": true}, "num_args": {"i": "1"}}}, {"name": "module_apply_default/InceptionV3/InceptionV3/Mixed_5d/Branch_3/Conv2d_0b_1x1/BatchNorm/FusedBatchNorm", "op": "_FusedConv2D", "input": ["module_apply_default/InceptionV3/InceptionV3/Mixed_5d/Branch_3/AvgPool_0a_3x3/AvgPool", "module_apply_default/InceptionV3/InceptionV3/Mixed_5d/Branch_3/Conv2d_0b_1x1/Conv2D_weights", "module_apply_default/InceptionV3/InceptionV3/Mixed_5d/Branch_3/Conv2d_0b_1x1/Conv2D_bn_offset"], "device": "/device:CPU:0", "attr": {"fused_ops": {"list": {"s": ["Qmlhc0FkZA=="]}}, "dilations": {"list": {"i": ["1", "1", "1", "1"]}}, "T": {"type": "DT_FLOAT"}, "data_format": {"s": "TkhXQw=="}, "strides": {"list": {"i": ["1", "1", "1", "1"]}}, "use_cudnn_on_gpu": {"b": true}, "explicit_paddings": {"list": {}}, "num_args": {"i": "1"}, "epsilon": {"f": 0.0}, "padding": {"s": "U0FNRQ=="}}}, {"name": "module_apply_default/InceptionV3/InceptionV3/Mixed_5d/Branch_1/Conv2d_0b_5x5/BatchNorm/FusedBatchNorm", "op": "_FusedConv2D", "input": ["module_apply_default/InceptionV3/InceptionV3/Mixed_5d/Branch_1/Conv2d_0a_1x1/Relu", "module_apply_default/InceptionV3/InceptionV3/Mixed_5d/Branch_1/Conv2d_0b_5x5/Conv2D_weights", "module_apply_default/InceptionV3/InceptionV3/Mixed_5d/Branch_1/Conv2d_0b_5x5/Conv2D_bn_offset"], "device": "/device:CPU:0", "attr": {"fused_ops": {"list": {"s": ["Qmlhc0FkZA=="]}}, "dilations": {"list": {"i": ["1", "1", "1", "1"]}}, "T": {"type": "DT_FLOAT"}, "data_format": {"s": "TkhXQw=="}, "strides": {"list": {"i": ["1", "1", "1", "1"]}}, "explicit_paddings": {"list": {}}, "use_cudnn_on_gpu": {"b": true}, "num_args": {"i": "1"}, "epsilon": {"f": 0.0}, "padding": {"s": "U0FNRQ=="}}}, {"name": "module_apply_default/InceptionV3/InceptionV3/Mixed_5d/Branch_2/Conv2d_0b_3x3/Relu", "op": "_FusedConv2D", "input": ["module_apply_default/InceptionV3/InceptionV3/Mixed_5d/Branch_2/Conv2d_0a_1x1/Relu", "module_apply_default/InceptionV3/InceptionV3/Mixed_5d/Branch_2/Conv2d_0b_3x3/Conv2D_weights", "module_apply_default/InceptionV3/InceptionV3/Mixed_5d/Branch_2/Conv2d_0b_3x3/Conv2D_bn_offset"], "device": "/device:CPU:0", "attr": {"strides": {"list": {"i": ["1", "1", "1", "1"]}}, "data_format": {"s": "TkhXQw=="}, "use_cudnn_on_gpu": {"b": true}, "explicit_paddings": {"list": {}}, "num_args": {"i": "1"}, "epsilon": {"f": 0.0}, "padding": {"s": "U0FNRQ=="}, "fused_ops": {"list": {"s": ["Qmlhc0FkZA==", "UmVsdQ=="]}}, "dilations": {"list": {"i": ["1", "1", "1", "1"]}}, "T": {"type": "DT_FLOAT"}}}, {"name": "module_apply_default/InceptionV3/InceptionV3/Mixed_5d/Branch_2/Conv2d_0c_3x3/BatchNorm/FusedBatchNorm", "op": "_FusedConv2D", "input": ["module_apply_default/InceptionV3/InceptionV3/Mixed_5d/Branch_2/Conv2d_0b_3x3/Relu", "module_apply_default/InceptionV3/InceptionV3/Mixed_5d/Branch_2/Conv2d_0c_3x3/Conv2D_weights", "module_apply_default/InceptionV3/InceptionV3/Mixed_5d/Branch_2/Conv2d_0c_3x3/Conv2D_bn_offset"], "device": "/device:CPU:0", "attr": {"data_format": {"s": "TkhXQw=="}, "strides": {"list": {"i": ["1", "1", "1", "1"]}}, "explicit_paddings": {"list": {}}, "use_cudnn_on_gpu": {"b": true}, "num_args": {"i": "1"}, "epsilon": {"f": 0.0}, "padding": {"s": "U0FNRQ=="}, "fused_ops": {"list": {"s": ["Qmlhc0FkZA=="]}}, "dilations": {"list": {"i": ["1", "1", "1", "1"]}}, "T": {"type": "DT_FLOAT"}}}, {"name": "module_apply_default/InceptionV3/InceptionV3/Mixed_5d/concat", "op": "ConcatV2", "input": ["module_apply_default/InceptionV3/InceptionV3/Mixed_5d/Branch_0/Conv2d_0a_1x1/BatchNorm/FusedBatchNorm", "module_apply_default/InceptionV3/InceptionV3/Mixed_5d/Branch_1/Conv2d_0b_5x5/BatchNorm/FusedBatchNorm", "module_apply_default/InceptionV3/InceptionV3/Mixed_5d/Branch_2/Conv2d_0c_3x3/BatchNorm/FusedBatchNorm", "module_apply_default/InceptionV3/InceptionV3/Mixed_5d/Branch_3/Conv2d_0b_1x1/BatchNorm/FusedBatchNorm", "module_apply_default/InceptionV3/InceptionV3/Mixed_5b/concat/axis"], "attr": {"Tidx": {"type": "DT_INT32"}, "T": {"type": "DT_FLOAT"}, "N": {"i": "4"}}}, {"name": "module_apply_default/InceptionV3/InceptionV3/Mixed_5d/Branch_0/Conv2d_0a_1x1/Relu", "op": "Relu", "input": ["module_apply_default/InceptionV3/InceptionV3/Mixed_5d/concat"], "attr": {"T": {"type": "DT_FLOAT"}}}, {"name": "module_apply_default/InceptionV3/InceptionV3/Mixed_6a/Branch_2/MaxPool_1a_3x3/MaxPool", "op": "MaxPool", "input": ["module_apply_default/InceptionV3/InceptionV3/Mixed_5d/Branch_0/Conv2d_0a_1x1/Relu"], "attr": {"ksize": {"list": {"i": ["1", "3", "3", "1"]}}, "padding": {"s": "VkFMSUQ="}, "T": {"type": "DT_FLOAT"}, "strides": {"list": {"i": ["1", "2", "2", "1"]}}, "data_format": {"s": "TkhXQw=="}}}, {"name": "module_apply_default/InceptionV3/InceptionV3/Mixed_6a/Branch_0/Conv2d_1a_1x1/Relu", "op": "_FusedConv2D", "input": ["module_apply_default/InceptionV3/InceptionV3/Mixed_5d/Branch_0/Conv2d_0a_1x1/Relu", "module_apply_default/InceptionV3/InceptionV3/Mixed_6a/Branch_0/Conv2d_1a_1x1/Conv2D_weights", "module_apply_default/InceptionV3/InceptionV3/Mixed_6a/Branch_0/Conv2d_1a_1x1/Conv2D_bn_offset"], "device": "/device:CPU:0", "attr": {"fused_ops": {"list": {"s": ["Qmlhc0FkZA==", "UmVsdQ=="]}}, "dilations": {"list": {"i": ["1", "1", "1", "1"]}}, "T": {"type": "DT_FLOAT"}, "data_format": {"s": "TkhXQw=="}, "strides": {"list": {"i": ["1", "2", "2", "1"]}}, "use_cudnn_on_gpu": {"b": true}, "explicit_paddings": {"list": {}}, "num_args": {"i": "1"}, "epsilon": {"f": 0.0}, "padding": {"s": "VkFMSUQ="}}}, {"name": "module_apply_default/InceptionV3/InceptionV3/Mixed_6a/Branch_1/Conv2d_0a_1x1/Relu", "op": "_FusedConv2D", "input": ["module_apply_default/InceptionV3/InceptionV3/Mixed_5d/Branch_0/Conv2d_0a_1x1/Relu", "module_apply_default/InceptionV3/InceptionV3/Mixed_6a/Branch_1/Conv2d_0a_1x1/Conv2D_weights", "module_apply_default/InceptionV3/InceptionV3/Mixed_6a/Branch_1/Conv2d_0a_1x1/Conv2D_bn_offset"], "device": "/device:CPU:0", "attr": {"dilations": {"list": {"i": ["1", "1", "1", "1"]}}, "T": {"type": "DT_FLOAT"}, "data_format": {"s": "TkhXQw=="}, "strides": {"list": {"i": ["1", "1", "1", "1"]}}, "use_cudnn_on_gpu": {"b": true}, "explicit_paddings": {"list": {}}, "num_args": {"i": "1"}, "epsilon": {"f": 0.0}, "padding": {"s": "U0FNRQ=="}, "fused_ops": {"list": {"s": ["Qmlhc0FkZA==", "UmVsdQ=="]}}}}, {"name": "module_apply_default/InceptionV3/InceptionV3/Mixed_6a/Branch_1/Conv2d_0b_3x3/Relu", "op": "_FusedConv2D", "input": ["module_apply_default/InceptionV3/InceptionV3/Mixed_6a/Branch_1/Conv2d_0a_1x1/Relu", "module_apply_default/InceptionV3/InceptionV3/Mixed_6a/Branch_1/Conv2d_0b_3x3/Conv2D_weights", "module_apply_default/InceptionV3/InceptionV3/Mixed_6a/Branch_1/Conv2d_0b_3x3/Conv2D_bn_offset"], "device": "/device:CPU:0", "attr": {"epsilon": {"f": 0.0}, "padding": {"s": "U0FNRQ=="}, "fused_ops": {"list": {"s": ["Qmlhc0FkZA==", "UmVsdQ=="]}}, "dilations": {"list": {"i": ["1", "1", "1", "1"]}}, "T": {"type": "DT_FLOAT"}, "data_format": {"s": "TkhXQw=="}, "strides": {"list": {"i": ["1", "1", "1", "1"]}}, "use_cudnn_on_gpu": {"b": true}, "explicit_paddings": {"list": {}}, "num_args": {"i": "1"}}}, {"name": "module_apply_default/InceptionV3/InceptionV3/Mixed_6a/Branch_1/Conv2d_1a_1x1/Relu", "op": "_FusedConv2D", "input": ["module_apply_default/InceptionV3/InceptionV3/Mixed_6a/Branch_1/Conv2d_0b_3x3/Relu", "module_apply_default/InceptionV3/InceptionV3/Mixed_6a/Branch_1/Conv2d_1a_1x1/Conv2D_weights", "module_apply_default/InceptionV3/InceptionV3/Mixed_6a/Branch_1/Conv2d_1a_1x1/Conv2D_bn_offset"], "device": "/device:CPU:0", "attr": {"epsilon": {"f": 0.0}, "padding": {"s": "VkFMSUQ="}, "fused_ops": {"list": {"s": ["Qmlhc0FkZA==", "UmVsdQ=="]}}, "dilations": {"list": {"i": ["1", "1", "1", "1"]}}, "T": {"type": "DT_FLOAT"}, "strides": {"list": {"i": ["1", "2", "2", "1"]}}, "data_format": {"s": "TkhXQw=="}, "explicit_paddings": {"list": {}}, "use_cudnn_on_gpu": {"b": true}, "num_args": {"i": "1"}}}, {"name": "module_apply_default/InceptionV3/InceptionV3/Mixed_6a/concat", "op": "ConcatV2", "input": ["module_apply_default/InceptionV3/InceptionV3/Mixed_6a/Branch_0/Conv2d_1a_1x1/Relu", "module_apply_default/InceptionV3/InceptionV3/Mixed_6a/Branch_1/Conv2d_1a_1x1/Relu", "module_apply_default/InceptionV3/InceptionV3/Mixed_6a/Branch_2/MaxPool_1a_3x3/MaxPool", "module_apply_default/InceptionV3/InceptionV3/Mixed_5b/concat/axis"], "attr": {"T": {"type": "DT_FLOAT"}, "N": {"i": "3"}, "Tidx": {"type": "DT_INT32"}}}, {"name": "module_apply_default/InceptionV3/InceptionV3/Mixed_6b/Branch_3/AvgPool_0a_3x3/AvgPool", "op": "AvgPool", "input": ["module_apply_default/InceptionV3/InceptionV3/Mixed_6a/concat"], "attr": {"ksize": {"list": {"i": ["1", "3", "3", "1"]}}, "padding": {"s": "U0FNRQ=="}, "T": {"type": "DT_FLOAT"}, "strides": {"list": {"i": ["1", "1", "1", "1"]}}, "data_format": {"s": "TkhXQw=="}}}, {"name": "module_apply_default/InceptionV3/InceptionV3/Mixed_6b/Branch_0/Conv2d_0a_1x1/BatchNorm/FusedBatchNorm", "op": "_FusedConv2D", "input": ["module_apply_default/InceptionV3/InceptionV3/Mixed_6a/concat", "module_apply_default/InceptionV3/InceptionV3/Mixed_6b/Branch_0/Conv2d_0a_1x1/Conv2D_weights", "module_apply_default/InceptionV3/InceptionV3/Mixed_6b/Branch_0/Conv2d_0a_1x1/Conv2D_bn_offset"], "device": "/device:CPU:0", "attr": {"fused_ops": {"list": {"s": ["Qmlhc0FkZA=="]}}, "dilations": {"list": {"i": ["1", "1", "1", "1"]}}, "T": {"type": "DT_FLOAT"}, "data_format": {"s": "TkhXQw=="}, "strides": {"list": {"i": ["1", "1", "1", "1"]}}, "use_cudnn_on_gpu": {"b": true}, "explicit_paddings": {"list": {}}, "num_args": {"i": "1"}, "epsilon": {"f": 0.0}, "padding": {"s": "U0FNRQ=="}}}, {"name": "module_apply_default/InceptionV3/InceptionV3/Mixed_6b/Branch_1/Conv2d_0a_1x1/Relu", "op": "_FusedConv2D", "input": ["module_apply_default/InceptionV3/InceptionV3/Mixed_6a/concat", "module_apply_default/InceptionV3/InceptionV3/Mixed_6b/Branch_1/Conv2d_0a_1x1/Conv2D_weights", "module_apply_default/InceptionV3/InceptionV3/Mixed_6b/Branch_1/Conv2d_0a_1x1/Conv2D_bn_offset"], "device": "/device:CPU:0", "attr": {"fused_ops": {"list": {"s": ["Qmlhc0FkZA==", "UmVsdQ=="]}}, "dilations": {"list": {"i": ["1", "1", "1", "1"]}}, "T": {"type": "DT_FLOAT"}, "strides": {"list": {"i": ["1", "1", "1", "1"]}}, "data_format": {"s": "TkhXQw=="}, "use_cudnn_on_gpu": {"b": true}, "explicit_paddings": {"list": {}}, "num_args": {"i": "1"}, "epsilon": {"f": 0.0}, "padding": {"s": "U0FNRQ=="}}}, {"name": "module_apply_default/InceptionV3/InceptionV3/Mixed_6b/Branch_2/Conv2d_0a_1x1/Relu", "op": "_FusedConv2D", "input": ["module_apply_default/InceptionV3/InceptionV3/Mixed_6a/concat", "module_apply_default/InceptionV3/InceptionV3/Mixed_6b/Branch_2/Conv2d_0a_1x1/Conv2D_weights", "module_apply_default/InceptionV3/InceptionV3/Mixed_6b/Branch_2/Conv2d_0a_1x1/Conv2D_bn_offset"], "device": "/device:CPU:0", "attr": {"dilations": {"list": {"i": ["1", "1", "1", "1"]}}, "T": {"type": "DT_FLOAT"}, "strides": {"list": {"i": ["1", "1", "1", "1"]}}, "data_format": {"s": "TkhXQw=="}, "explicit_paddings": {"list": {}}, "use_cudnn_on_gpu": {"b": true}, "num_args": {"i": "1"}, "epsilon": {"f": 0.0}, "padding": {"s": "U0FNRQ=="}, "fused_ops": {"list": {"s": ["Qmlhc0FkZA==", "UmVsdQ=="]}}}}, {"name": "module_apply_default/InceptionV3/InceptionV3/Mixed_6b/Branch_3/Conv2d_0b_1x1/BatchNorm/FusedBatchNorm", "op": "_FusedConv2D", "input": ["module_apply_default/InceptionV3/InceptionV3/Mixed_6b/Branch_3/AvgPool_0a_3x3/AvgPool", "module_apply_default/InceptionV3/InceptionV3/Mixed_6b/Branch_3/Conv2d_0b_1x1/Conv2D_weights", "module_apply_default/InceptionV3/InceptionV3/Mixed_6b/Branch_3/Conv2d_0b_1x1/Conv2D_bn_offset"], "device": "/device:CPU:0", "attr": {"epsilon": {"f": 0.0}, "padding": {"s": "U0FNRQ=="}, "fused_ops": {"list": {"s": ["Qmlhc0FkZA=="]}}, "dilations": {"list": {"i": ["1", "1", "1", "1"]}}, "T": {"type": "DT_FLOAT"}, "strides": {"list": {"i": ["1", "1", "1", "1"]}}, "data_format": {"s": "TkhXQw=="}, "use_cudnn_on_gpu": {"b": true}, "explicit_paddings": {"list": {}}, "num_args": {"i": "1"}}}, {"name": "module_apply_default/InceptionV3/InceptionV3/Mixed_6b/Branch_1/Conv2d_0b_1x7/Relu", "op": "_FusedConv2D", "input": ["module_apply_default/InceptionV3/InceptionV3/Mixed_6b/Branch_1/Conv2d_0a_1x1/Relu", "module_apply_default/InceptionV3/InceptionV3/Mixed_6b/Branch_1/Conv2d_0b_1x7/Conv2D_weights", "module_apply_default/InceptionV3/InceptionV3/Mixed_6b/Branch_1/Conv2d_0b_1x7/Conv2D_bn_offset"], "device": "/device:CPU:0", "attr": {"epsilon": {"f": 0.0}, "padding": {"s": "U0FNRQ=="}, "fused_ops": {"list": {"s": ["Qmlhc0FkZA==", "UmVsdQ=="]}}, "dilations": {"list": {"i": ["1", "1", "1", "1"]}}, "T": {"type": "DT_FLOAT"}, "strides": {"list": {"i": ["1", "1", "1", "1"]}}, "data_format": {"s": "TkhXQw=="}, "use_cudnn_on_gpu": {"b": true}, "explicit_paddings": {"list": {}}, "num_args": {"i": "1"}}}, {"name": "module_apply_default/InceptionV3/InceptionV3/Mixed_6b/Branch_2/Conv2d_0b_7x1/Relu", "op": "_FusedConv2D", "input": ["module_apply_default/InceptionV3/InceptionV3/Mixed_6b/Branch_2/Conv2d_0a_1x1/Relu", "module_apply_default/InceptionV3/InceptionV3/Mixed_6b/Branch_2/Conv2d_0b_7x1/Conv2D_weights", "module_apply_default/InceptionV3/InceptionV3/Mixed_6b/Branch_2/Conv2d_0b_7x1/Conv2D_bn_offset"], "device": "/device:CPU:0", "attr": {"dilations": {"list": {"i": ["1", "1", "1", "1"]}}, "T": {"type": "DT_FLOAT"}, "strides": {"list": {"i": ["1", "1", "1", "1"]}}, "data_format": {"s": "TkhXQw=="}, "explicit_paddings": {"list": {}}, "use_cudnn_on_gpu": {"b": true}, "num_args": {"i": "1"}, "epsilon": {"f": 0.0}, "padding": {"s": "U0FNRQ=="}, "fused_ops": {"list": {"s": ["Qmlhc0FkZA==", "UmVsdQ=="]}}}}, {"name": "module_apply_default/InceptionV3/InceptionV3/Mixed_6b/Branch_1/Conv2d_0c_7x1/BatchNorm/FusedBatchNorm", "op": "_FusedConv2D", "input": ["module_apply_default/InceptionV3/InceptionV3/Mixed_6b/Branch_1/Conv2d_0b_1x7/Relu", "module_apply_default/InceptionV3/InceptionV3/Mixed_6b/Branch_1/Conv2d_0c_7x1/Conv2D_weights", "module_apply_default/InceptionV3/InceptionV3/Mixed_6b/Branch_1/Conv2d_0c_7x1/Conv2D_bn_offset"], "device": "/device:CPU:0", "attr": {"epsilon": {"f": 0.0}, "padding": {"s": "U0FNRQ=="}, "fused_ops": {"list": {"s": ["Qmlhc0FkZA=="]}}, "dilations": {"list": {"i": ["1", "1", "1", "1"]}}, "T": {"type": "DT_FLOAT"}, "strides": {"list": {"i": ["1", "1", "1", "1"]}}, "data_format": {"s": "TkhXQw=="}, "use_cudnn_on_gpu": {"b": true}, "explicit_paddings": {"list": {}}, "num_args": {"i": "1"}}}, {"name": "module_apply_default/InceptionV3/InceptionV3/Mixed_6b/Branch_2/Conv2d_0c_1x7/Relu", "op": "_FusedConv2D", "input": ["module_apply_default/InceptionV3/InceptionV3/Mixed_6b/Branch_2/Conv2d_0b_7x1/Relu", "module_apply_default/InceptionV3/InceptionV3/Mixed_6b/Branch_2/Conv2d_0c_1x7/Conv2D_weights", "module_apply_default/InceptionV3/InceptionV3/Mixed_6b/Branch_2/Conv2d_0c_1x7/Conv2D_bn_offset"], "device": "/device:CPU:0", "attr": {"dilations": {"list": {"i": ["1", "1", "1", "1"]}}, "T": {"type": "DT_FLOAT"}, "data_format": {"s": "TkhXQw=="}, "strides": {"list": {"i": ["1", "1", "1", "1"]}}, "explicit_paddings": {"list": {}}, "use_cudnn_on_gpu": {"b": true}, "num_args": {"i": "1"}, "epsilon": {"f": 0.0}, "padding": {"s": "U0FNRQ=="}, "fused_ops": {"list": {"s": ["Qmlhc0FkZA==", "UmVsdQ=="]}}}}, {"name": "module_apply_default/InceptionV3/InceptionV3/Mixed_6b/Branch_2/Conv2d_0d_7x1/Relu", "op": "_FusedConv2D", "input": ["module_apply_default/InceptionV3/InceptionV3/Mixed_6b/Branch_2/Conv2d_0c_1x7/Relu", "module_apply_default/InceptionV3/InceptionV3/Mixed_6b/Branch_2/Conv2d_0d_7x1/Conv2D_weights", "module_apply_default/InceptionV3/InceptionV3/Mixed_6b/Branch_2/Conv2d_0d_7x1/Conv2D_bn_offset"], "device": "/device:CPU:0", "attr": {"num_args": {"i": "1"}, "epsilon": {"f": 0.0}, "padding": {"s": "U0FNRQ=="}, "fused_ops": {"list": {"s": ["Qmlhc0FkZA==", "UmVsdQ=="]}}, "dilations": {"list": {"i": ["1", "1", "1", "1"]}}, "T": {"type": "DT_FLOAT"}, "strides": {"list": {"i": ["1", "1", "1", "1"]}}, "data_format": {"s": "TkhXQw=="}, "use_cudnn_on_gpu": {"b": true}, "explicit_paddings": {"list": {}}}}, {"name": "module_apply_default/InceptionV3/InceptionV3/Mixed_6b/Branch_2/Conv2d_0e_1x7/BatchNorm/FusedBatchNorm", "op": "_FusedConv2D", "input": ["module_apply_default/InceptionV3/InceptionV3/Mixed_6b/Branch_2/Conv2d_0d_7x1/Relu", "module_apply_default/InceptionV3/InceptionV3/Mixed_6b/Branch_2/Conv2d_0e_1x7/Conv2D_weights", "module_apply_default/InceptionV3/InceptionV3/Mixed_6b/Branch_2/Conv2d_0e_1x7/Conv2D_bn_offset"], "device": "/device:CPU:0", "attr": {"dilations": {"list": {"i": ["1", "1", "1", "1"]}}, "T": {"type": "DT_FLOAT"}, "data_format": {"s": "TkhXQw=="}, "strides": {"list": {"i": ["1", "1", "1", "1"]}}, "use_cudnn_on_gpu": {"b": true}, "explicit_paddings": {"list": {}}, "num_args": {"i": "1"}, "epsilon": {"f": 0.0}, "padding": {"s": "U0FNRQ=="}, "fused_ops": {"list": {"s": ["Qmlhc0FkZA=="]}}}}, {"name": "module_apply_default/InceptionV3/InceptionV3/Mixed_6b/concat", "op": "ConcatV2", "input": ["module_apply_default/InceptionV3/InceptionV3/Mixed_6b/Branch_0/Conv2d_0a_1x1/BatchNorm/FusedBatchNorm", "module_apply_default/InceptionV3/InceptionV3/Mixed_6b/Branch_1/Conv2d_0c_7x1/BatchNorm/FusedBatchNorm", "module_apply_default/InceptionV3/InceptionV3/Mixed_6b/Branch_2/Conv2d_0e_1x7/BatchNorm/FusedBatchNorm", "module_apply_default/InceptionV3/InceptionV3/Mixed_6b/Branch_3/Conv2d_0b_1x1/BatchNorm/FusedBatchNorm", "module_apply_default/InceptionV3/InceptionV3/Mixed_5b/concat/axis"], "attr": {"N": {"i": "4"}, "Tidx": {"type": "DT_INT32"}, "T": {"type": "DT_FLOAT"}}}, {"name": "module_apply_default/InceptionV3/InceptionV3/Mixed_6b/Branch_0/Conv2d_0a_1x1/Relu", "op": "Relu", "input": ["module_apply_default/InceptionV3/InceptionV3/Mixed_6b/concat"], "attr": {"T": {"type": "DT_FLOAT"}}}, {"name": "module_apply_default/InceptionV3/InceptionV3/Mixed_6c/Branch_3/AvgPool_0a_3x3/AvgPool", "op": "AvgPool", "input": ["module_apply_default/InceptionV3/InceptionV3/Mixed_6b/Branch_0/Conv2d_0a_1x1/Relu"], "attr": {"ksize": {"list": {"i": ["1", "3", "3", "1"]}}, "padding": {"s": "U0FNRQ=="}, "T": {"type": "DT_FLOAT"}, "strides": {"list": {"i": ["1", "1", "1", "1"]}}, "data_format": {"s": "TkhXQw=="}}}, {"name": "module_apply_default/InceptionV3/InceptionV3/Mixed_6c/Branch_0/Conv2d_0a_1x1/BatchNorm/FusedBatchNorm", "op": "_FusedConv2D", "input": ["module_apply_default/InceptionV3/InceptionV3/Mixed_6b/Branch_0/Conv2d_0a_1x1/Relu", "module_apply_default/InceptionV3/InceptionV3/Mixed_6c/Branch_0/Conv2d_0a_1x1/Conv2D_weights", "module_apply_default/InceptionV3/InceptionV3/Mixed_6c/Branch_0/Conv2d_0a_1x1/Conv2D_bn_offset"], "device": "/device:CPU:0", "attr": {"epsilon": {"f": 0.0}, "padding": {"s": "U0FNRQ=="}, "fused_ops": {"list": {"s": ["Qmlhc0FkZA=="]}}, "dilations": {"list": {"i": ["1", "1", "1", "1"]}}, "T": {"type": "DT_FLOAT"}, "strides": {"list": {"i": ["1", "1", "1", "1"]}}, "data_format": {"s": "TkhXQw=="}, "explicit_paddings": {"list": {}}, "use_cudnn_on_gpu": {"b": true}, "num_args": {"i": "1"}}}, {"name": "module_apply_default/InceptionV3/InceptionV3/Mixed_6c/Branch_1/Conv2d_0a_1x1/Relu", "op": "_FusedConv2D", "input": ["module_apply_default/InceptionV3/InceptionV3/Mixed_6b/Branch_0/Conv2d_0a_1x1/Relu", "module_apply_default/InceptionV3/InceptionV3/Mixed_6c/Branch_1/Conv2d_0a_1x1/Conv2D_weights", "module_apply_default/InceptionV3/InceptionV3/Mixed_6c/Branch_1/Conv2d_0a_1x1/Conv2D_bn_offset"], "device": "/device:CPU:0", "attr": {"num_args": {"i": "1"}, "epsilon": {"f": 0.0}, "padding": {"s": "U0FNRQ=="}, "fused_ops": {"list": {"s": ["Qmlhc0FkZA==", "UmVsdQ=="]}}, "dilations": {"list": {"i": ["1", "1", "1", "1"]}}, "T": {"type": "DT_FLOAT"}, "strides": {"list": {"i": ["1", "1", "1", "1"]}}, "data_format": {"s": "TkhXQw=="}, "use_cudnn_on_gpu": {"b": true}, "explicit_paddings": {"list": {}}}}, {"name": "module_apply_default/InceptionV3/InceptionV3/Mixed_6c/Branch_2/Conv2d_0a_1x1/Relu", "op": "_FusedConv2D", "input": ["module_apply_default/InceptionV3/InceptionV3/Mixed_6b/Branch_0/Conv2d_0a_1x1/Relu", "module_apply_default/InceptionV3/InceptionV3/Mixed_6c/Branch_2/Conv2d_0a_1x1/Conv2D_weights", "module_apply_default/InceptionV3/InceptionV3/Mixed_6c/Branch_2/Conv2d_0a_1x1/Conv2D_bn_offset"], "device": "/device:CPU:0", "attr": {"epsilon": {"f": 0.0}, "padding": {"s": "U0FNRQ=="}, "fused_ops": {"list": {"s": ["Qmlhc0FkZA==", "UmVsdQ=="]}}, "dilations": {"list": {"i": ["1", "1", "1", "1"]}}, "T": {"type": "DT_FLOAT"}, "strides": {"list": {"i": ["1", "1", "1", "1"]}}, "data_format": {"s": "TkhXQw=="}, "explicit_paddings": {"list": {}}, "use_cudnn_on_gpu": {"b": true}, "num_args": {"i": "1"}}}, {"name": "module_apply_default/InceptionV3/InceptionV3/Mixed_6c/Branch_3/Conv2d_0b_1x1/BatchNorm/FusedBatchNorm", "op": "_FusedConv2D", "input": ["module_apply_default/InceptionV3/InceptionV3/Mixed_6c/Branch_3/AvgPool_0a_3x3/AvgPool", "module_apply_default/InceptionV3/InceptionV3/Mixed_6c/Branch_3/Conv2d_0b_1x1/Conv2D_weights", "module_apply_default/InceptionV3/InceptionV3/Mixed_6c/Branch_3/Conv2d_0b_1x1/Conv2D_bn_offset"], "device": "/device:CPU:0", "attr": {"data_format": {"s": "TkhXQw=="}, "strides": {"list": {"i": ["1", "1", "1", "1"]}}, "use_cudnn_on_gpu": {"b": true}, "explicit_paddings": {"list": {}}, "num_args": {"i": "1"}, "epsilon": {"f": 0.0}, "padding": {"s": "U0FNRQ=="}, "fused_ops": {"list": {"s": ["Qmlhc0FkZA=="]}}, "dilations": {"list": {"i": ["1", "1", "1", "1"]}}, "T": {"type": "DT_FLOAT"}}}, {"name": "module_apply_default/InceptionV3/InceptionV3/Mixed_6c/Branch_1/Conv2d_0b_1x7/Relu", "op": "_FusedConv2D", "input": ["module_apply_default/InceptionV3/InceptionV3/Mixed_6c/Branch_1/Conv2d_0a_1x1/Relu", "module_apply_default/InceptionV3/InceptionV3/Mixed_6c/Branch_1/Conv2d_0b_1x7/Conv2D_weights", "module_apply_default/InceptionV3/InceptionV3/Mixed_6c/Branch_1/Conv2d_0b_1x7/Conv2D_bn_offset"], "device": "/device:CPU:0", "attr": {"num_args": {"i": "1"}, "epsilon": {"f": 0.0}, "padding": {"s": "U0FNRQ=="}, "fused_ops": {"list": {"s": ["Qmlhc0FkZA==", "UmVsdQ=="]}}, "dilations": {"list": {"i": ["1", "1", "1", "1"]}}, "T": {"type": "DT_FLOAT"}, "data_format": {"s": "TkhXQw=="}, "strides": {"list": {"i": ["1", "1", "1", "1"]}}, "explicit_paddings": {"list": {}}, "use_cudnn_on_gpu": {"b": true}}}, {"name": "module_apply_default/InceptionV3/InceptionV3/Mixed_6c/Branch_2/Conv2d_0b_7x1/Relu", "op": "_FusedConv2D", "input": ["module_apply_default/InceptionV3/InceptionV3/Mixed_6c/Branch_2/Conv2d_0a_1x1/Relu", "module_apply_default/InceptionV3/InceptionV3/Mixed_6c/Branch_2/Conv2d_0b_7x1/Conv2D_weights", "module_apply_default/InceptionV3/InceptionV3/Mixed_6c/Branch_2/Conv2d_0b_7x1/Conv2D_bn_offset"], "device": "/device:CPU:0", "attr": {"T": {"type": "DT_FLOAT"}, "strides": {"list": {"i": ["1", "1", "1", "1"]}}, "data_format": {"s": "TkhXQw=="}, "use_cudnn_on_gpu": {"b": true}, "explicit_paddings": {"list": {}}, "num_args": {"i": "1"}, "epsilon": {"f": 0.0}, "padding": {"s": "U0FNRQ=="}, "fused_ops": {"list": {"s": ["Qmlhc0FkZA==", "UmVsdQ=="]}}, "dilations": {"list": {"i": ["1", "1", "1", "1"]}}}}, {"name": "module_apply_default/InceptionV3/InceptionV3/Mixed_6c/Branch_1/Conv2d_0c_7x1/BatchNorm/FusedBatchNorm", "op": "_FusedConv2D", "input": ["module_apply_default/InceptionV3/InceptionV3/Mixed_6c/Branch_1/Conv2d_0b_1x7/Relu", "module_apply_default/InceptionV3/InceptionV3/Mixed_6c/Branch_1/Conv2d_0c_7x1/Conv2D_weights", "module_apply_default/InceptionV3/InceptionV3/Mixed_6c/Branch_1/Conv2d_0c_7x1/Conv2D_bn_offset"], "device": "/device:CPU:0", "attr": {"num_args": {"i": "1"}, "epsilon": {"f": 0.0}, "padding": {"s": "U0FNRQ=="}, "fused_ops": {"list": {"s": ["Qmlhc0FkZA=="]}}, "dilations": {"list": {"i": ["1", "1", "1", "1"]}}, "T": {"type": "DT_FLOAT"}, "strides": {"list": {"i": ["1", "1", "1", "1"]}}, "data_format": {"s": "TkhXQw=="}, "explicit_paddings": {"list": {}}, "use_cudnn_on_gpu": {"b": true}}}, {"name": "module_apply_default/InceptionV3/InceptionV3/Mixed_6c/Branch_2/Conv2d_0c_1x7/Relu", "op": "_FusedConv2D", "input": ["module_apply_default/InceptionV3/InceptionV3/Mixed_6c/Branch_2/Conv2d_0b_7x1/Relu", "module_apply_default/InceptionV3/InceptionV3/Mixed_6c/Branch_2/Conv2d_0c_1x7/Conv2D_weights", "module_apply_default/InceptionV3/InceptionV3/Mixed_6c/Branch_2/Conv2d_0c_1x7/Conv2D_bn_offset"], "device": "/device:CPU:0", "attr": {"dilations": {"list": {"i": ["1", "1", "1", "1"]}}, "T": {"type": "DT_FLOAT"}, "strides": {"list": {"i": ["1", "1", "1", "1"]}}, "data_format": {"s": "TkhXQw=="}, "use_cudnn_on_gpu": {"b": true}, "explicit_paddings": {"list": {}}, "num_args": {"i": "1"}, "epsilon": {"f": 0.0}, "padding": {"s": "U0FNRQ=="}, "fused_ops": {"list": {"s": ["Qmlhc0FkZA==", "UmVsdQ=="]}}}}, {"name": "module_apply_default/InceptionV3/InceptionV3/Mixed_6c/Branch_2/Conv2d_0d_7x1/Relu", "op": "_FusedConv2D", "input": ["module_apply_default/InceptionV3/InceptionV3/Mixed_6c/Branch_2/Conv2d_0c_1x7/Relu", "module_apply_default/InceptionV3/InceptionV3/Mixed_6c/Branch_2/Conv2d_0d_7x1/Conv2D_weights", "module_apply_default/InceptionV3/InceptionV3/Mixed_6c/Branch_2/Conv2d_0d_7x1/Conv2D_bn_offset"], "device": "/device:CPU:0", "attr": {"fused_ops": {"list": {"s": ["Qmlhc0FkZA==", "UmVsdQ=="]}}, "dilations": {"list": {"i": ["1", "1", "1", "1"]}}, "T": {"type": "DT_FLOAT"}, "strides": {"list": {"i": ["1", "1", "1", "1"]}}, "data_format": {"s": "TkhXQw=="}, "use_cudnn_on_gpu": {"b": true}, "explicit_paddings": {"list": {}}, "num_args": {"i": "1"}, "epsilon": {"f": 0.0}, "padding": {"s": "U0FNRQ=="}}}, {"name": "module_apply_default/InceptionV3/InceptionV3/Mixed_6c/Branch_2/Conv2d_0e_1x7/BatchNorm/FusedBatchNorm", "op": "_FusedConv2D", "input": ["module_apply_default/InceptionV3/InceptionV3/Mixed_6c/Branch_2/Conv2d_0d_7x1/Relu", "module_apply_default/InceptionV3/InceptionV3/Mixed_6c/Branch_2/Conv2d_0e_1x7/Conv2D_weights", "module_apply_default/InceptionV3/InceptionV3/Mixed_6c/Branch_2/Conv2d_0e_1x7/Conv2D_bn_offset"], "device": "/device:CPU:0", "attr": {"dilations": {"list": {"i": ["1", "1", "1", "1"]}}, "T": {"type": "DT_FLOAT"}, "data_format": {"s": "TkhXQw=="}, "strides": {"list": {"i": ["1", "1", "1", "1"]}}, "use_cudnn_on_gpu": {"b": true}, "explicit_paddings": {"list": {}}, "num_args": {"i": "1"}, "epsilon": {"f": 0.0}, "padding": {"s": "U0FNRQ=="}, "fused_ops": {"list": {"s": ["Qmlhc0FkZA=="]}}}}, {"name": "module_apply_default/InceptionV3/InceptionV3/Mixed_6c/concat", "op": "ConcatV2", "input": ["module_apply_default/InceptionV3/InceptionV3/Mixed_6c/Branch_0/Conv2d_0a_1x1/BatchNorm/FusedBatchNorm", "module_apply_default/InceptionV3/InceptionV3/Mixed_6c/Branch_1/Conv2d_0c_7x1/BatchNorm/FusedBatchNorm", "module_apply_default/InceptionV3/InceptionV3/Mixed_6c/Branch_2/Conv2d_0e_1x7/BatchNorm/FusedBatchNorm", "module_apply_default/InceptionV3/InceptionV3/Mixed_6c/Branch_3/Conv2d_0b_1x1/BatchNorm/FusedBatchNorm", "module_apply_default/InceptionV3/InceptionV3/Mixed_5b/concat/axis"], "attr": {"N": {"i": "4"}, "Tidx": {"type": "DT_INT32"}, "T": {"type": "DT_FLOAT"}}}, {"name": "module_apply_default/InceptionV3/InceptionV3/Mixed_6c/Branch_0/Conv2d_0a_1x1/Relu", "op": "Relu", "input": ["module_apply_default/InceptionV3/InceptionV3/Mixed_6c/concat"], "attr": {"T": {"type": "DT_FLOAT"}}}, {"name": "module_apply_default/InceptionV3/InceptionV3/Mixed_6d/Branch_3/AvgPool_0a_3x3/AvgPool", "op": "AvgPool", "input": ["module_apply_default/InceptionV3/InceptionV3/Mixed_6c/Branch_0/Conv2d_0a_1x1/Relu"], "attr": {"data_format": {"s": "TkhXQw=="}, "strides": {"list": {"i": ["1", "1", "1", "1"]}}, "ksize": {"list": {"i": ["1", "3", "3", "1"]}}, "padding": {"s": "U0FNRQ=="}, "T": {"type": "DT_FLOAT"}}}, {"name": "module_apply_default/InceptionV3/InceptionV3/Mixed_6d/Branch_0/Conv2d_0a_1x1/BatchNorm/FusedBatchNorm", "op": "_FusedConv2D", "input": ["module_apply_default/InceptionV3/InceptionV3/Mixed_6c/Branch_0/Conv2d_0a_1x1/Relu", "module_apply_default/InceptionV3/InceptionV3/Mixed_6d/Branch_0/Conv2d_0a_1x1/Conv2D_weights", "module_apply_default/InceptionV3/InceptionV3/Mixed_6d/Branch_0/Conv2d_0a_1x1/Conv2D_bn_offset"], "device": "/device:CPU:0", "attr": {"T": {"type": "DT_FLOAT"}, "data_format": {"s": "TkhXQw=="}, "strides": {"list": {"i": ["1", "1", "1", "1"]}}, "use_cudnn_on_gpu": {"b": true}, "explicit_paddings": {"list": {}}, "num_args": {"i": "1"}, "epsilon": {"f": 0.0}, "padding": {"s": "U0FNRQ=="}, "fused_ops": {"list": {"s": ["Qmlhc0FkZA=="]}}, "dilations": {"list": {"i": ["1", "1", "1", "1"]}}}}, {"name": "module_apply_default/InceptionV3/InceptionV3/Mixed_6d/Branch_1/Conv2d_0a_1x1/Relu", "op": "_FusedConv2D", "input": ["module_apply_default/InceptionV3/InceptionV3/Mixed_6c/Branch_0/Conv2d_0a_1x1/Relu", "module_apply_default/InceptionV3/InceptionV3/Mixed_6d/Branch_1/Conv2d_0a_1x1/Conv2D_weights", "module_apply_default/InceptionV3/InceptionV3/Mixed_6d/Branch_1/Conv2d_0a_1x1/Conv2D_bn_offset"], "device": "/device:CPU:0", "attr": {"fused_ops": {"list": {"s": ["Qmlhc0FkZA==", "UmVsdQ=="]}}, "dilations": {"list": {"i": ["1", "1", "1", "1"]}}, "T": {"type": "DT_FLOAT"}, "strides": {"list": {"i": ["1", "1", "1", "1"]}}, "data_format": {"s": "TkhXQw=="}, "use_cudnn_on_gpu": {"b": true}, "explicit_paddings": {"list": {}}, "num_args": {"i": "1"}, "epsilon": {"f": 0.0}, "padding": {"s": "U0FNRQ=="}}}, {"name": "module_apply_default/InceptionV3/InceptionV3/Mixed_6d/Branch_2/Conv2d_0a_1x1/Relu", "op": "_FusedConv2D", "input": ["module_apply_default/InceptionV3/InceptionV3/Mixed_6c/Branch_0/Conv2d_0a_1x1/Relu", "module_apply_default/InceptionV3/InceptionV3/Mixed_6d/Branch_2/Conv2d_0a_1x1/Conv2D_weights", "module_apply_default/InceptionV3/InceptionV3/Mixed_6d/Branch_2/Conv2d_0a_1x1/Conv2D_bn_offset"], "device": "/device:CPU:0", "attr": {"fused_ops": {"list": {"s": ["Qmlhc0FkZA==", "UmVsdQ=="]}}, "dilations": {"list": {"i": ["1", "1", "1", "1"]}}, "T": {"type": "DT_FLOAT"}, "data_format": {"s": "TkhXQw=="}, "strides": {"list": {"i": ["1", "1", "1", "1"]}}, "explicit_paddings": {"list": {}}, "use_cudnn_on_gpu": {"b": true}, "num_args": {"i": "1"}, "epsilon": {"f": 0.0}, "padding": {"s": "U0FNRQ=="}}}, {"name": "module_apply_default/InceptionV3/InceptionV3/Mixed_6d/Branch_3/Conv2d_0b_1x1/BatchNorm/FusedBatchNorm", "op": "_FusedConv2D", "input": ["module_apply_default/InceptionV3/InceptionV3/Mixed_6d/Branch_3/AvgPool_0a_3x3/AvgPool", "module_apply_default/InceptionV3/InceptionV3/Mixed_6d/Branch_3/Conv2d_0b_1x1/Conv2D_weights", "module_apply_default/InceptionV3/InceptionV3/Mixed_6d/Branch_3/Conv2d_0b_1x1/Conv2D_bn_offset"], "device": "/device:CPU:0", "attr": {"dilations": {"list": {"i": ["1", "1", "1", "1"]}}, "T": {"type": "DT_FLOAT"}, "strides": {"list": {"i": ["1", "1", "1", "1"]}}, "data_format": {"s": "TkhXQw=="}, "use_cudnn_on_gpu": {"b": true}, "explicit_paddings": {"list": {}}, "num_args": {"i": "1"}, "epsilon": {"f": 0.0}, "padding": {"s": "U0FNRQ=="}, "fused_ops": {"list": {"s": ["Qmlhc0FkZA=="]}}}}, {"name": "module_apply_default/InceptionV3/InceptionV3/Mixed_6d/Branch_1/Conv2d_0b_1x7/Relu", "op": "_FusedConv2D", "input": ["module_apply_default/InceptionV3/InceptionV3/Mixed_6d/Branch_1/Conv2d_0a_1x1/Relu", "module_apply_default/InceptionV3/InceptionV3/Mixed_6d/Branch_1/Conv2d_0b_1x7/Conv2D_weights", "module_apply_default/InceptionV3/InceptionV3/Mixed_6d/Branch_1/Conv2d_0b_1x7/Conv2D_bn_offset"], "device": "/device:CPU:0", "attr": {"data_format": {"s": "TkhXQw=="}, "strides": {"list": {"i": ["1", "1", "1", "1"]}}, "explicit_paddings": {"list": {}}, "use_cudnn_on_gpu": {"b": true}, "num_args": {"i": "1"}, "epsilon": {"f": 0.0}, "padding": {"s": "U0FNRQ=="}, "fused_ops": {"list": {"s": ["Qmlhc0FkZA==", "UmVsdQ=="]}}, "dilations": {"list": {"i": ["1", "1", "1", "1"]}}, "T": {"type": "DT_FLOAT"}}}, {"name": "module_apply_default/InceptionV3/InceptionV3/Mixed_6d/Branch_2/Conv2d_0b_7x1/Relu", "op": "_FusedConv2D", "input": ["module_apply_default/InceptionV3/InceptionV3/Mixed_6d/Branch_2/Conv2d_0a_1x1/Relu", "module_apply_default/InceptionV3/InceptionV3/Mixed_6d/Branch_2/Conv2d_0b_7x1/Conv2D_weights", "module_apply_default/InceptionV3/InceptionV3/Mixed_6d/Branch_2/Conv2d_0b_7x1/Conv2D_bn_offset"], "device": "/device:CPU:0", "attr": {"fused_ops": {"list": {"s": ["Qmlhc0FkZA==", "UmVsdQ=="]}}, "dilations": {"list": {"i": ["1", "1", "1", "1"]}}, "T": {"type": "DT_FLOAT"}, "data_format": {"s": "TkhXQw=="}, "strides": {"list": {"i": ["1", "1", "1", "1"]}}, "explicit_paddings": {"list": {}}, "use_cudnn_on_gpu": {"b": true}, "num_args": {"i": "1"}, "epsilon": {"f": 0.0}, "padding": {"s": "U0FNRQ=="}}}, {"name": "module_apply_default/InceptionV3/InceptionV3/Mixed_6d/Branch_1/Conv2d_0c_7x1/BatchNorm/FusedBatchNorm", "op": "_FusedConv2D", "input": ["module_apply_default/InceptionV3/InceptionV3/Mixed_6d/Branch_1/Conv2d_0b_1x7/Relu", "module_apply_default/InceptionV3/InceptionV3/Mixed_6d/Branch_1/Conv2d_0c_7x1/Conv2D_weights", "module_apply_default/InceptionV3/InceptionV3/Mixed_6d/Branch_1/Conv2d_0c_7x1/Conv2D_bn_offset"], "device": "/device:CPU:0", "attr": {"T": {"type": "DT_FLOAT"}, "strides": {"list": {"i": ["1", "1", "1", "1"]}}, "data_format": {"s": "TkhXQw=="}, "use_cudnn_on_gpu": {"b": true}, "explicit_paddings": {"list": {}}, "num_args": {"i": "1"}, "epsilon": {"f": 0.0}, "padding": {"s": "U0FNRQ=="}, "fused_ops": {"list": {"s": ["Qmlhc0FkZA=="]}}, "dilations": {"list": {"i": ["1", "1", "1", "1"]}}}}, {"name": "module_apply_default/InceptionV3/InceptionV3/Mixed_6d/Branch_2/Conv2d_0c_1x7/Relu", "op": "_FusedConv2D", "input": ["module_apply_default/InceptionV3/InceptionV3/Mixed_6d/Branch_2/Conv2d_0b_7x1/Relu", "module_apply_default/InceptionV3/InceptionV3/Mixed_6d/Branch_2/Conv2d_0c_1x7/Conv2D_weights", "module_apply_default/InceptionV3/InceptionV3/Mixed_6d/Branch_2/Conv2d_0c_1x7/Conv2D_bn_offset"], "device": "/device:CPU:0", "attr": {"dilations": {"list": {"i": ["1", "1", "1", "1"]}}, "T": {"type": "DT_FLOAT"}, "data_format": {"s": "TkhXQw=="}, "strides": {"list": {"i": ["1", "1", "1", "1"]}}, "use_cudnn_on_gpu": {"b": true}, "explicit_paddings": {"list": {}}, "num_args": {"i": "1"}, "epsilon": {"f": 0.0}, "padding": {"s": "U0FNRQ=="}, "fused_ops": {"list": {"s": ["Qmlhc0FkZA==", "UmVsdQ=="]}}}}, {"name": "module_apply_default/InceptionV3/InceptionV3/Mixed_6d/Branch_2/Conv2d_0d_7x1/Relu", "op": "_FusedConv2D", "input": ["module_apply_default/InceptionV3/InceptionV3/Mixed_6d/Branch_2/Conv2d_0c_1x7/Relu", "module_apply_default/InceptionV3/InceptionV3/Mixed_6d/Branch_2/Conv2d_0d_7x1/Conv2D_weights", "module_apply_default/InceptionV3/InceptionV3/Mixed_6d/Branch_2/Conv2d_0d_7x1/Conv2D_bn_offset"], "device": "/device:CPU:0", "attr": {"dilations": {"list": {"i": ["1", "1", "1", "1"]}}, "T": {"type": "DT_FLOAT"}, "strides": {"list": {"i": ["1", "1", "1", "1"]}}, "data_format": {"s": "TkhXQw=="}, "explicit_paddings": {"list": {}}, "use_cudnn_on_gpu": {"b": true}, "num_args": {"i": "1"}, "epsilon": {"f": 0.0}, "padding": {"s": "U0FNRQ=="}, "fused_ops": {"list": {"s": ["Qmlhc0FkZA==", "UmVsdQ=="]}}}}, {"name": "module_apply_default/InceptionV3/InceptionV3/Mixed_6d/Branch_2/Conv2d_0e_1x7/BatchNorm/FusedBatchNorm", "op": "_FusedConv2D", "input": ["module_apply_default/InceptionV3/InceptionV3/Mixed_6d/Branch_2/Conv2d_0d_7x1/Relu", "module_apply_default/InceptionV3/InceptionV3/Mixed_6d/Branch_2/Conv2d_0e_1x7/Conv2D_weights", "module_apply_default/InceptionV3/InceptionV3/Mixed_6d/Branch_2/Conv2d_0e_1x7/Conv2D_bn_offset"], "device": "/device:CPU:0", "attr": {"T": {"type": "DT_FLOAT"}, "data_format": {"s": "TkhXQw=="}, "strides": {"list": {"i": ["1", "1", "1", "1"]}}, "explicit_paddings": {"list": {}}, "use_cudnn_on_gpu": {"b": true}, "num_args": {"i": "1"}, "epsilon": {"f": 0.0}, "padding": {"s": "U0FNRQ=="}, "fused_ops": {"list": {"s": ["Qmlhc0FkZA=="]}}, "dilations": {"list": {"i": ["1", "1", "1", "1"]}}}}, {"name": "module_apply_default/InceptionV3/InceptionV3/Mixed_6d/concat", "op": "ConcatV2", "input": ["module_apply_default/InceptionV3/InceptionV3/Mixed_6d/Branch_0/Conv2d_0a_1x1/BatchNorm/FusedBatchNorm", "module_apply_default/InceptionV3/InceptionV3/Mixed_6d/Branch_1/Conv2d_0c_7x1/BatchNorm/FusedBatchNorm", "module_apply_default/InceptionV3/InceptionV3/Mixed_6d/Branch_2/Conv2d_0e_1x7/BatchNorm/FusedBatchNorm", "module_apply_default/InceptionV3/InceptionV3/Mixed_6d/Branch_3/Conv2d_0b_1x1/BatchNorm/FusedBatchNorm", "module_apply_default/InceptionV3/InceptionV3/Mixed_5b/concat/axis"], "attr": {"Tidx": {"type": "DT_INT32"}, "T": {"type": "DT_FLOAT"}, "N": {"i": "4"}}}, {"name": "module_apply_default/InceptionV3/InceptionV3/Mixed_6d/Branch_0/Conv2d_0a_1x1/Relu", "op": "Relu", "input": ["module_apply_default/InceptionV3/InceptionV3/Mixed_6d/concat"], "attr": {"T": {"type": "DT_FLOAT"}}}, {"name": "module_apply_default/InceptionV3/InceptionV3/Mixed_6e/Branch_3/AvgPool_0a_3x3/AvgPool", "op": "AvgPool", "input": ["module_apply_default/InceptionV3/InceptionV3/Mixed_6d/Branch_0/Conv2d_0a_1x1/Relu"], "attr": {"T": {"type": "DT_FLOAT"}, "strides": {"list": {"i": ["1", "1", "1", "1"]}}, "data_format": {"s": "TkhXQw=="}, "ksize": {"list": {"i": ["1", "3", "3", "1"]}}, "padding": {"s": "U0FNRQ=="}}}, {"name": "module_apply_default/InceptionV3/InceptionV3/Mixed_6e/Branch_0/Conv2d_0a_1x1/BatchNorm/FusedBatchNorm", "op": "_FusedConv2D", "input": ["module_apply_default/InceptionV3/InceptionV3/Mixed_6d/Branch_0/Conv2d_0a_1x1/Relu", "module_apply_default/InceptionV3/InceptionV3/Mixed_6e/Branch_0/Conv2d_0a_1x1/Conv2D_weights", "module_apply_default/InceptionV3/InceptionV3/Mixed_6e/Branch_0/Conv2d_0a_1x1/Conv2D_bn_offset"], "device": "/device:CPU:0", "attr": {"dilations": {"list": {"i": ["1", "1", "1", "1"]}}, "T": {"type": "DT_FLOAT"}, "strides": {"list": {"i": ["1", "1", "1", "1"]}}, "data_format": {"s": "TkhXQw=="}, "explicit_paddings": {"list": {}}, "use_cudnn_on_gpu": {"b": true}, "num_args": {"i": "1"}, "epsilon": {"f": 0.0}, "padding": {"s": "U0FNRQ=="}, "fused_ops": {"list": {"s": ["Qmlhc0FkZA=="]}}}}, {"name": "module_apply_default/InceptionV3/InceptionV3/Mixed_6e/Branch_1/Conv2d_0a_1x1/Relu", "op": "_FusedConv2D", "input": ["module_apply_default/InceptionV3/InceptionV3/Mixed_6d/Branch_0/Conv2d_0a_1x1/Relu", "module_apply_default/InceptionV3/InceptionV3/Mixed_6e/Branch_1/Conv2d_0a_1x1/Conv2D_weights", "module_apply_default/InceptionV3/InceptionV3/Mixed_6e/Branch_1/Conv2d_0a_1x1/Conv2D_bn_offset"], "device": "/device:CPU:0", "attr": {"T": {"type": "DT_FLOAT"}, "strides": {"list": {"i": ["1", "1", "1", "1"]}}, "data_format": {"s": "TkhXQw=="}, "explicit_paddings": {"list": {}}, "use_cudnn_on_gpu": {"b": true}, "num_args": {"i": "1"}, "epsilon": {"f": 0.0}, "padding": {"s": "U0FNRQ=="}, "fused_ops": {"list": {"s": ["Qmlhc0FkZA==", "UmVsdQ=="]}}, "dilations": {"list": {"i": ["1", "1", "1", "1"]}}}}, {"name": "module_apply_default/InceptionV3/InceptionV3/Mixed_6e/Branch_2/Conv2d_0a_1x1/Relu", "op": "_FusedConv2D", "input": ["module_apply_default/InceptionV3/InceptionV3/Mixed_6d/Branch_0/Conv2d_0a_1x1/Relu", "module_apply_default/InceptionV3/InceptionV3/Mixed_6e/Branch_2/Conv2d_0a_1x1/Conv2D_weights", "module_apply_default/InceptionV3/InceptionV3/Mixed_6e/Branch_2/Conv2d_0a_1x1/Conv2D_bn_offset"], "device": "/device:CPU:0", "attr": {"dilations": {"list": {"i": ["1", "1", "1", "1"]}}, "T": {"type": "DT_FLOAT"}, "strides": {"list": {"i": ["1", "1", "1", "1"]}}, "data_format": {"s": "TkhXQw=="}, "explicit_paddings": {"list": {}}, "use_cudnn_on_gpu": {"b": true}, "num_args": {"i": "1"}, "epsilon": {"f": 0.0}, "padding": {"s": "U0FNRQ=="}, "fused_ops": {"list": {"s": ["Qmlhc0FkZA==", "UmVsdQ=="]}}}}, {"name": "module_apply_default/InceptionV3/InceptionV3/Mixed_6e/Branch_3/Conv2d_0b_1x1/BatchNorm/FusedBatchNorm", "op": "_FusedConv2D", "input": ["module_apply_default/InceptionV3/InceptionV3/Mixed_6e/Branch_3/AvgPool_0a_3x3/AvgPool", "module_apply_default/InceptionV3/InceptionV3/Mixed_6e/Branch_3/Conv2d_0b_1x1/Conv2D_weights", "module_apply_default/InceptionV3/InceptionV3/Mixed_6e/Branch_3/Conv2d_0b_1x1/Conv2D_bn_offset"], "device": "/device:CPU:0", "attr": {"fused_ops": {"list": {"s": ["Qmlhc0FkZA=="]}}, "dilations": {"list": {"i": ["1", "1", "1", "1"]}}, "T": {"type": "DT_FLOAT"}, "data_format": {"s": "TkhXQw=="}, "strides": {"list": {"i": ["1", "1", "1", "1"]}}, "explicit_paddings": {"list": {}}, "use_cudnn_on_gpu": {"b": true}, "num_args": {"i": "1"}, "epsilon": {"f": 0.0}, "padding": {"s": "U0FNRQ=="}}}, {"name": "module_apply_default/InceptionV3/InceptionV3/Mixed_6e/Branch_1/Conv2d_0b_1x7/Relu", "op": "_FusedConv2D", "input": ["module_apply_default/InceptionV3/InceptionV3/Mixed_6e/Branch_1/Conv2d_0a_1x1/Relu", "module_apply_default/InceptionV3/InceptionV3/Mixed_6e/Branch_1/Conv2d_0b_1x7/Conv2D_weights", "module_apply_default/InceptionV3/InceptionV3/Mixed_6e/Branch_1/Conv2d_0b_1x7/Conv2D_bn_offset"], "device": "/device:CPU:0", "attr": {"fused_ops": {"list": {"s": ["Qmlhc0FkZA==", "UmVsdQ=="]}}, "dilations": {"list": {"i": ["1", "1", "1", "1"]}}, "T": {"type": "DT_FLOAT"}, "strides": {"list": {"i": ["1", "1", "1", "1"]}}, "data_format": {"s": "TkhXQw=="}, "use_cudnn_on_gpu": {"b": true}, "explicit_paddings": {"list": {}}, "num_args": {"i": "1"}, "epsilon": {"f": 0.0}, "padding": {"s": "U0FNRQ=="}}}, {"name": "module_apply_default/InceptionV3/InceptionV3/Mixed_6e/Branch_2/Conv2d_0b_7x1/Relu", "op": "_FusedConv2D", "input": ["module_apply_default/InceptionV3/InceptionV3/Mixed_6e/Branch_2/Conv2d_0a_1x1/Relu", "module_apply_default/InceptionV3/InceptionV3/Mixed_6e/Branch_2/Conv2d_0b_7x1/Conv2D_weights", "module_apply_default/InceptionV3/InceptionV3/Mixed_6e/Branch_2/Conv2d_0b_7x1/Conv2D_bn_offset"], "device": "/device:CPU:0", "attr": {"strides": {"list": {"i": ["1", "1", "1", "1"]}}, "data_format": {"s": "TkhXQw=="}, "use_cudnn_on_gpu": {"b": true}, "explicit_paddings": {"list": {}}, "num_args": {"i": "1"}, "epsilon": {"f": 0.0}, "padding": {"s": "U0FNRQ=="}, "fused_ops": {"list": {"s": ["Qmlhc0FkZA==", "UmVsdQ=="]}}, "dilations": {"list": {"i": ["1", "1", "1", "1"]}}, "T": {"type": "DT_FLOAT"}}}, {"name": "module_apply_default/InceptionV3/InceptionV3/Mixed_6e/Branch_1/Conv2d_0c_7x1/BatchNorm/FusedBatchNorm", "op": "_FusedConv2D", "input": ["module_apply_default/InceptionV3/InceptionV3/Mixed_6e/Branch_1/Conv2d_0b_1x7/Relu", "module_apply_default/InceptionV3/InceptionV3/Mixed_6e/Branch_1/Conv2d_0c_7x1/Conv2D_weights", "module_apply_default/InceptionV3/InceptionV3/Mixed_6e/Branch_1/Conv2d_0c_7x1/Conv2D_bn_offset"], "device": "/device:CPU:0", "attr": {"T": {"type": "DT_FLOAT"}, "strides": {"list": {"i": ["1", "1", "1", "1"]}}, "data_format": {"s": "TkhXQw=="}, "use_cudnn_on_gpu": {"b": true}, "explicit_paddings": {"list": {}}, "num_args": {"i": "1"}, "epsilon": {"f": 0.0}, "padding": {"s": "U0FNRQ=="}, "fused_ops": {"list": {"s": ["Qmlhc0FkZA=="]}}, "dilations": {"list": {"i": ["1", "1", "1", "1"]}}}}, {"name": "module_apply_default/InceptionV3/InceptionV3/Mixed_6e/Branch_2/Conv2d_0c_1x7/Relu", "op": "_FusedConv2D", "input": ["module_apply_default/InceptionV3/InceptionV3/Mixed_6e/Branch_2/Conv2d_0b_7x1/Relu", "module_apply_default/InceptionV3/InceptionV3/Mixed_6e/Branch_2/Conv2d_0c_1x7/Conv2D_weights", "module_apply_default/InceptionV3/InceptionV3/Mixed_6e/Branch_2/Conv2d_0c_1x7/Conv2D_bn_offset"], "device": "/device:CPU:0", "attr": {"dilations": {"list": {"i": ["1", "1", "1", "1"]}}, "T": {"type": "DT_FLOAT"}, "data_format": {"s": "TkhXQw=="}, "strides": {"list": {"i": ["1", "1", "1", "1"]}}, "use_cudnn_on_gpu": {"b": true}, "explicit_paddings": {"list": {}}, "num_args": {"i": "1"}, "epsilon": {"f": 0.0}, "padding": {"s": "U0FNRQ=="}, "fused_ops": {"list": {"s": ["Qmlhc0FkZA==", "UmVsdQ=="]}}}}, {"name": "module_apply_default/InceptionV3/InceptionV3/Mixed_6e/Branch_2/Conv2d_0d_7x1/Relu", "op": "_FusedConv2D", "input": ["module_apply_default/InceptionV3/InceptionV3/Mixed_6e/Branch_2/Conv2d_0c_1x7/Relu", "module_apply_default/InceptionV3/InceptionV3/Mixed_6e/Branch_2/Conv2d_0d_7x1/Conv2D_weights", "module_apply_default/InceptionV3/InceptionV3/Mixed_6e/Branch_2/Conv2d_0d_7x1/Conv2D_bn_offset"], "device": "/device:CPU:0", "attr": {"epsilon": {"f": 0.0}, "padding": {"s": "U0FNRQ=="}, "fused_ops": {"list": {"s": ["Qmlhc0FkZA==", "UmVsdQ=="]}}, "dilations": {"list": {"i": ["1", "1", "1", "1"]}}, "T": {"type": "DT_FLOAT"}, "data_format": {"s": "TkhXQw=="}, "strides": {"list": {"i": ["1", "1", "1", "1"]}}, "explicit_paddings": {"list": {}}, "use_cudnn_on_gpu": {"b": true}, "num_args": {"i": "1"}}}, {"name": "module_apply_default/InceptionV3/InceptionV3/Mixed_6e/Branch_2/Conv2d_0e_1x7/BatchNorm/FusedBatchNorm", "op": "_FusedConv2D", "input": ["module_apply_default/InceptionV3/InceptionV3/Mixed_6e/Branch_2/Conv2d_0d_7x1/Relu", "module_apply_default/InceptionV3/InceptionV3/Mixed_6e/Branch_2/Conv2d_0e_1x7/Conv2D_weights", "module_apply_default/InceptionV3/InceptionV3/Mixed_6e/Branch_2/Conv2d_0e_1x7/Conv2D_bn_offset"], "device": "/device:CPU:0", "attr": {"dilations": {"list": {"i": ["1", "1", "1", "1"]}}, "T": {"type": "DT_FLOAT"}, "strides": {"list": {"i": ["1", "1", "1", "1"]}}, "data_format": {"s": "TkhXQw=="}, "explicit_paddings": {"list": {}}, "use_cudnn_on_gpu": {"b": true}, "num_args": {"i": "1"}, "epsilon": {"f": 0.0}, "padding": {"s": "U0FNRQ=="}, "fused_ops": {"list": {"s": ["Qmlhc0FkZA=="]}}}}, {"name": "module_apply_default/InceptionV3/InceptionV3/Mixed_6e/concat", "op": "ConcatV2", "input": ["module_apply_default/InceptionV3/InceptionV3/Mixed_6e/Branch_0/Conv2d_0a_1x1/BatchNorm/FusedBatchNorm", "module_apply_default/InceptionV3/InceptionV3/Mixed_6e/Branch_1/Conv2d_0c_7x1/BatchNorm/FusedBatchNorm", "module_apply_default/InceptionV3/InceptionV3/Mixed_6e/Branch_2/Conv2d_0e_1x7/BatchNorm/FusedBatchNorm", "module_apply_default/InceptionV3/InceptionV3/Mixed_6e/Branch_3/Conv2d_0b_1x1/BatchNorm/FusedBatchNorm", "module_apply_default/InceptionV3/InceptionV3/Mixed_5b/concat/axis"], "attr": {"Tidx": {"type": "DT_INT32"}, "T": {"type": "DT_FLOAT"}, "N": {"i": "4"}}}, {"name": "module_apply_default/InceptionV3/InceptionV3/Mixed_6e/Branch_0/Conv2d_0a_1x1/Relu", "op": "Relu", "input": ["module_apply_default/InceptionV3/InceptionV3/Mixed_6e/concat"], "attr": {"T": {"type": "DT_FLOAT"}}}, {"name": "module_apply_default/InceptionV3/InceptionV3/Mixed_7a/Branch_2/MaxPool_1a_3x3/MaxPool", "op": "MaxPool", "input": ["module_apply_default/InceptionV3/InceptionV3/Mixed_6e/Branch_0/Conv2d_0a_1x1/Relu"], "attr": {"ksize": {"list": {"i": ["1", "3", "3", "1"]}}, "padding": {"s": "VkFMSUQ="}, "T": {"type": "DT_FLOAT"}, "strides": {"list": {"i": ["1", "2", "2", "1"]}}, "data_format": {"s": "TkhXQw=="}}}, {"name": "module_apply_default/InceptionV3/InceptionV3/Mixed_7a/Branch_0/Conv2d_0a_1x1/Relu", "op": "_FusedConv2D", "input": ["module_apply_default/InceptionV3/InceptionV3/Mixed_6e/Branch_0/Conv2d_0a_1x1/Relu", "module_apply_default/InceptionV3/InceptionV3/Mixed_7a/Branch_0/Conv2d_0a_1x1/Conv2D_weights", "module_apply_default/InceptionV3/InceptionV3/Mixed_7a/Branch_0/Conv2d_0a_1x1/Conv2D_bn_offset"], "device": "/device:CPU:0", "attr": {"epsilon": {"f": 0.0}, "padding": {"s": "U0FNRQ=="}, "fused_ops": {"list": {"s": ["Qmlhc0FkZA==", "UmVsdQ=="]}}, "dilations": {"list": {"i": ["1", "1", "1", "1"]}}, "T": {"type": "DT_FLOAT"}, "strides": {"list": {"i": ["1", "1", "1", "1"]}}, "data_format": {"s": "TkhXQw=="}, "use_cudnn_on_gpu": {"b": true}, "explicit_paddings": {"list": {}}, "num_args": {"i": "1"}}}, {"name": "module_apply_default/InceptionV3/InceptionV3/Mixed_7a/Branch_1/Conv2d_0a_1x1/Relu", "op": "_FusedConv2D", "input": ["module_apply_default/InceptionV3/InceptionV3/Mixed_6e/Branch_0/Conv2d_0a_1x1/Relu", "module_apply_default/InceptionV3/InceptionV3/Mixed_7a/Branch_1/Conv2d_0a_1x1/Conv2D_weights", "module_apply_default/InceptionV3/InceptionV3/Mixed_7a/Branch_1/Conv2d_0a_1x1/Conv2D_bn_offset"], "device": "/device:CPU:0", "attr": {"epsilon": {"f": 0.0}, "padding": {"s": "U0FNRQ=="}, "fused_ops": {"list": {"s": ["Qmlhc0FkZA==", "UmVsdQ=="]}}, "dilations": {"list": {"i": ["1", "1", "1", "1"]}}, "T": {"type": "DT_FLOAT"}, "data_format": {"s": "TkhXQw=="}, "strides": {"list": {"i": ["1", "1", "1", "1"]}}, "explicit_paddings": {"list": {}}, "use_cudnn_on_gpu": {"b": true}, "num_args": {"i": "1"}}}, {"name": "module_apply_default/InceptionV3/InceptionV3/Mixed_7a/Branch_0/Conv2d_1a_3x3/Relu", "op": "_FusedConv2D", "input": ["module_apply_default/InceptionV3/InceptionV3/Mixed_7a/Branch_0/Conv2d_0a_1x1/Relu", "module_apply_default/InceptionV3/InceptionV3/Mixed_7a/Branch_0/Conv2d_1a_3x3/Conv2D_weights", "module_apply_default/InceptionV3/InceptionV3/Mixed_7a/Branch_0/Conv2d_1a_3x3/Conv2D_bn_offset"], "device": "/device:CPU:0", "attr": {"dilations": {"list": {"i": ["1", "1", "1", "1"]}}, "T": {"type": "DT_FLOAT"}, "data_format": {"s": "TkhXQw=="}, "strides": {"list": {"i": ["1", "2", "2", "1"]}}, "explicit_paddings": {"list": {}}, "use_cudnn_on_gpu": {"b": true}, "num_args": {"i": "1"}, "epsilon": {"f": 0.0}, "padding": {"s": "VkFMSUQ="}, "fused_ops": {"list": {"s": ["Qmlhc0FkZA==", "UmVsdQ=="]}}}}, {"name": "module_apply_default/InceptionV3/InceptionV3/Mixed_7a/Branch_1/Conv2d_0b_1x7/Relu", "op": "_FusedConv2D", "input": ["module_apply_default/InceptionV3/InceptionV3/Mixed_7a/Branch_1/Conv2d_0a_1x1/Relu", "module_apply_default/InceptionV3/InceptionV3/Mixed_7a/Branch_1/Conv2d_0b_1x7/Conv2D_weights", "module_apply_default/InceptionV3/InceptionV3/Mixed_7a/Branch_1/Conv2d_0b_1x7/Conv2D_bn_offset"], "device": "/device:CPU:0", "attr": {"T": {"type": "DT_FLOAT"}, "data_format": {"s": "TkhXQw=="}, "strides": {"list": {"i": ["1", "1", "1", "1"]}}, "explicit_paddings": {"list": {}}, "use_cudnn_on_gpu": {"b": true}, "num_args": {"i": "1"}, "epsilon": {"f": 0.0}, "padding": {"s": "U0FNRQ=="}, "fused_ops": {"list": {"s": ["Qmlhc0FkZA==", "UmVsdQ=="]}}, "dilations": {"list": {"i": ["1", "1", "1", "1"]}}}}, {"name": "module_apply_default/InceptionV3/InceptionV3/Mixed_7a/Branch_1/Conv2d_0c_7x1/Relu", "op": "_FusedConv2D", "input": ["module_apply_default/InceptionV3/InceptionV3/Mixed_7a/Branch_1/Conv2d_0b_1x7/Relu", "module_apply_default/InceptionV3/InceptionV3/Mixed_7a/Branch_1/Conv2d_0c_7x1/Conv2D_weights", "module_apply_default/InceptionV3/InceptionV3/Mixed_7a/Branch_1/Conv2d_0c_7x1/Conv2D_bn_offset"], "device": "/device:CPU:0", "attr": {"fused_ops": {"list": {"s": ["Qmlhc0FkZA==", "UmVsdQ=="]}}, "dilations": {"list": {"i": ["1", "1", "1", "1"]}}, "T": {"type": "DT_FLOAT"}, "strides": {"list": {"i": ["1", "1", "1", "1"]}}, "data_format": {"s": "TkhXQw=="}, "explicit_paddings": {"list": {}}, "use_cudnn_on_gpu": {"b": true}, "num_args": {"i": "1"}, "epsilon": {"f": 0.0}, "padding": {"s": "U0FNRQ=="}}}, {"name": "module_apply_default/InceptionV3/InceptionV3/Mixed_7a/Branch_1/Conv2d_1a_3x3/Relu", "op": "_FusedConv2D", "input": ["module_apply_default/InceptionV3/InceptionV3/Mixed_7a/Branch_1/Conv2d_0c_7x1/Relu", "module_apply_default/InceptionV3/InceptionV3/Mixed_7a/Branch_1/Conv2d_1a_3x3/Conv2D_weights", "module_apply_default/InceptionV3/InceptionV3/Mixed_7a/Branch_1/Conv2d_1a_3x3/Conv2D_bn_offset"], "device": "/device:CPU:0", "attr": {"dilations": {"list": {"i": ["1", "1", "1", "1"]}}, "T": {"type": "DT_FLOAT"}, "data_format": {"s": "TkhXQw=="}, "strides": {"list": {"i": ["1", "2", "2", "1"]}}, "use_cudnn_on_gpu": {"b": true}, "explicit_paddings": {"list": {}}, "num_args": {"i": "1"}, "epsilon": {"f": 0.0}, "padding": {"s": "VkFMSUQ="}, "fused_ops": {"list": {"s": ["Qmlhc0FkZA==", "UmVsdQ=="]}}}}, {"name": "module_apply_default/InceptionV3/InceptionV3/Mixed_7a/concat", "op": "ConcatV2", "input": ["module_apply_default/InceptionV3/InceptionV3/Mixed_7a/Branch_0/Conv2d_1a_3x3/Relu", "module_apply_default/InceptionV3/InceptionV3/Mixed_7a/Branch_1/Conv2d_1a_3x3/Relu", "module_apply_default/InceptionV3/InceptionV3/Mixed_7a/Branch_2/MaxPool_1a_3x3/MaxPool", "module_apply_default/InceptionV3/InceptionV3/Mixed_5b/concat/axis"], "attr": {"T": {"type": "DT_FLOAT"}, "N": {"i": "3"}, "Tidx": {"type": "DT_INT32"}}}, {"name": "module_apply_default/InceptionV3/InceptionV3/Mixed_7b/Branch_3/AvgPool_0a_3x3/AvgPool", "op": "AvgPool", "input": ["module_apply_default/InceptionV3/InceptionV3/Mixed_7a/concat"], "attr": {"T": {"type": "DT_FLOAT"}, "strides": {"list": {"i": ["1", "1", "1", "1"]}}, "data_format": {"s": "TkhXQw=="}, "ksize": {"list": {"i": ["1", "3", "3", "1"]}}, "padding": {"s": "U0FNRQ=="}}}, {"name": "module_apply_default/InceptionV3/InceptionV3/Mixed_7b/Branch_0/Conv2d_0a_1x1/BatchNorm/FusedBatchNorm", "op": "_FusedConv2D", "input": ["module_apply_default/InceptionV3/InceptionV3/Mixed_7a/concat", "module_apply_default/InceptionV3/InceptionV3/Mixed_7b/Branch_0/Conv2d_0a_1x1/Conv2D_weights", "module_apply_default/InceptionV3/InceptionV3/Mixed_7b/Branch_0/Conv2d_0a_1x1/Conv2D_bn_offset"], "device": "/device:CPU:0", "attr": {"dilations": {"list": {"i": ["1", "1", "1", "1"]}}, "T": {"type": "DT_FLOAT"}, "strides": {"list": {"i": ["1", "1", "1", "1"]}}, "data_format": {"s": "TkhXQw=="}, "use_cudnn_on_gpu": {"b": true}, "explicit_paddings": {"list": {}}, "num_args": {"i": "1"}, "epsilon": {"f": 0.0}, "padding": {"s": "U0FNRQ=="}, "fused_ops": {"list": {"s": ["Qmlhc0FkZA=="]}}}}, {"name": "module_apply_default/InceptionV3/InceptionV3/Mixed_7b/Branch_1/Conv2d_0a_1x1/Relu", "op": "_FusedConv2D", "input": ["module_apply_default/InceptionV3/InceptionV3/Mixed_7a/concat", "module_apply_default/InceptionV3/InceptionV3/Mixed_7b/Branch_1/Conv2d_0a_1x1/Conv2D_weights", "module_apply_default/InceptionV3/InceptionV3/Mixed_7b/Branch_1/Conv2d_0a_1x1/Conv2D_bn_offset"], "device": "/device:CPU:0", "attr": {"dilations": {"list": {"i": ["1", "1", "1", "1"]}}, "T": {"type": "DT_FLOAT"}, "data_format": {"s": "TkhXQw=="}, "strides": {"list": {"i": ["1", "1", "1", "1"]}}, "explicit_paddings": {"list": {}}, "use_cudnn_on_gpu": {"b": true}, "num_args": {"i": "1"}, "epsilon": {"f": 0.0}, "padding": {"s": "U0FNRQ=="}, "fused_ops": {"list": {"s": ["Qmlhc0FkZA==", "UmVsdQ=="]}}}}, {"name": "module_apply_default/InceptionV3/InceptionV3/Mixed_7b/Branch_2/Conv2d_0a_1x1/Relu", "op": "_FusedConv2D", "input": ["module_apply_default/InceptionV3/InceptionV3/Mixed_7a/concat", "module_apply_default/InceptionV3/InceptionV3/Mixed_7b/Branch_2/Conv2d_0a_1x1/Conv2D_weights", "module_apply_default/InceptionV3/InceptionV3/Mixed_7b/Branch_2/Conv2d_0a_1x1/Conv2D_bn_offset"], "device": "/device:CPU:0", "attr": {"data_format": {"s": "TkhXQw=="}, "strides": {"list": {"i": ["1", "1", "1", "1"]}}, "use_cudnn_on_gpu": {"b": true}, "explicit_paddings": {"list": {}}, "num_args": {"i": "1"}, "epsilon": {"f": 0.0}, "padding": {"s": "U0FNRQ=="}, "fused_ops": {"list": {"s": ["Qmlhc0FkZA==", "UmVsdQ=="]}}, "dilations": {"list": {"i": ["1", "1", "1", "1"]}}, "T": {"type": "DT_FLOAT"}}}, {"name": "module_apply_default/InceptionV3/InceptionV3/Mixed_7b/Branch_3/Conv2d_0b_1x1/BatchNorm/FusedBatchNorm", "op": "_FusedConv2D", "input": ["module_apply_default/InceptionV3/InceptionV3/Mixed_7b/Branch_3/AvgPool_0a_3x3/AvgPool", "module_apply_default/InceptionV3/InceptionV3/Mixed_7b/Branch_3/Conv2d_0b_1x1/Conv2D_weights", "module_apply_default/InceptionV3/InceptionV3/Mixed_7b/Branch_3/Conv2d_0b_1x1/Conv2D_bn_offset"], "device": "/device:CPU:0", "attr": {"epsilon": {"f": 0.0}, "padding": {"s": "U0FNRQ=="}, "fused_ops": {"list": {"s": ["Qmlhc0FkZA=="]}}, "dilations": {"list": {"i": ["1", "1", "1", "1"]}}, "T": {"type": "DT_FLOAT"}, "strides": {"list": {"i": ["1", "1", "1", "1"]}}, "data_format": {"s": "TkhXQw=="}, "use_cudnn_on_gpu": {"b": true}, "explicit_paddings": {"list": {}}, "num_args": {"i": "1"}}}, {"name": "module_apply_default/InceptionV3/InceptionV3/Mixed_7b/Branch_1/Conv2d_0b_1x3/BatchNorm/FusedBatchNorm", "op": "_FusedConv2D", "input": ["module_apply_default/InceptionV3/InceptionV3/Mixed_7b/Branch_1/Conv2d_0a_1x1/Relu", "module_apply_default/InceptionV3/InceptionV3/Mixed_7b/Branch_1/Conv2d_0b_1x3/Conv2D_weights", "module_apply_default/InceptionV3/InceptionV3/Mixed_7b/Branch_1/Conv2d_0b_1x3/Conv2D_bn_offset"], "device": "/device:CPU:0", "attr": {"T": {"type": "DT_FLOAT"}, "strides": {"list": {"i": ["1", "1", "1", "1"]}}, "data_format": {"s": "TkhXQw=="}, "use_cudnn_on_gpu": {"b": true}, "explicit_paddings": {"list": {}}, "num_args": {"i": "1"}, "epsilon": {"f": 0.0}, "padding": {"s": "U0FNRQ=="}, "fused_ops": {"list": {"s": ["Qmlhc0FkZA=="]}}, "dilations": {"list": {"i": ["1", "1", "1", "1"]}}}}, {"name": "module_apply_default/InceptionV3/InceptionV3/Mixed_7b/Branch_1/Conv2d_0b_3x1/BatchNorm/FusedBatchNorm", "op": "_FusedConv2D", "input": ["module_apply_default/InceptionV3/InceptionV3/Mixed_7b/Branch_1/Conv2d_0a_1x1/Relu", "module_apply_default/InceptionV3/InceptionV3/Mixed_7b/Branch_1/Conv2d_0b_3x1/Conv2D_weights", "module_apply_default/InceptionV3/InceptionV3/Mixed_7b/Branch_1/Conv2d_0b_3x1/Conv2D_bn_offset"], "device": "/device:CPU:0", "attr": {"epsilon": {"f": 0.0}, "padding": {"s": "U0FNRQ=="}, "fused_ops": {"list": {"s": ["Qmlhc0FkZA=="]}}, "dilations": {"list": {"i": ["1", "1", "1", "1"]}}, "T": {"type": "DT_FLOAT"}, "strides": {"list": {"i": ["1", "1", "1", "1"]}}, "data_format": {"s": "TkhXQw=="}, "use_cudnn_on_gpu": {"b": true}, "explicit_paddings": {"list": {}}, "num_args": {"i": "1"}}}, {"name": "module_apply_default/InceptionV3/InceptionV3/Mixed_7b/Branch_2/Conv2d_0b_3x3/Relu", "op": "_FusedConv2D", "input": ["module_apply_default/InceptionV3/InceptionV3/Mixed_7b/Branch_2/Conv2d_0a_1x1/Relu", "module_apply_default/InceptionV3/InceptionV3/Mixed_7b/Branch_2/Conv2d_0b_3x3/Conv2D_weights", "module_apply_default/InceptionV3/InceptionV3/Mixed_7b/Branch_2/Conv2d_0b_3x3/Conv2D_bn_offset"], "device": "/device:CPU:0", "attr": {"epsilon": {"f": 0.0}, "padding": {"s": "U0FNRQ=="}, "fused_ops": {"list": {"s": ["Qmlhc0FkZA==", "UmVsdQ=="]}}, "dilations": {"list": {"i": ["1", "1", "1", "1"]}}, "T": {"type": "DT_FLOAT"}, "data_format": {"s": "TkhXQw=="}, "strides": {"list": {"i": ["1", "1", "1", "1"]}}, "use_cudnn_on_gpu": {"b": true}, "explicit_paddings": {"list": {}}, "num_args": {"i": "1"}}}, {"name": "module_apply_default/InceptionV3/InceptionV3/Mixed_7b/Branch_2/Conv2d_0c_1x3/BatchNorm/FusedBatchNorm", "op": "_FusedConv2D", "input": ["module_apply_default/InceptionV3/InceptionV3/Mixed_7b/Branch_2/Conv2d_0b_3x3/Relu", "module_apply_default/InceptionV3/InceptionV3/Mixed_7b/Branch_2/Conv2d_0c_1x3/Conv2D_weights", "module_apply_default/InceptionV3/InceptionV3/Mixed_7b/Branch_2/Conv2d_0c_1x3/Conv2D_bn_offset"], "device": "/device:CPU:0", "attr": {"data_format": {"s": "TkhXQw=="}, "strides": {"list": {"i": ["1", "1", "1", "1"]}}, "explicit_paddings": {"list": {}}, "use_cudnn_on_gpu": {"b": true}, "num_args": {"i": "1"}, "epsilon": {"f": 0.0}, "padding": {"s": "U0FNRQ=="}, "fused_ops": {"list": {"s": ["Qmlhc0FkZA=="]}}, "dilations": {"list": {"i": ["1", "1", "1", "1"]}}, "T": {"type": "DT_FLOAT"}}}, {"name": "module_apply_default/InceptionV3/InceptionV3/Mixed_7b/Branch_2/Conv2d_0d_3x1/BatchNorm/FusedBatchNorm", "op": "_FusedConv2D", "input": ["module_apply_default/InceptionV3/InceptionV3/Mixed_7b/Branch_2/Conv2d_0b_3x3/Relu", "module_apply_default/InceptionV3/InceptionV3/Mixed_7b/Branch_2/Conv2d_0d_3x1/Conv2D_weights", "module_apply_default/InceptionV3/InceptionV3/Mixed_7b/Branch_2/Conv2d_0d_3x1/Conv2D_bn_offset"], "device": "/device:CPU:0", "attr": {"dilations": {"list": {"i": ["1", "1", "1", "1"]}}, "T": {"type": "DT_FLOAT"}, "data_format": {"s": "TkhXQw=="}, "strides": {"list": {"i": ["1", "1", "1", "1"]}}, "explicit_paddings": {"list": {}}, "use_cudnn_on_gpu": {"b": true}, "num_args": {"i": "1"}, "epsilon": {"f": 0.0}, "padding": {"s": "U0FNRQ=="}, "fused_ops": {"list": {"s": ["Qmlhc0FkZA=="]}}}}, {"name": "module_apply_default/InceptionV3/InceptionV3/Mixed_7b/concat", "op": "ConcatV2", "input": ["module_apply_default/InceptionV3/InceptionV3/Mixed_7b/Branch_0/Conv2d_0a_1x1/BatchNorm/FusedBatchNorm", "module_apply_default/InceptionV3/InceptionV3/Mixed_7b/Branch_1/Conv2d_0b_1x3/BatchNorm/FusedBatchNorm", "module_apply_default/InceptionV3/InceptionV3/Mixed_7b/Branch_1/Conv2d_0b_3x1/BatchNorm/FusedBatchNorm", "module_apply_default/InceptionV3/InceptionV3/Mixed_7b/Branch_2/Conv2d_0c_1x3/BatchNorm/FusedBatchNorm", "module_apply_default/InceptionV3/InceptionV3/Mixed_7b/Branch_2/Conv2d_0d_3x1/BatchNorm/FusedBatchNorm", "module_apply_default/InceptionV3/InceptionV3/Mixed_7b/Branch_3/Conv2d_0b_1x1/BatchNorm/FusedBatchNorm", "module_apply_default/InceptionV3/InceptionV3/Mixed_5b/concat/axis"], "attr": {"T": {"type": "DT_FLOAT"}, "N": {"i": "6"}, "Tidx": {"type": "DT_INT32"}}}, {"name": "module_apply_default/InceptionV3/InceptionV3/Mixed_7b/Branch_0/Conv2d_0a_1x1/Relu", "op": "Relu", "input": ["module_apply_default/InceptionV3/InceptionV3/Mixed_7b/concat"], "attr": {"T": {"type": "DT_FLOAT"}}}, {"name": "module_apply_default/InceptionV3/InceptionV3/Mixed_7c/Branch_1/Conv2d_0a_1x1/Relu", "op": "_FusedConv2D", "input": ["module_apply_default/InceptionV3/InceptionV3/Mixed_7b/Branch_0/Conv2d_0a_1x1/Relu", "module_apply_default/InceptionV3/InceptionV3/Mixed_7c/Branch_1/Conv2d_0a_1x1/Conv2D_weights", "module_apply_default/InceptionV3/InceptionV3/Mixed_7c/Branch_1/Conv2d_0a_1x1/Conv2D_bn_offset"], "device": "/device:CPU:0", "attr": {"dilations": {"list": {"i": ["1", "1", "1", "1"]}}, "T": {"type": "DT_FLOAT"}, "data_format": {"s": "TkhXQw=="}, "strides": {"list": {"i": ["1", "1", "1", "1"]}}, "use_cudnn_on_gpu": {"b": true}, "explicit_paddings": {"list": {}}, "num_args": {"i": "1"}, "epsilon": {"f": 0.0}, "padding": {"s": "U0FNRQ=="}, "fused_ops": {"list": {"s": ["Qmlhc0FkZA==", "UmVsdQ=="]}}}}, {"name": "module_apply_default/InceptionV3/InceptionV3/Mixed_7c/Branch_2/Conv2d_0a_1x1/Relu", "op": "_FusedConv2D", "input": ["module_apply_default/InceptionV3/InceptionV3/Mixed_7b/Branch_0/Conv2d_0a_1x1/Relu", "module_apply_default/InceptionV3/InceptionV3/Mixed_7c/Branch_2/Conv2d_0a_1x1/Conv2D_weights", "module_apply_default/InceptionV3/InceptionV3/Mixed_7c/Branch_2/Conv2d_0a_1x1/Conv2D_bn_offset"], "device": "/device:CPU:0", "attr": {"dilations": {"list": {"i": ["1", "1", "1", "1"]}}, "T": {"type": "DT_FLOAT"}, "data_format": {"s": "TkhXQw=="}, "strides": {"list": {"i": ["1", "1", "1", "1"]}}, "use_cudnn_on_gpu": {"b": true}, "explicit_paddings": {"list": {}}, "num_args": {"i": "1"}, "epsilon": {"f": 0.0}, "padding": {"s": "U0FNRQ=="}, "fused_ops": {"list": {"s": ["Qmlhc0FkZA==", "UmVsdQ=="]}}}}, {"name": "module_apply_default/InceptionV3/InceptionV3/Mixed_7c/Branch_0/Conv2d_0a_1x1/BatchNorm/FusedBatchNorm", "op": "_FusedConv2D", "input": ["module_apply_default/InceptionV3/InceptionV3/Mixed_7b/Branch_0/Conv2d_0a_1x1/Relu", "module_apply_default/InceptionV3/InceptionV3/Mixed_7c/Branch_0/Conv2d_0a_1x1/Conv2D_weights", "module_apply_default/InceptionV3/InceptionV3/Mixed_7c/Branch_0/Conv2d_0a_1x1/Conv2D_bn_offset"], "device": "/device:CPU:0", "attr": {"epsilon": {"f": 0.0}, "padding": {"s": "U0FNRQ=="}, "fused_ops": {"list": {"s": ["Qmlhc0FkZA=="]}}, "dilations": {"list": {"i": ["1", "1", "1", "1"]}}, "T": {"type": "DT_FLOAT"}, "data_format": {"s": "TkhXQw=="}, "strides": {"list": {"i": ["1", "1", "1", "1"]}}, "use_cudnn_on_gpu": {"b": true}, "explicit_paddings": {"list": {}}, "num_args": {"i": "1"}}}, {"name": "module_apply_default/InceptionV3/InceptionV3/Mixed_7c/Branch_3/AvgPool_0a_3x3/AvgPool", "op": "AvgPool", "input": ["module_apply_default/InceptionV3/InceptionV3/Mixed_7b/Branch_0/Conv2d_0a_1x1/Relu"], "attr": {"data_format": {"s": "TkhXQw=="}, "strides": {"list": {"i": ["1", "1", "1", "1"]}}, "ksize": {"list": {"i": ["1", "3", "3", "1"]}}, "padding": {"s": "U0FNRQ=="}, "T": {"type": "DT_FLOAT"}}}, {"name": "module_apply_default/InceptionV3/InceptionV3/Mixed_7c/Branch_1/Conv2d_0b_1x3/BatchNorm/FusedBatchNorm", "op": "_FusedConv2D", "input": ["module_apply_default/InceptionV3/InceptionV3/Mixed_7c/Branch_1/Conv2d_0a_1x1/Relu", "module_apply_default/InceptionV3/InceptionV3/Mixed_7c/Branch_1/Conv2d_0b_1x3/Conv2D_weights", "module_apply_default/InceptionV3/InceptionV3/Mixed_7c/Branch_1/Conv2d_0b_1x3/Conv2D_bn_offset"], "device": "/device:CPU:0", "attr": {"data_format": {"s": "TkhXQw=="}, "strides": {"list": {"i": ["1", "1", "1", "1"]}}, "use_cudnn_on_gpu": {"b": true}, "explicit_paddings": {"list": {}}, "num_args": {"i": "1"}, "epsilon": {"f": 0.0}, "padding": {"s": "U0FNRQ=="}, "fused_ops": {"list": {"s": ["Qmlhc0FkZA=="]}}, "dilations": {"list": {"i": ["1", "1", "1", "1"]}}, "T": {"type": "DT_FLOAT"}}}, {"name": "module_apply_default/InceptionV3/InceptionV3/Mixed_7c/Branch_1/Conv2d_0c_3x1/BatchNorm/FusedBatchNorm", "op": "_FusedConv2D", "input": ["module_apply_default/InceptionV3/InceptionV3/Mixed_7c/Branch_1/Conv2d_0a_1x1/Relu", "module_apply_default/InceptionV3/InceptionV3/Mixed_7c/Branch_1/Conv2d_0c_3x1/Conv2D_weights", "module_apply_default/InceptionV3/InceptionV3/Mixed_7c/Branch_1/Conv2d_0c_3x1/Conv2D_bn_offset"], "device": "/device:CPU:0", "attr": {"dilations": {"list": {"i": ["1", "1", "1", "1"]}}, "T": {"type": "DT_FLOAT"}, "data_format": {"s": "TkhXQw=="}, "strides": {"list": {"i": ["1", "1", "1", "1"]}}, "explicit_paddings": {"list": {}}, "use_cudnn_on_gpu": {"b": true}, "num_args": {"i": "1"}, "epsilon": {"f": 0.0}, "padding": {"s": "U0FNRQ=="}, "fused_ops": {"list": {"s": ["Qmlhc0FkZA=="]}}}}, {"name": "module_apply_default/InceptionV3/InceptionV3/Mixed_7c/Branch_2/Conv2d_0b_3x3/Relu", "op": "_FusedConv2D", "input": ["module_apply_default/InceptionV3/InceptionV3/Mixed_7c/Branch_2/Conv2d_0a_1x1/Relu", "module_apply_default/InceptionV3/InceptionV3/Mixed_7c/Branch_2/Conv2d_0b_3x3/Conv2D_weights", "module_apply_default/InceptionV3/InceptionV3/Mixed_7c/Branch_2/Conv2d_0b_3x3/Conv2D_bn_offset"], "device": "/device:CPU:0", "attr": {"T": {"type": "DT_FLOAT"}, "strides": {"list": {"i": ["1", "1", "1", "1"]}}, "data_format": {"s": "TkhXQw=="}, "explicit_paddings": {"list": {}}, "use_cudnn_on_gpu": {"b": true}, "num_args": {"i": "1"}, "epsilon": {"f": 0.0}, "padding": {"s": "U0FNRQ=="}, "fused_ops": {"list": {"s": ["Qmlhc0FkZA==", "UmVsdQ=="]}}, "dilations": {"list": {"i": ["1", "1", "1", "1"]}}}}, {"name": "module_apply_default/InceptionV3/InceptionV3/Mixed_7c/Branch_3/Conv2d_0b_1x1/BatchNorm/FusedBatchNorm", "op": "_FusedConv2D", "input": ["module_apply_default/InceptionV3/InceptionV3/Mixed_7c/Branch_3/AvgPool_0a_3x3/AvgPool", "module_apply_default/InceptionV3/InceptionV3/Mixed_7c/Branch_3/Conv2d_0b_1x1/Conv2D_weights", "module_apply_default/InceptionV3/InceptionV3/Mixed_7c/Branch_3/Conv2d_0b_1x1/Conv2D_bn_offset"], "device": "/device:CPU:0", "attr": {"dilations": {"list": {"i": ["1", "1", "1", "1"]}}, "T": {"type": "DT_FLOAT"}, "data_format": {"s": "TkhXQw=="}, "strides": {"list": {"i": ["1", "1", "1", "1"]}}, "use_cudnn_on_gpu": {"b": true}, "explicit_paddings": {"list": {}}, "num_args": {"i": "1"}, "epsilon": {"f": 0.0}, "padding": {"s": "U0FNRQ=="}, "fused_ops": {"list": {"s": ["Qmlhc0FkZA=="]}}}}, {"name": "module_apply_default/InceptionV3/InceptionV3/Mixed_7c/Branch_2/Conv2d_0d_3x1/BatchNorm/FusedBatchNorm", "op": "_FusedConv2D", "input": ["module_apply_default/InceptionV3/InceptionV3/Mixed_7c/Branch_2/Conv2d_0b_3x3/Relu", "module_apply_default/InceptionV3/InceptionV3/Mixed_7c/Branch_2/Conv2d_0d_3x1/Conv2D_weights", "module_apply_default/InceptionV3/InceptionV3/Mixed_7c/Branch_2/Conv2d_0d_3x1/Conv2D_bn_offset"], "device": "/device:CPU:0", "attr": {"num_args": {"i": "1"}, "epsilon": {"f": 0.0}, "padding": {"s": "U0FNRQ=="}, "fused_ops": {"list": {"s": ["Qmlhc0FkZA=="]}}, "dilations": {"list": {"i": ["1", "1", "1", "1"]}}, "T": {"type": "DT_FLOAT"}, "strides": {"list": {"i": ["1", "1", "1", "1"]}}, "data_format": {"s": "TkhXQw=="}, "explicit_paddings": {"list": {}}, "use_cudnn_on_gpu": {"b": true}}}, {"name": "module_apply_default/InceptionV3/InceptionV3/Mixed_7c/Branch_2/Conv2d_0c_1x3/BatchNorm/FusedBatchNorm", "op": "_FusedConv2D", "input": ["module_apply_default/InceptionV3/InceptionV3/Mixed_7c/Branch_2/Conv2d_0b_3x3/Relu", "module_apply_default/InceptionV3/InceptionV3/Mixed_7c/Branch_2/Conv2d_0c_1x3/Conv2D_weights", "module_apply_default/InceptionV3/InceptionV3/Mixed_7c/Branch_2/Conv2d_0c_1x3/Conv2D_bn_offset"], "device": "/device:CPU:0", "attr": {"dilations": {"list": {"i": ["1", "1", "1", "1"]}}, "T": {"type": "DT_FLOAT"}, "strides": {"list": {"i": ["1", "1", "1", "1"]}}, "data_format": {"s": "TkhXQw=="}, "use_cudnn_on_gpu": {"b": true}, "explicit_paddings": {"list": {}}, "num_args": {"i": "1"}, "epsilon": {"f": 0.0}, "padding": {"s": "U0FNRQ=="}, "fused_ops": {"list": {"s": ["Qmlhc0FkZA=="]}}}}, {"name": "module_apply_default/InceptionV3/InceptionV3/Mixed_7c/concat", "op": "ConcatV2", "input": ["module_apply_default/InceptionV3/InceptionV3/Mixed_7c/Branch_0/Conv2d_0a_1x1/BatchNorm/FusedBatchNorm", "module_apply_default/InceptionV3/InceptionV3/Mixed_7c/Branch_1/Conv2d_0b_1x3/BatchNorm/FusedBatchNorm", "module_apply_default/InceptionV3/InceptionV3/Mixed_7c/Branch_1/Conv2d_0c_3x1/BatchNorm/FusedBatchNorm", "module_apply_default/InceptionV3/InceptionV3/Mixed_7c/Branch_2/Conv2d_0c_1x3/BatchNorm/FusedBatchNorm", "module_apply_default/InceptionV3/InceptionV3/Mixed_7c/Branch_2/Conv2d_0d_3x1/BatchNorm/FusedBatchNorm", "module_apply_default/InceptionV3/InceptionV3/Mixed_7c/Branch_3/Conv2d_0b_1x1/BatchNorm/FusedBatchNorm", "module_apply_default/InceptionV3/InceptionV3/Mixed_5b/concat/axis"], "attr": {"Tidx": {"type": "DT_INT32"}, "T": {"type": "DT_FLOAT"}, "N": {"i": "6"}}}, {"name": "module_apply_default/InceptionV3/InceptionV3/Mixed_7c/Branch_0/Conv2d_0a_1x1/Relu", "op": "Relu", "input": ["module_apply_default/InceptionV3/InceptionV3/Mixed_7c/concat"], "attr": {"T": {"type": "DT_FLOAT"}}}, {"name": "module_apply_default/InceptionV3/Logits/GlobalPool", "op": "Mean", "input": ["module_apply_default/InceptionV3/InceptionV3/Mixed_7c/Branch_0/Conv2d_0a_1x1/Relu", "module_apply_default/InceptionV3/Logits/GlobalPool/reduction_indices"], "attr": {"T": {"type": "DT_FLOAT"}, "Tidx": {"type": "DT_INT32"}, "keep_dims": {"b": true}}}, {"name": "module_apply_default/hub_output/feature_vector/SpatialSqueeze", "op": "Squeeze", "input": ["module_apply_default/InceptionV3/Logits/GlobalPool"], "attr": {"squeeze_dims": {"list": {"i": ["1", "2"]}}, "T": {"type": "DT_FLOAT"}}}, {"name": "input/BottleneckInputPlaceholder", "op": "PlaceholderWithDefault", "input": ["module_apply_default/hub_output/feature_vector/SpatialSqueeze"], "attr": {"dtype": {"type": "DT_FLOAT"}, "shape": {"shape": {"dim": [{"size": "-1"}, {"size": "2048"}]}}}}, {"name": "final_retrain_ops/Wx_plus_b/MatMul", "op": "MatMul", "input": ["input/BottleneckInputPlaceholder", "final_retrain_ops/weights/final_weights"], "device": "/device:CPU:0", "attr": {"transpose_a": {"b": false}, "transpose_b": {"b": false}, "T": {"type": "DT_FLOAT"}}}, {"name": "final_retrain_ops/Wx_plus_b/add", "op": "AddV2", "input": ["final_retrain_ops/Wx_plus_b/MatMul", "final_retrain_ops/biases/final_biases"], "attr": {"T": {"type": "DT_FLOAT"}}}, {"name": "final_result", "op": "Softmax", "input": ["final_retrain_ops/Wx_plus_b/add"], "attr": {"T": {"type": "DT_FLOAT"}}}], "versions": {"producer": 134}}, "weightsManifest": [{"paths": ["group1-shard1of6.bin", "group1-shard2of6.bin", "group1-shard3of6.bin", "group1-shard4of6.bin", "group1-shard5of6.bin", "group1-shard6of6.bin"], "weights": [{"name": "module_apply_default/hub_input/Mul/y", "shape": [], "dtype": "float32", "quantization": {"min": 2.0, "scale": 1.0, "dtype": "uint8"}}, {"name": "module_apply_default/hub_input/Sub/y", "shape": [], "dtype": "float32", "quantization": {"min": 1.0, "scale": 1.0, "dtype": "uint8"}}, {"name": "module_apply_default/InceptionV3/InceptionV3/Mixed_5b/concat/axis", "shape": [], "dtype": "int32"}, {"name": "final_retrain_ops/weights/final_weights", "shape": [2048, 2], "dtype": "float32", "quantization": {"min": -0.1851794074563419, "scale": 0.001446714120752671, "dtype": "uint8"}}, {"name": "final_retrain_ops/biases/final_biases", "shape": [2], "dtype": "float32", "quantization": {"min": -0.039571042154349534, "scale": 0.00030914876683085573, "dtype": "uint8"}}, {"name": "module_apply_default/InceptionV3/Logits/GlobalPool/reduction_indices", "shape": [2], "dtype": "int32"}, {"name": "module_apply_default/InceptionV3/InceptionV3/Conv2d_1a_3x3/Conv2D_weights", "shape": [3, 3, 3, 32], "dtype": "float32", "quantization": {"min": -4.454445622014064, "scale": 0.03774953916961071, "dtype": "uint8"}}, {"name": "module_apply_default/InceptionV3/InceptionV3/Conv2d_1a_3x3/Conv2D_bn_offset", "shape": [32], "dtype": "float32", "quantization": {"min": -1.527759645499435, "scale": 0.021825137792849073, "dtype": "uint8"}}, {"name": "module_apply_default/InceptionV3/InceptionV3/Mixed_6e/Branch_2/Conv2d_0b_7x1/Conv2D_bn_offset", "shape": [192], "dtype": "float32", "quantization": {"min": -1.5546856644106846, "scale": 0.009902456461214551, "dtype": "uint8"}}, {"name": "module_apply_default/InceptionV3/InceptionV3/Conv2d_2a_3x3/Conv2D_weights", "shape": [3, 3, 32, 32], "dtype": "float32", "quantization": {"min": -0.8310255985634, "scale": 0.01093454734951842, "dtype": "uint8"}}, {"name": "module_apply_default/InceptionV3/InceptionV3/Conv2d_2a_3x3/Conv2D_bn_offset", "shape": [32], "dtype": "float32", "quantization": {"min": -3.1683994405409868, "scale": 0.03200403475293926, "dtype": "uint8"}}, {"name": "module_apply_default/InceptionV3/InceptionV3/Conv2d_2b_3x3/Conv2D_weights", "shape": [3, 3, 32, 64], "dtype": "float32", "quantization": {"min": -0.8235645294189454, "scale": 0.008235645294189454, "dtype": "uint8"}}, {"name": "module_apply_default/InceptionV3/InceptionV3/Mixed_6e/Branch_1/Conv2d_0c_7x1/Conv2D_weights", "shape": [7, 1, 192, 192], "dtype": "float32", "quantization": {"min": -0.3114673609827079, "scale": 0.0025530111555959662, "dtype": "uint8"}}, {"name": "module_apply_default/InceptionV3/InceptionV3/Conv2d_2b_3x3/Conv2D_bn_offset", "shape": [64], "dtype": "float32", "quantization": {"min": -2.166738253948735, "scale": 0.02434537363987343, "dtype": "uint8"}}, {"name": "module_apply_default/InceptionV3/InceptionV3/Conv2d_3b_1x1/Conv2D_weights", "shape": [1, 1, 64, 80], "dtype": "float32", "quantization": {"min": -0.9315203830307606, "scale": 0.008787928141799628, "dtype": "uint8"}}, {"name": "module_apply_default/InceptionV3/InceptionV3/Mixed_7c/Branch_2/Conv2d_0a_1x1/Conv2D_weights", "shape": [1, 1, 2048, 448], "dtype": "float32", "quantization": {"min": -0.8038747366736917, "scale": 0.006089960126315846, "dtype": "uint8"}}, {"name": "module_apply_default/InceptionV3/InceptionV3/Conv2d_3b_1x1/Conv2D_bn_offset", "shape": [80], "dtype": "float32", "quantization": {"min": -1.6439973045797909, "scale": 0.03424994384541231, "dtype": "uint8"}}, {"name": "module_apply_default/InceptionV3/InceptionV3/Mixed_6e/Branch_1/Conv2d_0c_7x1/Conv2D_bn_offset", "shape": [192], "dtype": "float32", "quantization": {"min": -1.2138471519245821, "scale": 0.016403339890872733, "dtype": "uint8"}}, {"name": "module_apply_default/InceptionV3/InceptionV3/Conv2d_4a_3x3/Conv2D_weights", "shape": [3, 3, 80, 192], "dtype": "float32", "quantization": {"min": -0.7312794926119786, "scale": 0.0057581062410392014, "dtype": "uint8"}}, {"name": "module_apply_default/InceptionV3/InceptionV3/Conv2d_4a_3x3/Conv2D_bn_offset", "shape": [192], "dtype": "float32", "quantization": {"min": -5.134034938438266, "scale": 0.05641796635646446, "dtype": "uint8"}}, {"name": "module_apply_default/InceptionV3/InceptionV3/Mixed_5b/Branch_0/Conv2d_0a_1x1/Conv2D_weights", "shape": [1, 1, 192, 64], "dtype": "float32", "quantization": {"min": -0.5562778594447118, "scale": 0.004279060457267014, "dtype": "uint8"}}, {"name": "module_apply_default/InceptionV3/InceptionV3/Mixed_6e/Branch_2/Conv2d_0c_1x7/Conv2D_weights", "shape": [1, 7, 192, 192], "dtype": "float32", "quantization": {"min": -0.42899675953621963, "scale": 0.004247492668675442, "dtype": "uint8"}}, {"name": "module_apply_default/InceptionV3/InceptionV3/Mixed_5b/Branch_0/Conv2d_0a_1x1/Conv2D_bn_offset", "shape": [64], "dtype": "float32", "quantization": {"min": -1.236582072575887, "scale": 0.03016053835550944, "dtype": "uint8"}}, {"name": "module_apply_default/InceptionV3/InceptionV3/Mixed_5b/Branch_1/Conv2d_0a_1x1/Conv2D_weights", "shape": [1, 1, 192, 48], "dtype": "float32", "quantization": {"min": -0.5150923869189094, "scale": 0.003992964239681468, "dtype": "uint8"}}, {"name": "module_apply_default/InceptionV3/InceptionV3/Mixed_7c/Branch_2/Conv2d_0d_3x1/Conv2D_bn_offset", "shape": [384], "dtype": "float32", "quantization": {"min": -0.5877044796943665, "scale": 0.0017885763855541453, "dtype": "uint8"}}, {"name": "module_apply_default/InceptionV3/InceptionV3/Mixed_5b/Branch_1/Conv2d_0a_1x1/Conv2D_bn_offset", "shape": [48], "dtype": "float32", "quantization": {"min": -2.570386138616824, "scale": 0.02215850119497262, "dtype": "uint8"}}, {"name": "module_apply_default/InceptionV3/InceptionV3/Mixed_6e/Branch_2/Conv2d_0c_1x7/Conv2D_bn_offset", "shape": [192], "dtype": "float32", "quantization": {"min": -1.9125453387989717, "scale": 0.01180583542468501, "dtype": "uint8"}}, {"name": "module_apply_default/InceptionV3/InceptionV3/Mixed_5b/Branch_2/Conv2d_0a_1x1/Conv2D_weights", "shape": [1, 1, 192, 64], "dtype": "float32", "quantization": {"min": -0.48527488381254913, "scale": 0.005452526784410664, "dtype": "uint8"}}, {"name": "module_apply_default/InceptionV3/InceptionV3/Mixed_7c/Branch_2/Conv2d_0a_1x1/Conv2D_bn_offset", "shape": [448], "dtype": "float32", "quantization": {"min": -1.9755694258446788, "scale": 0.010736790357851515, "dtype": "uint8"}}, {"name": "module_apply_default/InceptionV3/InceptionV3/Mixed_5b/Branch_2/Conv2d_0a_1x1/Conv2D_bn_offset", "shape": [64], "dtype": "float32", "quantization": {"min": -3.984288215637207, "scale": 0.046873979007496555, "dtype": "uint8"}}, {"name": "module_apply_default/InceptionV3/InceptionV3/Mixed_5b/Branch_3/Conv2d_0b_1x1/Conv2D_weights", "shape": [1, 1, 192, 32], "dtype": "float32", "quantization": {"min": -1.4185223663554472, "scale": 0.00864952662411858, "dtype": "uint8"}}, {"name": "module_apply_default/InceptionV3/InceptionV3/Mixed_6e/Branch_2/Conv2d_0d_7x1/Conv2D_weights", "shape": [7, 1, 192, 192], "dtype": "float32", "quantization": {"min": -0.32514706803303134, "scale": 0.002877407681708242, "dtype": "uint8"}}, {"name": "module_apply_default/InceptionV3/InceptionV3/Mixed_5b/Branch_3/Conv2d_0b_1x1/Conv2D_bn_offset", "shape": [32], "dtype": "float32", "quantization": {"min": -6.639532566070557, "scale": 0.039056073918062095, "dtype": "uint8"}}, {"name": "module_apply_default/InceptionV3/InceptionV3/Mixed_5b/Branch_1/Conv2d_0b_5x5/Conv2D_weights", "shape": [5, 5, 48, 64], "dtype": "float32", "quantization": {"min": -0.5409947802038754, "scale": 0.004745568247402416, "dtype": "uint8"}}, {"name": "module_apply_default/InceptionV3/InceptionV3/Mixed_5b/Branch_1/Conv2d_0b_5x5/Conv2D_bn_offset", "shape": [64], "dtype": "float32", "quantization": {"min": -2.186354689504586, "scale": 0.026662862067129096, "dtype": "uint8"}}, {"name": "module_apply_default/InceptionV3/InceptionV3/Mixed_5b/Branch_2/Conv2d_0b_3x3/Conv2D_weights", "shape": [3, 3, 64, 96], "dtype": "float32", "quantization": {"min": -0.6976450461967318, "scale": 0.005765661538815966, "dtype": "uint8"}}, {"name": "module_apply_default/InceptionV3/InceptionV3/Mixed_6e/Branch_2/Conv2d_0d_7x1/Conv2D_bn_offset", "shape": [192], "dtype": "float32", "quantization": {"min": -2.125122429810318, "scale": 0.011938890055114148, "dtype": "uint8"}}, {"name": "module_apply_default/InceptionV3/InceptionV3/Mixed_5b/Branch_2/Conv2d_0b_3x3/Conv2D_bn_offset", "shape": [96], "dtype": "float32", "quantization": {"min": -2.7058888828053194, "scale": 0.03469088311288871, "dtype": "uint8"}}, {"name": "module_apply_default/InceptionV3/InceptionV3/Mixed_5b/Branch_2/Conv2d_0c_3x3/Conv2D_weights", "shape": [3, 3, 96, 96], "dtype": "float32", "quantization": {"min": -0.3355555216471354, "scale": 0.004247538248697917, "dtype": "uint8"}}, {"name": "module_apply_default/InceptionV3/InceptionV3/Mixed_5b/Branch_2/Conv2d_0c_3x3/Conv2D_bn_offset", "shape": [96], "dtype": "float32", "quantization": {"min": -2.3679414188160615, "scale": 0.02114233409657198, "dtype": "uint8"}}, {"name": "module_apply_default/InceptionV3/InceptionV3/Mixed_5c/Branch_0/Conv2d_0a_1x1/Conv2D_weights", "shape": [1, 1, 256, 64], "dtype": "float32", "quantization": {"min": -0.6241435658697989, "scale": 0.005380547981636197, "dtype": "uint8"}}, {"name": "module_apply_default/InceptionV3/InceptionV3/Mixed_6e/Branch_2/Conv2d_0e_1x7/Conv2D_weights", "shape": [1, 7, 192, 192], "dtype": "float32", "quantization": {"min": -0.23759428426331164, "scale": 0.002284560425608766, "dtype": "uint8"}}, {"name": "module_apply_default/InceptionV3/InceptionV3/Mixed_5c/Branch_0/Conv2d_0a_1x1/Conv2D_bn_offset", "shape": [64], "dtype": "float32", "quantization": {"min": -3.841431221307493, "scale": 0.03174736546535118, "dtype": "uint8"}}, {"name": "module_apply_default/InceptionV3/InceptionV3/Mixed_5c/Branch_1/Conv2d_0b_1x1/Conv2D_weights", "shape": [1, 1, 256, 48], "dtype": "float32", "quantization": {"min": -0.594762518826653, "scale": 0.004505776657777674, "dtype": "uint8"}}, {"name": "module_apply_default/InceptionV3/InceptionV3/Mixed_7c/Branch_0/Conv2d_0a_1x1/Conv2D_weights", "shape": [1, 1, 2048, 320], "dtype": "float32", "quantization": {"min": -1.2144950230916343, "scale": 0.01428817674225452, "dtype": "uint8"}}, {"name": "module_apply_default/InceptionV3/InceptionV3/Mixed_5c/Branch_1/Conv2d_0b_1x1/Conv2D_bn_offset", "shape": [48], "dtype": "float32", "quantization": {"min": -4.621851348876953, "scale": 0.045312268126244636, "dtype": "uint8"}}, {"name": "module_apply_default/InceptionV3/InceptionV3/Mixed_6e/Branch_2/Conv2d_0e_1x7/Conv2D_bn_offset", "shape": [192], "dtype": "float32", "quantization": {"min": -0.7825516146772048, "scale": 0.00966113104539759, "dtype": "uint8"}}, {"name": "module_apply_default/InceptionV3/InceptionV3/Mixed_5c/Branch_2/Conv2d_0a_1x1/Conv2D_weights", "shape": [1, 1, 256, 64], "dtype": "float32", "quantization": {"min": -0.5894687367420571, "scale": 0.004995497769000484, "dtype": "uint8"}}, {"name": "module_apply_default/InceptionV3/InceptionV3/Mixed_5c/Branch_2/Conv2d_0a_1x1/Conv2D_bn_offset", "shape": [64], "dtype": "float32", "quantization": {"min": -5.235387768464929, "scale": 0.037937592525108185, "dtype": "uint8"}}, {"name": "module_apply_default/InceptionV3/InceptionV3/Mixed_5c/Branch_3/Conv2d_0b_1x1/Conv2D_weights", "shape": [1, 1, 256, 64], "dtype": "float32", "quantization": {"min": -1.0778887248506734, "scale": 0.008908171279757631, "dtype": "uint8"}}, {"name": "module_apply_default/InceptionV3/InceptionV3/Mixed_5c/Branch_3/Conv2d_0b_1x1/Conv2D_bn_offset", "shape": [64], "dtype": "float32", "quantization": {"min": -4.104709787929759, "scale": 0.033371624292111865, "dtype": "uint8"}}, {"name": "module_apply_default/InceptionV3/InceptionV3/Mixed_5c/Branch_1/Conv_1_0c_5x5/Conv2D_weights", "shape": [5, 5, 48, 64], "dtype": "float32", "quantization": {"min": -0.4426448941230774, "scale": 0.0037197049926309023, "dtype": "uint8"}}, {"name": "module_apply_default/InceptionV3/InceptionV3/Mixed_5c/Branch_1/Conv_1_0c_5x5/Conv2D_bn_offset", "shape": [64], "dtype": "float32", "quantization": {"min": -2.7085454389160755, "scale": 0.02681728157342649, "dtype": "uint8"}}, {"name": "module_apply_default/InceptionV3/InceptionV3/Mixed_5c/Branch_2/Conv2d_0b_3x3/Conv2D_weights", "shape": [3, 3, 64, 96], "dtype": "float32", "quantization": {"min": -0.44605459021587, "scale": 0.004551577451182347, "dtype": "uint8"}}, {"name": "module_apply_default/InceptionV3/InceptionV3/Mixed_7a/Branch_0/Conv2d_0a_1x1/Conv2D_weights", "shape": [1, 1, 768, 192], "dtype": "float32", "quantization": {"min": -0.7330658961744869, "scale": 0.006374486053691191, "dtype": "uint8"}}, {"name": "module_apply_default/InceptionV3/InceptionV3/Mixed_5c/Branch_2/Conv2d_0b_3x3/Conv2D_bn_offset", "shape": [96], "dtype": "float32", "quantization": {"min": -2.084640111175238, "scale": 0.026387849508547317, "dtype": "uint8"}}, {"name": "module_apply_default/InceptionV3/InceptionV3/Mixed_5c/Branch_2/Conv2d_0c_3x3/Conv2D_weights", "shape": [3, 3, 96, 96], "dtype": "float32", "quantization": {"min": -0.4141358957571142, "scale": 0.006274786299350215, "dtype": "uint8"}}, {"name": "module_apply_default/InceptionV3/InceptionV3/Mixed_7a/Branch_0/Conv2d_0a_1x1/Conv2D_bn_offset", "shape": [192], "dtype": "float32", "quantization": {"min": -2.824084866280649, "scale": 0.015265323601517023, "dtype": "uint8"}}, {"name": "module_apply_default/InceptionV3/InceptionV3/Mixed_5c/Branch_2/Conv2d_0c_3x3/Conv2D_bn_offset", "shape": [96], "dtype": "float32", "quantization": {"min": -2.2825023090138155, "scale": 0.015633577458998738, "dtype": "uint8"}}, {"name": "module_apply_default/InceptionV3/InceptionV3/Mixed_5d/Branch_0/Conv2d_0a_1x1/Conv2D_weights", "shape": [1, 1, 288, 64], "dtype": "float32", "quantization": {"min": -1.0751756163204418, "scale": 0.00621488795560949, "dtype": "uint8"}}, {"name": "module_apply_default/InceptionV3/InceptionV3/Mixed_7c/Branch_0/Conv2d_0a_1x1/Conv2D_bn_offset", "shape": [320], "dtype": "float32", "quantization": {"min": -0.35537124942330756, "scale": 0.0025203634710872875, "dtype": "uint8"}}, {"name": "module_apply_default/InceptionV3/InceptionV3/Mixed_5d/Branch_0/Conv2d_0a_1x1/Conv2D_bn_offset", "shape": [64], "dtype": "float32", "quantization": {"min": -2.969944965138155, "scale": 0.028557163126328413, "dtype": "uint8"}}, {"name": "module_apply_default/InceptionV3/InceptionV3/Mixed_5d/Branch_1/Conv2d_0a_1x1/Conv2D_weights", "shape": [1, 1, 288, 48], "dtype": "float32", "quantization": {"min": -0.5093708547891355, "scale": 0.0045077066795498714, "dtype": "uint8"}}, {"name": "module_apply_default/InceptionV3/InceptionV3/Mixed_5d/Branch_1/Conv2d_0a_1x1/Conv2D_bn_offset", "shape": [48], "dtype": "float32", "quantization": {"min": -2.9320896943410237, "scale": 0.02204578717549642, "dtype": "uint8"}}, {"name": "module_apply_default/InceptionV3/InceptionV3/Mixed_7a/Branch_1/Conv2d_0a_1x1/Conv2D_weights", "shape": [1, 1, 768, 192], "dtype": "float32", "quantization": {"min": -1.078028621860579, "scale": 0.009135835778479482, "dtype": "uint8"}}, {"name": "module_apply_default/InceptionV3/InceptionV3/Mixed_5d/Branch_2/Conv2d_0a_1x1/Conv2D_weights", "shape": [1, 1, 288, 64], "dtype": "float32", "quantization": {"min": -0.8879718955825358, "scale": 0.006577569596907672, "dtype": "uint8"}}, {"name": "module_apply_default/InceptionV3/InceptionV3/Mixed_5d/Branch_2/Conv2d_0a_1x1/Conv2D_bn_offset", "shape": [64], "dtype": "float32", "quantization": {"min": -3.2605708814134786, "scale": 0.032605708814134785, "dtype": "uint8"}}, {"name": "module_apply_default/InceptionV3/InceptionV3/Mixed_7a/Branch_1/Conv2d_0a_1x1/Conv2D_bn_offset", "shape": [192], "dtype": "float32", "quantization": {"min": -2.9073376711677104, "scale": 0.01964417345383588, "dtype": "uint8"}}, {"name": "module_apply_default/InceptionV3/InceptionV3/Mixed_5d/Branch_3/Conv2d_0b_1x1/Conv2D_weights", "shape": [1, 1, 288, 64], "dtype": "float32", "quantization": {"min": -0.8295290771652671, "scale": 0.008919667496400722, "dtype": "uint8"}}, {"name": "module_apply_default/InceptionV3/InceptionV3/Mixed_7c/Branch_3/Conv2d_0b_1x1/Conv2D_weights", "shape": [1, 1, 2048, 192], "dtype": "float32", "quantization": {"min": -2.8582799434661865, "scale": 0.021172444025675457, "dtype": "uint8"}}, {"name": "module_apply_default/InceptionV3/InceptionV3/Mixed_5d/Branch_3/Conv2d_0b_1x1/Conv2D_bn_offset", "shape": [64], "dtype": "float32", "quantization": {"min": -4.760500075770359, "scale": 0.03071290371464748, "dtype": "uint8"}}, {"name": "module_apply_default/InceptionV3/InceptionV3/Mixed_5d/Branch_1/Conv2d_0b_5x5/Conv2D_weights", "shape": [5, 5, 48, 64], "dtype": "float32", "quantization": {"min": -0.2967009831877316, "scale": 0.0026026402034011542, "dtype": "uint8"}}, {"name": "module_apply_default/InceptionV3/InceptionV3/Mixed_5d/Branch_1/Conv2d_0b_5x5/Conv2D_bn_offset", "shape": [64], "dtype": "float32", "quantization": {"min": -1.2137266691993265, "scale": 0.015363628724042106, "dtype": "uint8"}}, {"name": "module_apply_default/InceptionV3/InceptionV3/Mixed_5d/Branch_2/Conv2d_0b_3x3/Conv2D_weights", "shape": [3, 3, 64, 96], "dtype": "float32", "quantization": {"min": -0.5871114702785717, "scale": 0.004659614843480727, "dtype": "uint8"}}, {"name": "module_apply_default/InceptionV3/InceptionV3/Mixed_7a/Branch_0/Conv2d_1a_3x3/Conv2D_weights", "shape": [3, 3, 192, 320], "dtype": "float32", "quantization": {"min": -0.27391620231609715, "scale": 0.0035573532768324308, "dtype": "uint8"}}, {"name": "module_apply_default/InceptionV3/InceptionV3/Mixed_5d/Branch_2/Conv2d_0b_3x3/Conv2D_bn_offset", "shape": [96], "dtype": "float32", "quantization": {"min": -1.7101635259740493, "scale": 0.015001434438368853, "dtype": "uint8"}}, {"name": "module_apply_default/InceptionV3/InceptionV3/Mixed_5d/Branch_2/Conv2d_0c_3x3/Conv2D_weights", "shape": [3, 3, 96, 96], "dtype": "float32", "quantization": {"min": -0.30006683866182965, "scale": 0.003530198101903878, "dtype": "uint8"}}, {"name": "module_apply_default/InceptionV3/InceptionV3/Mixed_7a/Branch_0/Conv2d_1a_3x3/Conv2D_bn_offset", "shape": [320], "dtype": "float32", "quantization": {"min": -2.5236745834350587, "scale": 0.02336735725402832, "dtype": "uint8"}}, {"name": "module_apply_default/InceptionV3/InceptionV3/Mixed_5d/Branch_2/Conv2d_0c_3x3/Conv2D_bn_offset", "shape": [96], "dtype": "float32", "quantization": {"min": -0.7827145139376323, "scale": 0.010722116629282633, "dtype": "uint8"}}, {"name": "module_apply_default/InceptionV3/InceptionV3/Mixed_6a/Branch_0/Conv2d_1a_1x1/Conv2D_weights", "shape": [3, 3, 288, 384], "dtype": "float32", "quantization": {"min": -0.22877124068783777, "scale": 0.0028958384897194655, "dtype": "uint8"}}, {"name": "module_apply_default/InceptionV3/InceptionV3/Mixed_7c/Branch_3/Conv2d_0b_1x1/Conv2D_bn_offset", "shape": [192], "dtype": "float32", "quantization": {"min": -0.21903355974777072, "scale": 0.003982428359050377, "dtype": "uint8"}}, {"name": "module_apply_default/InceptionV3/InceptionV3/Mixed_6a/Branch_0/Conv2d_1a_1x1/Conv2D_bn_offset", "shape": [384], "dtype": "float32", "quantization": {"min": -3.5890229617848117, "scale": 0.03323169409060011, "dtype": "uint8"}}, {"name": "module_apply_default/InceptionV3/InceptionV3/Mixed_6a/Branch_1/Conv2d_0a_1x1/Conv2D_weights", "shape": [1, 1, 288, 64], "dtype": "float32", "quantization": {"min": -0.6493649861391853, "scale": 0.00515369036618401, "dtype": "uint8"}}, {"name": "module_apply_default/InceptionV3/InceptionV3/Mixed_7a/Branch_1/Conv2d_0b_1x7/Conv2D_weights", "shape": [1, 7, 192, 192], "dtype": "float32", "quantization": {"min": -0.40938206373476516, "scale": 0.0035291557218514237, "dtype": "uint8"}}, {"name": "module_apply_default/InceptionV3/InceptionV3/Mixed_6a/Branch_1/Conv2d_0a_1x1/Conv2D_bn_offset", "shape": [64], "dtype": "float32", "quantization": {"min": -2.4048302771998387, "scale": 0.023347866768930473, "dtype": "uint8"}}, {"name": "module_apply_default/InceptionV3/InceptionV3/Mixed_6a/Branch_1/Conv2d_0b_3x3/Conv2D_weights", "shape": [3, 3, 64, 96], "dtype": "float32", "quantization": {"min": -0.41557360922589026, "scale": 0.003957843897389431, "dtype": "uint8"}}, {"name": "module_apply_default/InceptionV3/InceptionV3/Mixed_7a/Branch_1/Conv2d_0b_1x7/Conv2D_bn_offset", "shape": [192], "dtype": "float32", "quantization": {"min": -2.6092756682751226, "scale": 0.019618614047181373, "dtype": "uint8"}}, {"name": "module_apply_default/InceptionV3/InceptionV3/Mixed_6a/Branch_1/Conv2d_0b_3x3/Conv2D_bn_offset", "shape": [96], "dtype": "float32", "quantization": {"min": -3.0431138396263124, "scale": 0.015139869848887126, "dtype": "uint8"}}, {"name": "module_apply_default/InceptionV3/InceptionV3/Mixed_7c/Branch_1/Conv2d_0b_1x3/Conv2D_weights", "shape": [1, 3, 384, 384], "dtype": "float32", "quantization": {"min": -0.39450232515148087, "scale": 0.009174472677941416, "dtype": "uint8"}}, {"name": "module_apply_default/InceptionV3/InceptionV3/Mixed_6a/Branch_1/Conv2d_1a_1x1/Conv2D_weights", "shape": [3, 3, 96, 96], "dtype": "float32", "quantization": {"min": -0.28643904012792254, "scale": 0.003330686513115378, "dtype": "uint8"}}, {"name": "module_apply_default/InceptionV3/InceptionV3/Mixed_6a/Branch_1/Conv2d_1a_1x1/Conv2D_bn_offset", "shape": [96], "dtype": "float32", "quantization": {"min": -1.3912267095902389, "scale": 0.011041481822144752, "dtype": "uint8"}}, {"name": "module_apply_default/InceptionV3/InceptionV3/Mixed_7a/Branch_1/Conv2d_0c_7x1/Conv2D_weights", "shape": [7, 1, 192, 192], "dtype": "float32", "quantization": {"min": -0.33541430866017063, "scale": 0.00289150266086354, "dtype": "uint8"}}, {"name": "module_apply_default/InceptionV3/InceptionV3/Mixed_6b/Branch_0/Conv2d_0a_1x1/Conv2D_weights", "shape": [1, 1, 768, 192], "dtype": "float32", "quantization": {"min": -0.512953426323685, "scale": 0.004705994736914541, "dtype": "uint8"}}, {"name": "module_apply_default/InceptionV3/InceptionV3/Mixed_6b/Branch_0/Conv2d_0a_1x1/Conv2D_bn_offset", "shape": [192], "dtype": "float32", "quantization": {"min": -2.410836691014907, "scale": 0.0225311840281767, "dtype": "uint8"}}, {"name": "module_apply_default/InceptionV3/InceptionV3/Mixed_6b/Branch_1/Conv2d_0a_1x1/Conv2D_weights", "shape": [1, 1, 768, 128], "dtype": "float32", "quantization": {"min": -0.3567408019421147, "scale": 0.004459260024276434, "dtype": "uint8"}}, {"name": "module_apply_default/InceptionV3/InceptionV3/Mixed_7a/Branch_1/Conv2d_0c_7x1/Conv2D_bn_offset", "shape": [192], "dtype": "float32", "quantization": {"min": -3.6152227495230878, "scale": 0.020310240165860045, "dtype": "uint8"}}, {"name": "module_apply_default/InceptionV3/InceptionV3/Mixed_6b/Branch_1/Conv2d_0a_1x1/Conv2D_bn_offset", "shape": [128], "dtype": "float32", "quantization": {"min": -2.567749655480478, "scale": 0.015753065371045878, "dtype": "uint8"}}, {"name": "module_apply_default/InceptionV3/InceptionV3/Mixed_7c/Branch_1/Conv2d_0b_1x3/Conv2D_bn_offset", "shape": [384], "dtype": "float32", "quantization": {"min": -0.5548152923583984, "scale": 0.001338710445983737, "dtype": "uint8"}}, {"name": "module_apply_default/InceptionV3/InceptionV3/Mixed_6b/Branch_2/Conv2d_0a_1x1/Conv2D_weights", "shape": [1, 1, 768, 128], "dtype": "float32", "quantization": {"min": -0.5993988765221017, "scale": 0.004133785355324839, "dtype": "uint8"}}, {"name": "module_apply_default/InceptionV3/InceptionV3/Mixed_6b/Branch_2/Conv2d_0a_1x1/Conv2D_bn_offset", "shape": [128], "dtype": "float32", "quantization": {"min": -2.5797704247867363, "scale": 0.020474368450688382, "dtype": "uint8"}}, {"name": "module_apply_default/InceptionV3/InceptionV3/Mixed_7a/Branch_1/Conv2d_1a_3x3/Conv2D_weights", "shape": [3, 3, 192, 192], "dtype": "float32", "quantization": {"min": -0.5601023047578101, "scale": 0.00595853515699798, "dtype": "uint8"}}, {"name": "module_apply_default/InceptionV3/InceptionV3/Mixed_6b/Branch_3/Conv2d_0b_1x1/Conv2D_weights", "shape": [1, 1, 768, 192], "dtype": "float32", "quantization": {"min": -1.4438157558441163, "scale": 0.009821875890096029, "dtype": "uint8"}}, {"name": "module_apply_default/InceptionV3/InceptionV3/Mixed_6b/Branch_3/Conv2d_0b_1x1/Conv2D_bn_offset", "shape": [192], "dtype": "float32", "quantization": {"min": -4.625712282517377, "scale": 0.03558240217321059, "dtype": "uint8"}}, {"name": "module_apply_default/InceptionV3/InceptionV3/Mixed_6b/Branch_1/Conv2d_0b_1x7/Conv2D_weights", "shape": [1, 7, 128, 128], "dtype": "float32", "quantization": {"min": -0.43847139208924535, "scale": 0.005480892401115567, "dtype": "uint8"}}, {"name": "module_apply_default/InceptionV3/InceptionV3/Mixed_7a/Branch_1/Conv2d_1a_3x3/Conv2D_bn_offset", "shape": [192], "dtype": "float32", "quantization": {"min": -1.9168212666231041, "scale": 0.015458236021154067, "dtype": "uint8"}}, {"name": "module_apply_default/InceptionV3/InceptionV3/Mixed_6b/Branch_1/Conv2d_0b_1x7/Conv2D_bn_offset", "shape": [128], "dtype": "float32", "quantization": {"min": -1.3770623800801296, "scale": 0.012869741869907754, "dtype": "uint8"}}, {"name": "module_apply_default/InceptionV3/InceptionV3/Mixed_7c/Branch_1/Conv2d_0c_3x1/Conv2D_weights", "shape": [3, 1, 384, 384], "dtype": "float32", "quantization": {"min": -0.4651186186893314, "scale": 0.009896140823177264, "dtype": "uint8"}}, {"name": "module_apply_default/InceptionV3/InceptionV3/Mixed_6b/Branch_2/Conv2d_0b_7x1/Conv2D_weights", "shape": [7, 1, 128, 128], "dtype": "float32", "quantization": {"min": -0.30461184125320584, "scale": 0.0036700221837735643, "dtype": "uint8"}}, {"name": "module_apply_default/InceptionV3/InceptionV3/Mixed_6b/Branch_2/Conv2d_0b_7x1/Conv2D_bn_offset", "shape": [128], "dtype": "float32", "quantization": {"min": -2.7605778750251324, "scale": 0.018161696546217975, "dtype": "uint8"}}, {"name": "module_apply_default/InceptionV3/InceptionV3/Mixed_6b/Branch_1/Conv2d_0c_7x1/Conv2D_weights", "shape": [7, 1, 128, 192], "dtype": "float32", "quantization": {"min": -0.508572026795032, "scale": 0.00508572026795032, "dtype": "uint8"}}, {"name": "module_apply_default/InceptionV3/InceptionV3/Mixed_6b/Branch_1/Conv2d_0c_7x1/Conv2D_bn_offset", "shape": [192], "dtype": "float32", "quantization": {"min": -2.1645490795958278, "scale": 0.01665037753535252, "dtype": "uint8"}}, {"name": "module_apply_default/InceptionV3/InceptionV3/Mixed_6b/Branch_2/Conv2d_0c_1x7/Conv2D_weights", "shape": [1, 7, 128, 128], "dtype": "float32", "quantization": {"min": -0.36935786008834837, "scale": 0.004450094699859619, "dtype": "uint8"}}, {"name": "module_apply_default/InceptionV3/InceptionV3/Mixed_7b/Branch_0/Conv2d_0a_1x1/Conv2D_weights", "shape": [1, 1, 1280, 320], "dtype": "float32", "quantization": {"min": -0.6614101599244511, "scale": 0.006299144380232867, "dtype": "uint8"}}, {"name": "module_apply_default/InceptionV3/InceptionV3/Mixed_6b/Branch_2/Conv2d_0c_1x7/Conv2D_bn_offset", "shape": [128], "dtype": "float32", "quantization": {"min": -2.1103111042695883, "scale": 0.017018637937657972, "dtype": "uint8"}}, {"name": "module_apply_default/InceptionV3/InceptionV3/Mixed_6b/Branch_2/Conv2d_0d_7x1/Conv2D_weights", "shape": [7, 1, 128, 128], "dtype": "float32", "quantization": {"min": -0.3621588321293101, "scale": 0.0043633594232447, "dtype": "uint8"}}, {"name": "module_apply_default/InceptionV3/InceptionV3/Mixed_7b/Branch_0/Conv2d_0a_1x1/Conv2D_bn_offset", "shape": [320], "dtype": "float32", "quantization": {"min": -1.7471350856855803, "scale": 0.012569317163205614, "dtype": "uint8"}}, {"name": "module_apply_default/InceptionV3/InceptionV3/Mixed_6b/Branch_2/Conv2d_0d_7x1/Conv2D_bn_offset", "shape": [128], "dtype": "float32", "quantization": {"min": -2.4717342432807476, "scale": 0.01830914254282035, "dtype": "uint8"}}, {"name": "module_apply_default/InceptionV3/InceptionV3/Mixed_6b/Branch_2/Conv2d_0e_1x7/Conv2D_weights", "shape": [1, 7, 128, 192], "dtype": "float32", "quantization": {"min": -0.33381584812613097, "scale": 0.0033381584812613094, "dtype": "uint8"}}, {"name": "module_apply_default/InceptionV3/InceptionV3/Mixed_7b/Branch_1/Conv2d_0a_1x1/Conv2D_weights", "shape": [1, 1, 1280, 384], "dtype": "float32", "quantization": {"min": -0.3500424863076677, "scale": 0.004430917548198326, "dtype": "uint8"}}, {"name": "module_apply_default/InceptionV3/InceptionV3/Mixed_6b/Branch_2/Conv2d_0e_1x7/Conv2D_bn_offset", "shape": [192], "dtype": "float32", "quantization": {"min": -2.120868580014098, "scale": 0.01928062345467362, "dtype": "uint8"}}, {"name": "module_apply_default/InceptionV3/InceptionV3/Mixed_6c/Branch_0/Conv2d_0a_1x1/Conv2D_weights", "shape": [1, 1, 768, 192], "dtype": "float32", "quantization": {"min": -0.5588154933031867, "scale": 0.004859265159158146, "dtype": "uint8"}}, {"name": "module_apply_default/InceptionV3/InceptionV3/Mixed_7c/Branch_1/Conv2d_0c_3x1/Conv2D_bn_offset", "shape": [384], "dtype": "float32", "quantization": {"min": -0.5418263673782349, "scale": 0.0013739264478870466, "dtype": "uint8"}}, {"name": "module_apply_default/InceptionV3/InceptionV3/Mixed_6c/Branch_0/Conv2d_0a_1x1/Conv2D_bn_offset", "shape": [192], "dtype": "float32", "quantization": {"min": -1.6374262454462984, "scale": 0.015022259132534849, "dtype": "uint8"}}, {"name": "module_apply_default/InceptionV3/InceptionV3/Mixed_6c/Branch_1/Conv2d_0a_1x1/Conv2D_weights", "shape": [1, 1, 768, 160], "dtype": "float32", "quantization": {"min": -0.9611996769905091, "scale": 0.006817018985748291, "dtype": "uint8"}}, {"name": "module_apply_default/InceptionV3/InceptionV3/Mixed_7b/Branch_1/Conv2d_0a_1x1/Conv2D_bn_offset", "shape": [384], "dtype": "float32", "quantization": {"min": -1.352219050538306, "scale": 0.007683062787149466, "dtype": "uint8"}}, {"name": "module_apply_default/InceptionV3/InceptionV3/Mixed_6c/Branch_1/Conv2d_0a_1x1/Conv2D_bn_offset", "shape": [160], "dtype": "float32", "quantization": {"min": -1.8365354229422175, "scale": 0.012162486244650448, "dtype": "uint8"}}, {"name": "module_apply_default/InceptionV3/InceptionV3/Mixed_6c/Branch_2/Conv2d_0a_1x1/Conv2D_weights", "shape": [1, 1, 768, 160], "dtype": "float32", "quantization": {"min": -0.6176590358509737, "scale": 0.005882467008104512, "dtype": "uint8"}}, {"name": "module_apply_default/InceptionV3/InceptionV3/Mixed_6c/Branch_2/Conv2d_0a_1x1/Conv2D_bn_offset", "shape": [160], "dtype": "float32", "quantization": {"min": -3.319925790674546, "scale": 0.02573585884243834, "dtype": "uint8"}}, {"name": "module_apply_default/InceptionV3/InceptionV3/Mixed_7b/Branch_2/Conv2d_0a_1x1/Conv2D_weights", "shape": [1, 1, 1280, 448], "dtype": "float32", "quantization": {"min": -0.4271113316218058, "scale": 0.004543737570444743, "dtype": "uint8"}}, {"name": "module_apply_default/InceptionV3/InceptionV3/Mixed_6c/Branch_3/Conv2d_0b_1x1/Conv2D_weights", "shape": [1, 1, 768, 192], "dtype": "float32", "quantization": {"min": -0.8854687966552436, "scale": 0.007257940956190521, "dtype": "uint8"}}, {"name": "module_apply_default/InceptionV3/InceptionV3/Mixed_7c/Branch_2/Conv2d_0b_3x3/Conv2D_weights", "shape": [3, 3, 448, 384], "dtype": "float32", "quantization": {"min": -0.28369177369510423, "scale": 0.003637074021732106, "dtype": "uint8"}}, {"name": "module_apply_default/InceptionV3/InceptionV3/Mixed_6c/Branch_3/Conv2d_0b_1x1/Conv2D_bn_offset", "shape": [192], "dtype": "float32", "quantization": {"min": -2.767576757599326, "scale": 0.016376193831948674, "dtype": "uint8"}}, {"name": "module_apply_default/InceptionV3/InceptionV3/Mixed_6c/Branch_1/Conv2d_0b_1x7/Conv2D_weights", "shape": [1, 7, 160, 160], "dtype": "float32", "quantization": {"min": -0.4694613393615274, "scale": 0.004267830357832067, "dtype": "uint8"}}, {"name": "module_apply_default/InceptionV3/InceptionV3/Mixed_7b/Branch_2/Conv2d_0a_1x1/Conv2D_bn_offset", "shape": [448], "dtype": "float32", "quantization": {"min": -3.165730652154661, "scale": 0.017205057892144895, "dtype": "uint8"}}, {"name": "module_apply_default/InceptionV3/InceptionV3/Mixed_6c/Branch_1/Conv2d_0b_1x7/Conv2D_bn_offset", "shape": [160], "dtype": "float32", "quantization": {"min": -1.549044782040166, "scale": 0.01156003568686691, "dtype": "uint8"}}, {"name": "module_apply_default/InceptionV3/InceptionV3/Mixed_6c/Branch_2/Conv2d_0b_7x1/Conv2D_weights", "shape": [7, 1, 160, 160], "dtype": "float32", "quantization": {"min": -0.3518549382686615, "scale": 0.003416067361831665, "dtype": "uint8"}}, {"name": "module_apply_default/InceptionV3/InceptionV3/Mixed_6c/Branch_2/Conv2d_0b_7x1/Conv2D_bn_offset", "shape": [160], "dtype": "float32", "quantization": {"min": -1.4873011565675922, "scale": 0.010856212821661257, "dtype": "uint8"}}, {"name": "module_apply_default/InceptionV3/InceptionV3/Mixed_7b/Branch_3/Conv2d_0b_1x1/Conv2D_weights", "shape": [1, 1, 1280, 192], "dtype": "float32", "quantization": {"min": -0.8077196619089911, "scale": 0.007692568208657059, "dtype": "uint8"}}, {"name": "module_apply_default/InceptionV3/InceptionV3/Mixed_6c/Branch_1/Conv2d_0c_7x1/Conv2D_weights", "shape": [7, 1, 160, 192], "dtype": "float32", "quantization": {"min": -0.563754984444263, "scale": 0.004988982163223566, "dtype": "uint8"}}, {"name": "module_apply_default/InceptionV3/InceptionV3/Mixed_7c/Branch_2/Conv2d_0b_3x3/Conv2D_bn_offset", "shape": [384], "dtype": "float32", "quantization": {"min": -0.7423499630946739, "scale": 0.014275960828743729, "dtype": "uint8"}}, {"name": "module_apply_default/InceptionV3/InceptionV3/Mixed_6c/Branch_1/Conv2d_0c_7x1/Conv2D_bn_offset", "shape": [192], "dtype": "float32", "quantization": {"min": -1.7574921411626478, "scale": 0.013948350326687682, "dtype": "uint8"}}, {"name": "module_apply_default/InceptionV3/InceptionV3/Mixed_6c/Branch_2/Conv2d_0c_1x7/Conv2D_weights", "shape": [1, 7, 160, 160], "dtype": "float32", "quantization": {"min": -0.4587125778198242, "scale": 0.004587125778198242, "dtype": "uint8"}}, {"name": "module_apply_default/InceptionV3/InceptionV3/Mixed_7b/Branch_3/Conv2d_0b_1x1/Conv2D_bn_offset", "shape": [192], "dtype": "float32", "quantization": {"min": -0.9902735186558145, "scale": 0.008116996054555856, "dtype": "uint8"}}, {"name": "module_apply_default/InceptionV3/InceptionV3/Mixed_6c/Branch_2/Conv2d_0c_1x7/Conv2D_bn_offset", "shape": [160], "dtype": "float32", "quantization": {"min": -2.3745134592056276, "scale": 0.016153152783711752, "dtype": "uint8"}}, {"name": "module_apply_default/InceptionV3/InceptionV3/Mixed_6c/Branch_2/Conv2d_0d_7x1/Conv2D_weights", "shape": [7, 1, 160, 160], "dtype": "float32", "quantization": {"min": -0.38524188995361325, "scale": 0.004012936353683471, "dtype": "uint8"}}, {"name": "module_apply_default/InceptionV3/InceptionV3/Mixed_7b/Branch_1/Conv2d_0b_1x3/Conv2D_weights", "shape": [1, 3, 384, 384], "dtype": "float32", "quantization": {"min": -0.3429163820603314, "scale": 0.003896777068867403, "dtype": "uint8"}}, {"name": "module_apply_default/InceptionV3/InceptionV3/Mixed_6c/Branch_2/Conv2d_0d_7x1/Conv2D_bn_offset", "shape": [160], "dtype": "float32", "quantization": {"min": -2.3450091908959783, "scale": 0.016631270857418286, "dtype": "uint8"}}, {"name": "module_apply_default/InceptionV3/InceptionV3/Mixed_6c/Branch_2/Conv2d_0e_1x7/Conv2D_weights", "shape": [1, 7, 160, 192], "dtype": "float32", "quantization": {"min": -0.38381384856560646, "scale": 0.004127030629737704, "dtype": "uint8"}}, {"name": "module_apply_default/InceptionV3/InceptionV3/Mixed_7b/Branch_1/Conv2d_0b_1x3/Conv2D_bn_offset", "shape": [384], "dtype": "float32", "quantization": {"min": -1.2146009755485196, "scale": 0.005702351997880374, "dtype": "uint8"}}, {"name": "module_apply_default/InceptionV3/InceptionV3/Mixed_6c/Branch_2/Conv2d_0e_1x7/Conv2D_bn_offset", "shape": [192], "dtype": "float32", "quantization": {"min": -3.323081386790556, "scale": 0.023076954074934417, "dtype": "uint8"}}, {"name": "module_apply_default/InceptionV3/InceptionV3/Mixed_6d/Branch_0/Conv2d_0a_1x1/Conv2D_weights", "shape": [1, 1, 768, 192], "dtype": "float32", "quantization": {"min": -1.1781095350489896, "scale": 0.007650061915902531, "dtype": "uint8"}}, {"name": "module_apply_default/InceptionV3/InceptionV3/Mixed_6d/Branch_0/Conv2d_0a_1x1/Conv2D_bn_offset", "shape": [192], "dtype": "float32", "quantization": {"min": -1.0646849950154622, "scale": 0.011572662989298503, "dtype": "uint8"}}, {"name": "module_apply_default/InceptionV3/InceptionV3/Mixed_6d/Branch_1/Conv2d_0a_1x1/Conv2D_weights", "shape": [1, 1, 768, 160], "dtype": "float32", "quantization": {"min": -0.5852081179618835, "scale": 0.004334874947865804, "dtype": "uint8"}}, {"name": "module_apply_default/InceptionV3/InceptionV3/Mixed_7b/Branch_1/Conv2d_0b_3x1/Conv2D_weights", "shape": [3, 1, 384, 384], "dtype": "float32", "quantization": {"min": -0.5876059560214772, "scale": 0.006387021261103013, "dtype": "uint8"}}, {"name": "module_apply_default/InceptionV3/InceptionV3/Mixed_6d/Branch_1/Conv2d_0a_1x1/Conv2D_bn_offset", "shape": [160], "dtype": "float32", "quantization": {"min": -2.818244415171006, "scale": 0.01878829610114004, "dtype": "uint8"}}, {"name": "module_apply_default/InceptionV3/InceptionV3/Mixed_6d/Branch_2/Conv2d_0a_1x1/Conv2D_weights", "shape": [1, 1, 768, 160], "dtype": "float32", "quantization": {"min": -0.6649670769186581, "scale": 0.00593720604391659, "dtype": "uint8"}}, {"name": "module_apply_default/InceptionV3/InceptionV3/Mixed_7b/Branch_1/Conv2d_0b_3x1/Conv2D_bn_offset", "shape": [384], "dtype": "float32", "quantization": {"min": -0.8318785668588152, "scale": 0.004496640901939542, "dtype": "uint8"}}, {"name": "module_apply_default/InceptionV3/InceptionV3/Mixed_6d/Branch_2/Conv2d_0a_1x1/Conv2D_bn_offset", "shape": [160], "dtype": "float32", "quantization": {"min": -2.271490711324355, "scale": 0.013054544317956064, "dtype": "uint8"}}, {"name": "module_apply_default/InceptionV3/InceptionV3/Mixed_6d/Branch_3/Conv2d_0b_1x1/Conv2D_weights", "shape": [1, 1, 768, 192], "dtype": "float32", "quantization": {"min": -1.786624864503449, "scale": 0.012237156606188007, "dtype": "uint8"}}, {"name": "module_apply_default/InceptionV3/InceptionV3/Mixed_7b/Branch_2/Conv2d_0b_3x3/Conv2D_weights", "shape": [3, 3, 448, 384], "dtype": "float32", "quantization": {"min": -0.2103130665479922, "scale": 0.002103130665479922, "dtype": "uint8"}}, {"name": "module_apply_default/InceptionV3/InceptionV3/Mixed_6d/Branch_3/Conv2d_0b_1x1/Conv2D_bn_offset", "shape": [192], "dtype": "float32", "quantization": {"min": -1.1902999223447313, "scale": 0.009156153248805626, "dtype": "uint8"}}, {"name": "module_apply_default/InceptionV3/InceptionV3/Mixed_6d/Branch_1/Conv2d_0b_1x7/Conv2D_weights", "shape": [1, 7, 160, 160], "dtype": "float32", "quantization": {"min": -0.4979344522251803, "scale": 0.006383775028527952, "dtype": "uint8"}}, {"name": "module_apply_default/InceptionV3/InceptionV3/Mixed_7c/Branch_2/Conv2d_0c_1x3/Conv2D_weights", "shape": [1, 3, 384, 384], "dtype": "float32", "quantization": {"min": -0.6825370243951386, "scale": 0.006261807563258152, "dtype": "uint8"}}, {"name": "module_apply_default/InceptionV3/InceptionV3/Mixed_6d/Branch_1/Conv2d_0b_1x7/Conv2D_bn_offset", "shape": [160], "dtype": "float32", "quantization": {"min": -1.5079210818982591, "scale": 0.010544902670617197, "dtype": "uint8"}}, {"name": "module_apply_default/InceptionV3/InceptionV3/Mixed_7b/Branch_2/Conv2d_0b_3x3/Conv2D_bn_offset", "shape": [384], "dtype": "float32", "quantization": {"min": -2.3732373854693245, "scale": 0.013184652141496247, "dtype": "uint8"}}, {"name": "module_apply_default/InceptionV3/InceptionV3/Mixed_6d/Branch_2/Conv2d_0b_7x1/Conv2D_weights", "shape": [7, 1, 160, 160], "dtype": "float32", "quantization": {"min": -0.5425028303090265, "scale": 0.005833363766763725, "dtype": "uint8"}}, {"name": "module_apply_default/InceptionV3/InceptionV3/Mixed_6d/Branch_2/Conv2d_0b_7x1/Conv2D_bn_offset", "shape": [160], "dtype": "float32", "quantization": {"min": -1.8448895173914293, "scale": 0.012811732759662704, "dtype": "uint8"}}, {"name": "module_apply_default/InceptionV3/InceptionV3/Mixed_6d/Branch_1/Conv2d_0c_7x1/Conv2D_weights", "shape": [7, 1, 160, 192], "dtype": "float32", "quantization": {"min": -0.45159638792860746, "scale": 0.004384430950763179, "dtype": "uint8"}}, {"name": "module_apply_default/InceptionV3/InceptionV3/Mixed_7b/Branch_2/Conv2d_0c_1x3/Conv2D_weights", "shape": [1, 3, 384, 384], "dtype": "float32", "quantization": {"min": -0.5716030723908367, "scale": 0.004885496345220827, "dtype": "uint8"}}, {"name": "module_apply_default/InceptionV3/InceptionV3/Mixed_6d/Branch_1/Conv2d_0c_7x1/Conv2D_bn_offset", "shape": [192], "dtype": "float32", "quantization": {"min": -2.8533475282145484, "scale": 0.015764350984610764, "dtype": "uint8"}}, {"name": "module_apply_default/InceptionV3/InceptionV3/Mixed_6d/Branch_2/Conv2d_0c_1x7/Conv2D_weights", "shape": [1, 7, 160, 160], "dtype": "float32", "quantization": {"min": -0.45376477486947003, "scale": 0.00424079228849972, "dtype": "uint8"}}, {"name": "module_apply_default/InceptionV3/InceptionV3/Mixed_7c/Branch_2/Conv2d_0c_1x3/Conv2D_bn_offset", "shape": [384], "dtype": "float32", "quantization": {"min": -0.6829078353557955, "scale": 0.0026992404559517606, "dtype": "uint8"}}, {"name": "module_apply_default/InceptionV3/InceptionV3/Mixed_6d/Branch_2/Conv2d_0c_1x7/Conv2D_bn_offset", "shape": [160], "dtype": "float32", "quantization": {"min": -2.0735631956773646, "scale": 0.014105872079437854, "dtype": "uint8"}}, {"name": "module_apply_default/InceptionV3/InceptionV3/Mixed_7b/Branch_2/Conv2d_0c_1x3/Conv2D_bn_offset", "shape": [384], "dtype": "float32", "quantization": {"min": -3.2595660340552235, "scale": 0.022024094824697457, "dtype": "uint8"}}, {"name": "module_apply_default/InceptionV3/InceptionV3/Mixed_6d/Branch_2/Conv2d_0d_7x1/Conv2D_weights", "shape": [7, 1, 160, 160], "dtype": "float32", "quantization": {"min": -0.9557553013165792, "scale": 0.006414465109507243, "dtype": "uint8"}}, {"name": "module_apply_default/InceptionV3/InceptionV3/Mixed_6d/Branch_2/Conv2d_0d_7x1/Conv2D_bn_offset", "shape": [160], "dtype": "float32", "quantization": {"min": -1.1477792183558146, "scale": 0.00964520351559508, "dtype": "uint8"}}, {"name": "module_apply_default/InceptionV3/InceptionV3/Mixed_7b/Branch_2/Conv2d_0d_3x1/Conv2D_weights", "shape": [3, 1, 384, 384], "dtype": "float32", "quantization": {"min": -0.307481050491333, "scale": 0.003014520102856206, "dtype": "uint8"}}, {"name": "module_apply_default/InceptionV3/InceptionV3/Mixed_6d/Branch_2/Conv2d_0e_1x7/Conv2D_weights", "shape": [1, 7, 160, 192], "dtype": "float32", "quantization": {"min": -0.9517850735608269, "scale": 0.00606232530930463, "dtype": "uint8"}}, {"name": "module_apply_default/InceptionV3/InceptionV3/Mixed_6d/Branch_2/Conv2d_0e_1x7/Conv2D_bn_offset", "shape": [192], "dtype": "float32", "quantization": {"min": -2.850529988606771, "scale": 0.020959779327990962, "dtype": "uint8"}}, {"name": "module_apply_default/InceptionV3/InceptionV3/Mixed_6e/Branch_0/Conv2d_0a_1x1/Conv2D_weights", "shape": [1, 1, 768, 192], "dtype": "float32", "quantization": {"min": -0.9046960891461839, "scale": 0.007415541714312983, "dtype": "uint8"}}, {"name": "module_apply_default/InceptionV3/InceptionV3/Mixed_7b/Branch_2/Conv2d_0d_3x1/Conv2D_bn_offset", "shape": [384], "dtype": "float32", "quantization": {"min": -3.5117781302508186, "scale": 0.02018263293247597, "dtype": "uint8"}}, {"name": "module_apply_default/InceptionV3/InceptionV3/Mixed_6e/Branch_0/Conv2d_0a_1x1/Conv2D_bn_offset", "shape": [192], "dtype": "float32", "quantization": {"min": -0.41596797073588654, "scale": 0.004781241042941225, "dtype": "uint8"}}, {"name": "module_apply_default/InceptionV3/InceptionV3/Mixed_6e/Branch_1/Conv2d_0a_1x1/Conv2D_weights", "shape": [1, 1, 768, 192], "dtype": "float32", "quantization": {"min": -0.5871757724705864, "scale": 0.006180797604953541, "dtype": "uint8"}}, {"name": "module_apply_default/InceptionV3/InceptionV3/Mixed_6e/Branch_1/Conv2d_0a_1x1/Conv2D_bn_offset", "shape": [192], "dtype": "float32", "quantization": {"min": -1.168948013642255, "scale": 0.006217808583203484, "dtype": "uint8"}}, {"name": "module_apply_default/InceptionV3/InceptionV3/Mixed_6e/Branch_2/Conv2d_0a_1x1/Conv2D_weights", "shape": [1, 1, 768, 192], "dtype": "float32", "quantization": {"min": -0.6104516169604133, "scale": 0.004659936007331399, "dtype": "uint8"}}, {"name": "module_apply_default/InceptionV3/InceptionV3/Mixed_6e/Branch_2/Conv2d_0a_1x1/Conv2D_bn_offset", "shape": [192], "dtype": "float32", "quantization": {"min": -2.3381491006589403, "scale": 0.012707332068798588, "dtype": "uint8"}}, {"name": "module_apply_default/InceptionV3/InceptionV3/Mixed_6e/Branch_3/Conv2d_0b_1x1/Conv2D_weights", "shape": [1, 1, 768, 192], "dtype": "float32", "quantization": {"min": -0.880863678221609, "scale": 0.007046909425772872, "dtype": "uint8"}}, {"name": "module_apply_default/InceptionV3/InceptionV3/Mixed_7c/Branch_1/Conv2d_0a_1x1/Conv2D_weights", "shape": [1, 1, 2048, 384], "dtype": "float32", "quantization": {"min": -0.8618877473999472, "scale": 0.007627325198229622, "dtype": "uint8"}}, {"name": "module_apply_default/InceptionV3/InceptionV3/Mixed_6e/Branch_3/Conv2d_0b_1x1/Conv2D_bn_offset", "shape": [192], "dtype": "float32", "quantization": {"min": -0.9505442039639342, "scale": 0.006294994728237975, "dtype": "uint8"}}, {"name": "module_apply_default/InceptionV3/InceptionV3/Mixed_6e/Branch_1/Conv2d_0b_1x7/Conv2D_weights", "shape": [1, 7, 192, 192], "dtype": "float32", "quantization": {"min": -0.4189381459180046, "scale": 0.005900537266450769, "dtype": "uint8"}}, {"name": "module_apply_default/InceptionV3/InceptionV3/Mixed_7c/Branch_2/Conv2d_0d_3x1/Conv2D_weights", "shape": [3, 1, 384, 384], "dtype": "float32", "quantization": {"min": -0.4524889395517462, "scale": 0.005451673970502966, "dtype": "uint8"}}, {"name": "module_apply_default/InceptionV3/InceptionV3/Mixed_6e/Branch_1/Conv2d_0b_1x7/Conv2D_bn_offset", "shape": [192], "dtype": "float32", "quantization": {"min": -1.4344177891226377, "scale": 0.008854430797053319, "dtype": "uint8"}}, {"name": "module_apply_default/InceptionV3/InceptionV3/Mixed_7c/Branch_1/Conv2d_0a_1x1/Conv2D_bn_offset", "shape": [384], "dtype": "float32", "quantization": {"min": -1.4523835598253736, "scale": 0.009192301011552998, "dtype": "uint8"}}, {"name": "module_apply_default/InceptionV3/InceptionV3/Mixed_6e/Branch_2/Conv2d_0b_7x1/Conv2D_weights", "shape": [7, 1, 192, 192], "dtype": "float32", "quantization": {"min": -0.3198281480985529, "scale": 0.0034390123451457305, "dtype": "uint8"}}]}]}